model_parameter/agrawal_pretrained_GRU.pth (torch, 232436 bytes, 8 tensors)

gru.weight_ih_l0 f4 [384, 18]
0.0062674363 0.008358723 0.009814977 -0.0010744614 0.0036873478 0.0019250459 0.004188215 0.016654572
0.0074828183 -0.00068054895 0.006494913 0.004702095 0.0034853404 0.007943228 0.004474703 0.006569401
0.00033807856 0.0060894378 -0.12274383 -0.06993886 -0.03312459 0.0031960122 -0.038072307 -0.011830918
-0.0015874209 -0.26820564 -0.015253556 -0.020920573 -0.095236264 -0.0188531 -0.053050786 -0.02802867
-0.1013785 -0.055993956 -0.02140704 -0.13387485 -0.049486224 -0.03277529 -0.017664475 0.0011548637
-0.018639557 -0.006699918 0.002955216 -0.12268342 -0.00327382 -0.0037672503 -0.04411924 -0.0057585146
-0.0274365 -0.019065745 -0.043931346 -0.02900635 -0.0043130033 -0.053844675 0.006405979 0.008452035
0.010131632 -0.0010156438 0.0036974 0.0020735746 0.004260899 0.017183613 0.007613763 -0.0005861238
0.006778815 0.0047806324 0.003353689 0.0079908995 0.0045884256 0.0066052815 0.00050500984 0.0061887237
-0.12368679 -0.056536123 -0.01924987 0.0034096069 -0.034655496 -0.015853 0.012026432 -0.2671379
0.0012144288 -0.010553022 -0.08408142 -0.012642068 -0.06430907 -0.018135432 -0.10494995 -0.058742564
-0.008633589 -0.13037604 -0.0009853374 -0.00344355 -0.0035130153 0.00059985445 -0.0013421876 -0.0011821007
-0.0007873397 -0.008170916 -0.0030187138 0.002086851 -0.0029487738 -0.0020455676 0.0030738874 -0.0008078493
0.00032517462 0.001470239 -0.0005793722 -0.0010475111 -0.0016426207 -0.004407183 -0.0044915713 0.00024612248
-0.0015413924 -0.0007219765 -0.00090772414 -0.0075488463 -0.0027953289 0.0017491671 -0.002817284 -0.0017391174
0.0025757083 -0.0020732956 0.00011973774 -0.0004373108 -0.00022208827 -0.00163746 -0.0007338491 -0.0033740846
-0.0033347749 0.0006526407 -0.0011807793 -0.0011523213 -0.00077936467 -0.0077934144 -0.0030813778 0.002170275
-0.002648524 -0.0020505937 0.0031512668 -0.0005843398 0.00059752003 0.0016126963 -0.0005428513 -0.0007868696
-0.04956378 -0.029154774 -0.013963485 0.0011272085 -0.017772097 -0.007691023 0.0072350786 -0.12521346
0.0026267446 -0.0033185335 -0.040457737 -0.003450404 -0.035818245 -0.019367699 -0.046802584 -0.031013058
-0.0014437382 -0.052996058 -0.1623539 -0.0669811 -0.023839295 0.0029936496 -0.035553902 -0.016750552
0.0039103087 -0.33423042 -0.002061423 -0.019557185 -0.099385954 -0.018865434 -0.06188015 -0.012596605
-0.12025863 -0.061479975 -0.016933752 -0.16078386 7.696709e-05 -0.00012822912 -0.0011360194 4.4715238e-05
-0.0004068864 -8.7570974e-05 -0.00021128281 -0.00085894956 -0.00023932326 -0.0009996783 -0.00028043345 -0.00026302336
0.00016915853 -0.0002368216 0.00014204225 0.0005574896 -0.00091092556 0.00025734853 -0.00060801 -0.0033743826
-0.003318168 0.00038574316 -0.00094422634 -0.00039035024 -0.0004912409 -0.00659454 -0.0031074875 0.0021157868
-0.0016128756 -0.001867961 0.0028238036 -0.0004389525 0.0007114651 0.0007335351 -2.270025e-05 -0.00058872486
-0.1330581 -0.04544054 -0.020581288 0.002666777 -0.032377232 -0.017148478 0.0139141455 -0.28566074
0.0048151445 -0.010470453 -0.08105785 -0.010179488 -0.06282622 -0.023282891 -0.10537891 -0.06022888
-0.007356144 -0.1335386 0.006310964 0.009817533 0.011622188 -0.0013139817 0.0037777356 0.0018630989
0.0045857728 0.017114827 0.008091014 -0.0011341097 0.006253268 0.005316283 0.003250263 0.008762452
0.0040538614 0.0067160698 -0.00013067214 0.0059489696 -0.012844165 -0.012843174 -0.010738457 0.00011696199
00000000: 115f cd3b 06f3 083c ffce 203c f1d4 8cba
00000010: 6ea7 713b d251 fc3a 4b3d 893b 2b6f 883c
00000020: 6e32 f53b de66 32ba 47d3 d43b 0814 9a3b
00000030: 4f6a 643b 5024 023c 88a0 923b 2144 d73b
00000040: 2340 b139 e889 c73b 1e61 fbbd 1b3c 8fbd
00000050: a6ad 07bd 3074 513b b5f1 1bbd 77d6 41bc
00000060: 0211 d0ba 4052 89be 0dea 79bc 9f61 abbc
00000070: 3b0b c3bd d171 9abc c84b 59bd 629c e5bc
00000080: 889f cfbd eb59 65bd d15d afbc 7d16 09be
00000090: 11b2 4abd 623f 06bd 17b5 90bc cc5e 973a
000000a0: fcb1 98bc fc8a dbbb 4cac 413b 7241 fbbd
000000b0: 968d 56bb f9e3 76bb 60b6 34bd ecb1 bcbb
000000c0: 83c2 e0bc c42f 9cbc 5bf1 33bd ba9e edbc
000000d0: 1854 8dbb 3c8c 5cbd 3fe9 d13b 677a 0a3c
000000e0: 25ff 253c 5a1f 85ba 1450 723b cfe4 073b
000000f0: 039f 8b3b a6c4 8c3c e07c f93b 1aa6 19ba
00000100: d220 de3b daa6 9c3b 91c9 5b3b 43ec 023c
00000110: 815a 963b 1e71 d83b a362 043a c7ca ca3b
00000120: 804f fdbd 6c92 67bd e7b1 9dbc b673 5f3b
00000130: ecf2 0dbd 27de 81bc 830a 453c 4dc6 88be
00000140: 782d 9f3a 95e6 2cbc e132 acbd ad20 4fbc
00000150: 79b4 83bd c290 94bc 00f0 d6bd 0b9c 70bd
00000160: e673 0dbc 4c81 05be 7026 81ba 2fad 61bb
00000170: 9e3a 66bb 8d3f 1d3a 58ec afba b8f0 9aba
00000180: 7965 4eba 4edf 05bc 9dd5 45bb 8dc3 083b
00000190: 3740 41bb ee0e 06bb 4673 493b d9c5 53ba
000001a0: 337c aa39 09b5 c03a 03e1 17ba a44c 89ba
000001b0: 344d d7ba 216a 90bb 082e 93bb 000a 8139
000001c0: 8c08 caba 0643 3dba 56f4 6dba 505c f7bb
000001d0: d631 37bb 4f44 e53a 2fa2 38bb 19f3 e3ba
000001e0: 37cd 283b 21e0 07bb b61b fb38 dd46 e5b9
000001f0: 5ee0 68b9 0aa0 d6ba c85f 40ba bf1f 5dbb
00000200: 3d8c 5abb fa15 2b3a 61c4 9aba 7d09 97ba
00000210: 474e 4cba e65f ffbb f1f0 49bb 2c3b 0e3b
00000220: dc92 2dbb 4163 06bb 7c85 4e3b 612e 19ba
00000230: e4a2 1c3a 1c61 d33a 224e 0eba ed45 4eba
00000240: 6403 4bbd fed5 eebc 1ac7 64bc d7be 933a
00000250: ca96 91bc fa04 fcbb 3d14 ed3b f537 00be
00000260: 7625 2c3b c17b 59bb 03b7 25bd 2c20 62bb
00000270: 27b6 12bd 02a9 9ebc 11b4 3fbd 190f febc
00000280: d13b bdba 6512 59bd 1a40 26be 632d 89bd
00000290: a04a c3bc 1b31 443b f8a0 11bd 7438 89bc
000002a0: 0c22 803b 4020 abbe f018 07bb 6436 a0bc
000002b0: dd8a cbbd af8b 9abc 0a76 7dbd fe61 4ebc
000002c0: 284a f6bd 6dd2 7bbd a7b8 8abc 86a4 24be
000002d0: 6469 a138 3e75 06b9 7ce6 94ba 9f8c 3b38
000002e0: 5e53 d5b9 4fa6 b7b8 cc8b 5db9 212b 61ba
000002f0: d9f2 7ab9 a307 83ba 2407 93b9 66e6 89b9
00000300: 2660 3139 5053 78b9 2df1 1439 7e24 123a
00000310: 2ecb 6eba bcec 8639 dc62 1fba bf24 5dbb
00000320: 9f75 59bb 923d ca39 f585 77ba eca7 ccb9
00000330: 9ec6 00ba 0317 d8bb fda6 4bbb 03a9 0a3b
00000340: 2067 d3ba 5fd6 f4ba 900f 393b 3523 e6b9
00000350: 9d81 3a3a b54a 403a 6a6c beb7 a854 1aba
00000360: 6240 08be dc1f 3abd 179a a8bc 18c5 2e3b
00000370: fd9d 04bd f77a 8cbc 28f8 633c 2042 92be
00000380: 5cc8 9d3b 438c 2bbc a801 a6bd dec7 26bc
00000390: 09ab 80bd c3bb bebc e6d0 d7bd 8fb2 76bd
000003a0: cf0b f1bb 58be 08be 34cc ce3b b8d9 203c
000003b0: fd6a 3e3c e939 acba e393 773b 3a33 f43a
000003c0: 4044 963b 6534 8c3c 2c90 043c 68a6 94ba
000003d0: 37e8 cc3b 3734 ae3b 5d02 553b 6390 0f3c
000003e0: 41d6 843b 7a12 dc3b 0905 09b9 93ef c23b
000003f0: 5570 52bc 2d6c 52bc 5af0 2fbc 7e49 f538

gru.weight_hh_l0 f4 [384, 128]
0.026886787 -0.0057690428 0.0053434847 -0.026893944 -0.0059902794 -0.0020829858 -0.0004795226 0.0016168487
-0.005193523 0.0055917986 0.0012086459 -0.00034303823 -0.005470463 -0.02775664 -0.0039383257 0.00036210052
0.00035368197 0.0241501 -0.024856543 0.025763838 0.02607297 0.00023118679 0.026190089 0.0023489995
0.0005272937 0.027905997 0.0046930183 -4.4181164e-05 0.00085345405 0.0046332483 0.005685607 -0.0005895465
0.027845573 0.026045851 -0.001622247 -0.0064557204 -0.0007047087 -0.0020186321 -0.026656497 -0.0066622207
-0.00055594067 0.00031077044 -0.001428594 0.0002852452 -0.005510097 6.329374e-05 -0.005704311 0.0049015637
-0.0051588733 -0.0003846495 -0.0027742346 0.00036371592 0.0003735565 -0.0011906851 -0.026796104 7.186226e-05
-0.0019914394 0.005151277 -0.025427548 -0.0049725906 -0.0054819 0.02784261 -0.026315391 -0.00042102416
-0.00046434332 -0.0007215191 0.005163946 -0.0018421882 -0.0057062777 0.026955457 0.0002951447 0.0043877764
0.0006287608 0.0018141767 -0.006331974 -0.027384544 -9.714574e-07 0.0059930976 0.00553714 0.027374078
-0.0029923609 -0.00036931972 0.00528694 -0.0047777575 -0.0057951105 -0.0013986165 -0.0017155157 0.0061736936
-0.027846491 -1.3260251e-05 -0.00655377 0.02626394 0.00016198207 -0.0049693445 0.027650937 -0.00023508526
-0.002746803 0.005659703 0.028053451 0.0015509385 -0.0056171254 0.005448459 -0.0051387623 -0.005507789
0.02734133 0.004570439 -0.0063759503 0.005351207 0.0015405188 -0.027898967 -0.023701638 0.005852424
-0.027800525 0.0062221326 -0.020928884 -3.5625904e-05 -0.005198309 -0.00037646855 -0.026366223 -0.00030974284
0.005669226 -0.027185004 0.00649085 -0.00024237772 -0.024363568 0.0046233917 -0.023548717 -0.0052679772
-0.034489147 -0.0033835573 -0.008881551 0.034118894 0.01681282 -0.0039153933 -0.011126429 0.005545158
0.01594463 -0.0038403575 0.00011201642 -0.012301701 0.015980693 0.031139698 0.0010883041 0.0052890903
0.003867429 -0.03091947 0.031548113 -0.032746207 -0.03584851 0.009358617 -0.034038868 0.010844853
0.001835997 -0.033500623 0.01393818 0.011802482 -0.0021699816 0.008500332 -0.0068734447 -0.013268532
-0.03285511 -0.035332695 -0.013548948 0.008324129 -0.009820315 -0.0022954368 0.034579135 0.025903713
-0.008534927 0.0021953443 -0.0018260669 0.013154689 -1.0363951e-05 -0.0030648944 -0.0053519425 -0.0020792326
-0.006138652 -0.00019684793 0.0020640192 0.0007226384 0.012776987 -0.0054752287 0.034838464 0.0046869693
-0.003295882 -0.0047778366 0.03211576 0.010504829 0.0054006823 -0.0339327 0.032915466 -0.001024401
-0.0024305468 -0.0064602294 0.010083115 -0.0055073895 0.023071226 -0.035535008 0.0005266587 -0.009729943
0.017562123 0.013704768 0.015640633 0.03221817 -0.008971952 0.0027526869 -0.015047767 -0.03383855
0.009115551 -0.0022584002 -0.008985046 0.0074051972 0.0041419365 -0.005936628 0.0018014081 -0.009510548
0.030879984 0.004431928 0.0075336215 -0.036705937 0.00026916465 0.0013228939 -0.032815736 -0.0054606483
-0.0067118895 -0.02127293 -0.031171292 0.008266203 0.0012999173 -0.009311783 0.014057935 0.011808832
-0.034541823 -0.013288737 0.013362983 0.0040042647 0.0049357605 0.032082614 0.030076226 -0.0111690685
0.032466657 -0.017687462 0.027158786 0.0015527882 0.015313717 -0.010166817 0.03430631 -0.0010913868
-0.013255624 0.03552149 -0.011815453 -0.0093986215 0.029744104 -0.016496006 0.030308682 0.0076838145
00000000: ae41 dc3c 3d0a bdbb 6618 af3b b050 dcbc
00000010: 1b4a c4bb b482 08bb 6f68 fbb9 71ec d33a
00000020: 6e2e aabb 683b b73b 6d6b 9e3a d0d9 b3b9
00000030: 9241 b3bb e561 e3bc 120d 81bb 4fd8 bd39
00000040: 646e b939 6ed6 c53c f39f cbbc af0e d33c
00000050: fb96 d53c bb6a 7239 998c d63c acf1 193b
00000060: 153a 0a3a 1e9b e43c e4c7 993b 2a4f 39b8
00000070: 55ba 5f3a 81d2 973b 544e ba3b cc8b 1aba
00000080: 661c e43c 1c5e d53c 94a1 d4ba 828a d3bb
00000090: 33bc 38ba 074b 04bb ba5e dabc c24e dabb
000000a0: 8cbc 11ba e7ee a239 a93f bbba f68c 9539
000000b0: 0b8e b4bb 91bc 8438 3beb babb 4c9d a03b
000000c0: c40b a9bb c8aa c9b9 efcf 35bb 20b1 be39
000000d0: e8d9 c339 c310 9cba 8183 dbbc c2b4 9638
000000e0: cf82 02bb 0bcc a83b 6f4d d0bc 1df1 a2bb
000000f0: 83a1 b3bb 2f16 e43c 6093 d7bc e8bc dcb9
00000100: 1b73 f3b9 5424 3dba 5236 a93b 9475 f1ba
00000110: bafb babb b1d1 dc3c a7bd 9a39 56c7 8f3b
00000120: 6cd3 243a abc9 ed3a 737c cfbb 8d55 e0bc
00000130: 0663 82b5 bf61 c43b e670 b53b 9a3f e03c
00000140: 7c1b 44bb 41a1 c1b9 113e ad3b bc8e 9cbb
00000150: e9e4 bdbb c851 b7ba 28db e0ba b24c ca3b
00000160: 531e e4bc 5878 5eb7 02c1 d6bb 7927 d73c
00000170: bbd9 2939 e2d5 a2bb 3884 e23c 3881 76b9
00000180: b503 34bb 0875 b93b 5ad0 e53c dc48 cb3a
00000190: dd0f b8bb fd88 b23b 1063 a8bb af7a b4bb
000001a0: edfa df3c 9fc3 953b 59ed d0bb 2e59 af3b
000001b0: 3ceb c93a 608c e4bc f029 c2bc b1c5 bf3b
000001c0: edbd e3bc 08e3 cb3b 0d73 abbc 066d 15b8
000001d0: 9456 aabb c160 c5b9 fafd d7bc fb64 a2b9
000001e0: eac4 b93b 16b3 debc 32b1 d43b c626 7eb9
000001f0: 1b96 c7bc d27f 973b 3de9 c0bc ff9e acbb
00000200: 7e44 0dbd acbe 5dbb ed83 11bc 41c0 0b3d
00000210: 0abb 893c b34c 80bb a04b 36bc 28b4 b53b
00000220: 509e 823c 82ae 7bbb 5cea ea38 138d 49bc
00000230: f1e9 823c ae18 ff3c 6da5 8e3a 1b50 ad3b
00000240: b174 7d3b d44a fdbc 9838 013d e320 06bd
00000250: e3d5 12bd e254 193c 576c 0bbd 9cae 313c
00000260: d6a5 f03a f337 09bd f75c 643c 335f 413c
00000270: 4036 0ebb fa44 0b3c a23a e1bb 4264 59bc
00000280: 1493 06bd 04b9 10bd 68fc 5dbc ed61 083c
00000290: 63e5 20bc 0a6f 16bb daa2 0d3d 0634 d43c
000002a0: 14d6 0bbc c4df 0f3b a358 efba c486 573c
000002b0: d5e0 2db7 65dc 48bb 595f afbb bc43 08bb
000002c0: bf26 c9bb f768 4eb9 7f44 073b 716f 3d3a
000002d0: 9156 513c 8c69 b3bb c7b2 0e3d 2695 993b
000002e0: b9ff 57bb 668f 9cbb d18b 033d 721c 2c3c
000002f0: 35f8 b03b 04fd 0abd 5ed2 063d 3245 86ba
00000300: cf49 1fbb 55b0 d3bb a633 253c 5577 b4bb
00000310: deff bc3c 288d 11bd 780f 0a3a 576a 1fbc
00000320: 71de 8f3c f789 603c c920 803c 33f7 033d
00000330: 18ff 12bc 6c66 343b e98a 76bc 4b9a 0abd
00000340: 6459 153c ab01 14bb 0436 13bc 4ca7 f23b
00000350: 15b9 873b 0c88 c2bb 3a1d ec3a 21d2 1bbc
00000360: 05f8 fc3c b539 913b 99dc f63b f758 16bd
00000370: ab1e 8d39 f464 ad3a cb69 06bd 3def b2bb
00000380: 69ef dbbb 9144 aebc f05a ffbc f86e 073c
00000390: fd61 aa3a 7390 18bc 4153 663c d579 413c
000003a0: ba7b 0dbd 01b9 59bc 6af0 5a3c 3536 833b
000003b0: 29bc a13b 0f69 033d 6b62 f63c 78fe 36bc
000003c0: c2fb 043d 4ce5 90bc 1a7c de3c ed86 cb3a
000003d0: 62e6 7a3c b992 26bc c684 0c3d dd0c 8fba
000003e0: 1e2e 59bc fb7e 113d 9a95 41bc adfc 19bc
000003f0: e8a9 f33c a222 87bc ea49 f83c 82c8 fb3b

gru.bias_ih_l0 f4 [384]
0.031915963 -0.015105567 -0.023190068 0.03199079 -0.016099535 -0.004612553 -0.0042234887 -0.0041782246
-0.028195774 -0.0022211766 -0.0016161954 -0.0026187375 -0.007934974 0.034791116 -0.026803434 -0.001392091
-0.0024927629 0.026411625 0.027168412 0.028843362 0.029841166 -0.0024883943 0.030404143 -0.011700607
-0.009037874 0.03646332 -0.0130881425 -0.01065973 -0.00047379616 -0.022030981 -0.020546963 -0.0046201716
0.035578642 0.029575683 -0.007693129 -0.036625024 -0.0040404373 -0.017637113 0.031345654 -0.046650413
-0.0033771447 -0.0017679252 -0.002394936 -0.010184977 -0.033191703 -0.0020410912 -0.030468611 -0.025537929
-0.016199589 -0.00800271 -0.017737234 -0.008144394 -0.008493767 -0.006042713 0.032648712 -0.0031836526
-0.0033868528 -0.028204791 0.027849391 -0.0018646151 -0.016563764 0.03674932 0.030171243 -0.0007568402
-0.0120591 -0.002474151 -0.022297699 -0.0032205593 -0.021178944 0.0321075 -0.009315518 -0.033065088
-0.0041182297 -0.014403458 -0.027039953 0.03656359 -0.002934399 -0.027823968 -0.031958543 0.03478677
-0.028153945 -0.00805159 -0.0042744856 -0.0011982045 -0.017624147 -0.0050377143 -0.001784352 -0.021304572
0.035742 -0.0016171528 -0.03739591 0.030225374 -0.006122764 -0.02135671 0.034940753 -0.0013214912
-0.0050278455 -0.025781013 0.03684766 -0.0030904 -0.034888715 -0.022798777 -0.020928241 -0.033231903
0.034074776 -0.031130224 -0.020758193 -0.029560925 -0.002301874 0.03579961 0.025813635 -0.030712575
0.03598847 -0.026500784 0.021967042 -0.0045993333 -0.024101712 -0.0031902506 0.030538678 -0.010628714
-0.015840469 0.03323767 -0.03635419 -0.0040410478 0.02611152 -0.035029702 0.025549011 -0.040623285
-0.0006867632 -0.10257082 -0.06738506 -0.0007496557 -0.093845 -0.009779304 -0.007493798 -0.009460996
-0.064237654 -0.095439784 0.00042454933 -0.00957992 -0.086758666 -0.0007001855 -0.041713774 -0.00066441874
-0.00038323313 -0.00091010926 -0.0006051328 -0.00035177352 -0.0010998156 -0.004704445 -0.00094874424 -0.036642633
0.00033258923 -0.0004948486 -0.101160705 -0.009440776 0.00042680622 -0.062390663 -0.0871858 -0.01507337
-0.0007387182 -0.0006399512 -0.030979818 -0.066356875 -0.008649743 -0.023370925 -0.0009957686 -0.07992396
-0.005594145 9.5621135e-06 -0.0017017099 -0.014198129 -0.06400799 -9.709698e-05 -0.08526856 -0.04556168
-0.072720654 7.080678e-05 -0.021465741 0.0002252817 -0.013336165 -0.010298936 -0.0007051761 -0.00042134058
-0.0062656663 -0.065696485 -0.00037068306 7.498074e-05 -0.06676229 7.074639e-05 -0.00030355857 0.0005828717
0.00014508908 -0.0010657515 -0.07273088 -0.007907698 -0.09421462 -0.0007058393 0.00020577188 -0.053296883
-0.023645254 -0.036672704 -0.083612986 0.00044615837 -0.0044162036 -0.075594194 -0.049199015 -0.00016725107
-0.039463174 0.00031633297 -0.086447366 -0.08888396 -0.09802671 -0.009295804 0.00026910144 -0.09426132
-0.0006557432 -0.00033405115 -0.08386588 -0.0010411828 5.1245097e-05 -0.06873744 -0.0009840787 -0.00050217845
-0.020241303 -0.08984313 -0.00036696863 -0.009631445 -0.062492285 -0.07828998 -0.06835932 -0.045257133
-0.0005219956 -0.04858007 -0.08363713 -0.064623386 -0.003976868 -0.00066045596 -0.00082445756 -0.08074362
-0.00047357782 -0.07826277 -0.000991824 0.00013027542 -0.06445104 -0.006073382 -0.00051577075 -6.5868085e-06
-0.10160782 -0.0006872305 -0.09182128 -0.0020530561 -0.00037977472 -0.05441189 -0.00081641664 -0.06389118
00000000: 50ba 023d 577d 77bc 19f9 bdbc c608 033d
00000010: 2ce3 83bc e624 97bb 3165 8abb 7de9 88bb
00000020: d3fa e6bc 2991 11bb 85d6 d3ba 209f 2bbb
00000030: b101 02bc 2181 0e3d e092 dbbc d376 b6ba
00000040: 9f5d 23bb 315d d83c 4a90 de3c ea48 ec3c
00000050: 7675 f43c 5414 23bb 1c12 f93c e7b3 3fbc
00000060: 9713 14bc 905a 153d a66f 56bc 26a6 2ebc
00000070: d867 f8b9 517a b4bc 1b52 a8bc cf64 97bb
00000080: e9ba 113d b448 f23c a516 fcbb 1f04 16bd
00000090: a565 84bb b57b 90bc 4d64 003d 8114 3fbd
000000a0: 1653 5dbb bab9 e7ba 5cf4 1cbb e4de 26bc
000000b0: 06f4 07bd d4c3 05bb 4f99 f9bc eb34 d1bc
000000c0: 00b5 84bc cc1d 03bc ad4d 91bc 1070 05bc
000000d0: 7129 0bbc f301 c6bb a8ba 053d d4a4 50bb
000000e0: f6f5 5dbb bc0d e7bc 6824 e43c 1a66 f4ba
000000f0: bbb0 87bc 7486 163d af29 f73c b066 46ba
00000100: 8893 45bc 5e25 22bb aaa9 b6bc 0510 53bb
00000110: 777f adbc 2783 033d 1da0 18bc 426f 07bd
00000120: 37f2 86bb 7bfc 6bbc e482 ddbc b4c3 153d
00000130: 0c4f 40bb 17ef e3bc f6e6 02bd 927c 0e3d
00000140: 1aa3 e6bc d1ea 03bc fc10 8cbb 120d 9dba
00000150: 8460 90bc 6913 a5bb ebe0 e9ba ed86 aebc
00000160: 3466 123d a5f6 d3ba 742c 19bd 349b f73c
00000170: 78a1 c8bb 44f4 aebc 091e 0f3d e335 adba
00000180: a0c0 a4bb b432 d3bc 92ed 163d 4f88 4abb
00000190: 78e7 0ebd 80c4 babc b471 abbc 2d1e 08bd
000001a0: fe91 0b3d d004 ffbc 160d aabc c129 f2bc
000001b0: 0adb 16bb 9da2 123d 1e77 d33c f098 fbbc
000001c0: a568 133d 2c18 d9bc 3af4 b33c 01b6 96bb
000001d0: f470 c5bc 8613 51bb 402c fa3c 0f24 2ebc
000001e0: dfc3 81bc 3924 083d 22e8 14bd c46a 84bb
000001f0: d4e7 d53c 4e7b 0fbd 294c d13c 9a64 26bd
00000200: e607 34ba a610 d2bd 2e01 8abd 8b84 44ba
00000210: cf31 c0bd 6039 20bc 898e f5bb 4b02 1bbc
00000220: 088f 83bd ef75 c3bd 0c96 de39 19f5 1cbc
00000230: 87ae b1bd a78c 37ba 10dc 2abd 632c 2eba
00000240: aeec c8b9 6694 6eba c6a1 1eba 3e6e b8b9
00000250: b027 90ba bf27 9abb 26b5 78ba 9616 16bd
00000260: 5f5f ae39 bab8 01ba 582d cfbd 7cad 1abc
00000270: f6c4 df39 5a8d 7fbd 788e b2bd 4cf6 76bc
00000280: 8aa6 41ba 66c2 27ba 63c9 fdbc 1de6 87bd
00000290: a7b7 0dbc 6274 bfbc 7384 82ba 2caf a3bd
000002a0: 174f b7bb f76c 2037 e90b dfba 459f 68bc
000002b0: 9f16 83bd 8ba0 cbb8 48a1 aebd e29e 3abd
000002c0: 91ee 94bd 1a7e 9438 ecd8 afbc 9939 6c39
000002d0: ee7f 5abc debc 28bc 91db 38ba 60e7 dcb9
000002e0: 3850 cdbb e18b 86bd 3d58 c2b9 fa3e 9d38
000002f0: abba 88bd ae5d 9438 f126 9fb9 dccb 183a
00000300: 0e23 1839 b0b0 8bba edf3 94bd 4a8f 01bc
00000310: 98f3 c0bd 1308 39ba 78c4 5739 d54d 5abd
00000320: b1b3 c1bc 1e36 16bd 493d abbd 5dea e939
00000330: cdb5 90bb 21d1 9abd e884 49bd 1e60 2fb9
00000340: 23a4 21bd 7ed9 a539 510b b1bd cb08 b6bd
00000350: 3ac2 c8bd 6e4d 18bc 2f16 8d39 140c c1bd
00000360: 2ee6 2bba 9623 afb9 e0c1 abbd 4c78 88ba
00000370: 01f0 5638 37c6 8cbd 34fc 80ba a0a4 03ba
00000380: 17d1 a5bc adff b7bd b265 c0b9 35cd 1dbc
00000390: e9f7 7fbd 7f56 a0bd f9ff 8bbd 8b5f 39bd
000003a0: 88d6 08ba e5fb 46bd f249 abbd 4459 84bd
000003b0: 6350 82bb 7322 2dba 6920 58ba e95c a5bd
000003c0: 8a4a f8b9 3b48 a0bd 1700 82ba 8b9a 0839
000003d0: e8fe 83bd 3903 c7bb ca34 07ba 4104 ddb6
000003e0: c317 d0bd 4227 34ba cc0c bcbd 918c 06bb
000003f0: 801c c7b9 01df 5ebd cb04 56ba 61d9 82bd

gru.bias_hh_l0 f4 [384]
0.031915955 -0.015219666 -0.022996405 0.031987555 -0.01594594 -0.0046126554 -0.0042338604 -0.0041782153
-0.029328361 -0.0013254537 -0.0016161946 -0.0026190195 -0.00857455 0.03479114 -0.0267912 -0.001392047
-0.0024935019 0.026411703 0.027168566 0.028843364 0.029841166 -0.002488406 0.030404298 -0.011652282
-0.009037459 0.036463615 0.002290654 -0.010042059 -0.00047128712 -0.022029031 -0.018210594 -0.0046197684
0.035578635 0.029575681 -0.0077303704 -0.036598425 -0.004009039 -0.017635401 0.031345673 -0.03512215
-0.0033771852 -0.0017665998 -0.002395057 -0.010185915 -0.033200525 -0.0020408109 -0.03047721 -0.024179287
-0.020540634 -0.008003578 -0.017670143 -0.00814468 -0.008550154 -0.0060279625 0.032648712 -0.0031836203
-0.0033868544 -0.027523672 0.027849492 -0.001864577 -0.017254377 0.0367822 0.030172864 -0.0007568411
-0.012057898 -0.0024508776 -0.022347495 -0.0032204834 -0.02115028 0.0321076 -0.009315628 -0.03333748
-0.004168467 -0.014753687 -0.032521103 0.0365465 -0.0029339737 -0.027945949 -0.02949517 0.034786873
-0.023319943 -0.008050918 -0.004345098 -0.022125537 -0.01794821 -0.0050376384 -0.001784423 -0.021029742
0.035729486 -0.0016271744 -0.03988219 0.030225355 -0.006122298 -0.024667792 0.034940753 -0.0013216503
-0.005027861 -0.026293201 0.03684916 -0.0030903788 -0.034888405 -0.03288178 -0.019941043 -0.033231627
0.034074787 -0.030507237 -0.03442448 -0.029589692 -0.002302105 0.035792764 0.025813645 -0.028132029
0.035989754 -0.026458623 0.021967059 -0.004599355 -0.024207892 -0.0031945053 0.03053891 -0.010628781
-0.015961157 0.033239894 -0.036437407 -0.004058968 0.026111519 -0.03525505 0.025549056 -0.040571976
-0.00068615173 -0.102570996 -0.06735392 -0.0007490591 -0.09387252 -0.009779575 -0.0074938824 -0.009460872
-0.06424005 -0.09553102 0.00042441534 -0.009580728 -0.0867404 -0.00070066267 -0.041716997 -0.000664666
-0.00038300006 -0.0009108612 -0.00059959537 -0.00035165972 -0.0011000278 -0.0047044544 -0.00095094065 -0.036649466
0.00033233227 -0.00049432216 -0.10135864 -0.009440752 0.00042659757 -0.062391005 -0.087109536 -0.015076308
-0.0007408417 -0.0006420955 -0.030978419 -0.06635712 -0.008650355 -0.023370765 -0.0009940411 -0.079919234
-0.005593463 9.5121995e-06 -0.0017017602 -0.014198158 -0.06400765 -9.72157e-05 -0.08524629 -0.045557234
-0.0726904 7.0805705e-05 -0.021464955 0.0002253926 -0.013336138 -0.010298932 -0.0007051813 -0.00042129093
-0.006270278 -0.065688305 -0.00035956013 7.49734e-05 -0.066752166 7.070737e-05 -0.00031239688 0.0005819546
0.00014504652 -0.0010658662 -0.07278285 -0.0079076 -0.09418055 -0.00070557406 0.00020523336 -0.053298134
-0.023637764 -0.036672596 -0.0836049 0.00044615282 -0.00441623 -0.07562206 -0.04920454 -0.00016677123
-0.03946177 0.0003160691 -0.08646755 -0.088948466 -0.098046474 -0.0092955055 0.00026899672 -0.09425218
-0.0006588674 -0.0003338241 -0.083892345 -0.0010408055 5.135322e-05 -0.06868091 -0.0009828854 -0.00050226384
-0.020248305 -0.08984417 -0.00036861107 -0.009631457 -0.062488135 -0.078309186 -0.06835053 -0.04525705
-0.0005243053 -0.04857994 -0.08364014 -0.06461094 -0.00397727 -0.00066507567 -0.0008203502 -0.080766246
-0.00047380137 -0.07826171 -0.0009899514 0.00012934348 -0.06445132 -0.0060733776 -0.0005062 -6.5104387e-06
-0.10162053 -0.0006927543 -0.09182903 -0.0020530366 -0.0003813989 -0.054411888 -0.00082287134 -0.06389245
00000000: 4eba 023d e85b 79bc f562 bcbc 6205 033d
00000010: 0fa1 82bc c225 97bb 32bc 8abb 69e9 88bb
00000020: 0842 f0bc d9ba adba 7ed6 d3ba dba3 2bbb
00000030: 457c 0cbc 2881 0e3d 3879 dbbc 5975 b6ba
00000040: 056a 23bb 5b5d d83c 9d90 de3c eb48 ec3c
00000050: 7675 f43c 8614 23bb 6f12 f93c 37e9 3ebc
00000060: da11 14bc df5a 153d cc1e 163b 7387 24bc
00000070: 1617 f7b9 3a76 b4bc 622e 95bc 6d61 97bb
00000080: e7ba 113d b348 f23c 0c4f fdbb 3be8 15bd
00000090: 425e 83bb 1e78 90bc 5264 003d 3edc 0fbd
000000a0: c453 5dbb 418d e7ba 63f6 1cbb d3e2 26bc
000000b0: 46fd 07bd 20bf 05bb 58ab f9bc a413 c6bc
000000c0: d544 a8bc 7021 03bc fac0 90bc 4471 05bc
000000d0: f215 0cbc 3786 c5bb a8ba 053d 49a4 50bb
000000e0: fdf5 5dbb 5379 e1bc 9e24 e43c d264 f4ba
000000f0: 0d59 8dbc efa8 163d 152d f73c bf66 46ba
00000100: 7d8e 45bc e79e 20bb 1812 b7bc bf0e 53bb
00000110: 5a43 adbc 4283 033d 93a0 18bc e28c 08bd
00000120: a397 88bb 73b9 71bc d934 05bd c8b1 153d
00000130: e947 40bb e7ee e4bc db9f f1bc ae7c 0e3d
00000140: 7709 bfbc ffe7 03bc 5361 8ebb 9d40 b5bc
00000150: 2008 93bc c612 a5bb 4de3 e9ba 9146 acbc
00000160: 1559 123d ea46 d5ba 825b 23bd 2a9b f73c
00000170: 8f9d c8bb 1c14 cabc 091e 0f3d 3a3b adba
00000180: c1c0 a4bb d764 d7bc 25ef 163d f487 4abb
00000190: 25e7 0ebd 0caf 06bd 665b a3bc e31d 08bd
000001a0: 0192 0b3d 50ea f9bc af00 0dbd 1566 f2bc
000001b0: eade 16bb 6f9b 123d 2377 d33c 2475 e6bc
000001c0: fe69 133d c1bf d8bc 43f4 b33c 30b6 96bb
000001d0: a14f c6bc e85a 51bb bc2c fa3c 5724 2ebc
000001e0: f9c0 82bc 8e26 083d 643f 15bd 1701 85bb
000001f0: d3e7 d53c 9967 10bd 414c d13c cd2e 26bd
00000200: ddde 33ba be10 d2bd daf0 89bd 815c 44ba
00000210: 3c40 c0bd 833a 20bc 3e8f f5bb c601 1bbc
00000220: 4a90 83bd c4a5 c3bd 1084 de39 7cf8 1cbc
00000230: f3a4 b1bd adac 37ba 71df 2abd fb3c 2eba
00000240: 66cd c8b9 dcc6 6eba 2a2e 1dba f85e b8b9
00000250: cf2e 90ba d327 9abb 8c48 79ba c01d 16bd
00000260: e23c ae39 6695 01ba 1e95 cfbd 62ad 1abc
00000270: f5a8 df39 b68d 7fbd 7c66 b2bd 9e02 77bc
00000280: 0b35 42ba 4d52 28ba 74c6 fdbc 3ee6 87bd
00000290: 38ba 0dbc 0c74 bfbc 7c4a 82ba b2ac a3bd
000002a0: 5e49 b7bb 9696 1f37 990d dfba 649f 68bc
000002b0: 7116 83bd 48e0 cbb8 9b95 aebd 399a 3abd
000002c0: b4de 94bd 867d 9438 46d7 afbc 5e57 6c39
000002d0: d17f 5abc dabc 28bc eadb 38ba b6e0 dcb9
000002e0: e776 cdbb 9787 86bd 5883 bcb9 0a3b 9d38
000002f0: 5cb5 88bd bb48 9438 33c9 a3b9 508e 183a
00000300: a117 1839 89b4 8bba 2d0f 95bd e18e 01bc
00000310: bbe1 c0bd 46f6 38ba e933 5739 254f 5abd
00000320: fca3 c1bc 0136 16bd 0c39 abbd 9ee9 e939
00000330: 06b6 90bb bddf 9abd b38a 49bd 50df 2eb9
00000340: aaa2 21bd 14b6 a539 e615 b1bd 9d2a b6bd
00000350: 97cc c8bd 2d4c 18bc 2108 8d39 4907 c1bd
00000360: d8b7 2cba 1d05 afb9 c0cf abbd a36b 88ba
00000370: 1a64 5738 94a8 8cbd 29d4 80ba 5baa 03ba
00000380: c6df a5bc 3800 b8bd 2442 c1b9 42cd 1dbc
00000390: 8ff3 7fbd 9160 a0bd 5dfb 8bbd 755f 39bd
000003a0: 8871 09ba c2fb 46bd 864b abbd be52 84bd
000003b0: c253 82bb 7958 2eba c50c 57ba c668 a5bd
000003c0: 8b68 f8b9 ad47 a0bd 42c1 81ba 60a0 0739
000003d0: 0eff 83bd 2f03 c7bb 82b2 04ba 3e74 dab6
000003e0: 6d1e d0bd f499 35ba dc10 bcbd 3d8c 06bb
000003f0: 7ef6 c7b9 00df 5ebd f6b5 57ba 0bda 82bd

linear2.weight f4 [2, 128]
0.008475111 -0.71907276 0.4027905 0.014943717 -0.642079 -0.12857123 -0.10309689 0.10331592
-0.4026907 0.59084916 0.06553331 -0.109529726 -0.5637443 -0.023078213 -0.25075457 0.039727796
0.03841213 -0.035308816 -0.017480558 0.019954745 0.03358188 0.093385644 -0.004275503 0.18489823
0.0138769075 -0.06459435 0.62987834 0.12604214 -0.00033139106 0.339163 0.5608534 -0.11480581
-0.051801812 -0.026026158 -0.18131933 -0.38554215 -0.1130479 -0.18042712 -0.023982093 -0.58007014
-0.090934984 0.010887134 -0.07094019 0.12841071 -0.3308851 -0.04534601 -0.5107069 0.26675597
-0.41039234 0.00014327448 -0.17435959 0.03119439 0.12439963 -0.121315986 0.05482505 0.037272148
-0.12566091 0.39936596 -0.016617209 -0.008616447 -0.36998245 -0.067176744 -0.021277864 -0.013305578
0.011915162 -0.06199997 0.39241964 -0.112926975 -0.6625167 0.065228 0.023759564 0.33278665
0.16233535 0.21766877 -0.5499575 0.15859494 -0.08441579 0.40839097 0.28977346 -0.081558555
-0.26735157 -0.023057934 0.5363225 -0.5728142 -0.68539965 -0.13276456 -0.054718263 0.6613819
0.03500594 0.043181576 -0.52166367 -0.047675684 0.015508873 -0.41836828 -0.020658644 -0.045739766
-0.13225658 0.62729037 -0.10170348 0.1246704 -0.35691893 0.50391185 -0.42792445 -0.2751499
-0.027117081 0.2986741 -0.5502682 0.3363478 0.08327465 0.082654424 -0.009256548 0.52798
0.104799695 0.5202022 0.028818043 0.046693664 -0.4176448 -0.11589832 -6.0831386e-05 -0.020828782
0.7523854 -0.005649977 0.6350985 -0.11188929 -0.036786567 0.3720205 -0.028303191 -0.3869795
0.014303919 0.6832185 -0.40329728 0.023597611 0.65158015 0.111972116 0.12041529 -0.1346359
0.43021595 -0.6285137 -0.024566127 0.09696172 0.5731377 -0.0667915 0.23870504 -0.07972866
-0.040233538 -0.06752645 0.045338474 -0.047241643 0.044781476 -0.075969085 0.021155922 -0.21318382
-0.016906379 0.050976906 -0.61324894 -0.15307091 -0.02895197 -0.3443169 -0.5832787 0.1511074
0.057452455 -0.07941858 0.17665076 0.38474113 0.109859616 0.1632944 -0.034429133 0.5684673
0.105617404 -0.05020449 0.0765777 -0.18051825 0.36803788 0.022342937 0.5103239 -0.25186342
0.39942312 0.0053817644 0.15855691 3.7953016e-06 -0.17861454 0.12560475 -0.053855903 -0.05685705
0.09401402 -0.3885872 0.04936694 0.084800325 0.40400833 0.1261454 0.054943282 0.04271191
0.022810893 0.07615332 -0.38543743 0.110719755 0.694263 0.048282564 -0.0003732685 -0.33343405
-0.15773904 -0.18489571 0.58306533 -0.099984795 0.08655181 -0.42591467 -0.3334792 0.076506175
0.25847378 -0.0014521827 -0.5526879 0.5638614 0.64506173 0.10102457 0.040092804 -0.6367735
-0.060483508 -0.04018942 0.53828895 -0.05446668 -0.01830829 0.41285077 0.054041162 0.067691825
0.16114447 -0.6400762 0.071460836 -0.09502856 0.33204627 -0.5052971 0.44863743 0.28331456
0.110898234 -0.31424975 0.5451533 -0.34759155 -0.08837723 0.009793297 0.008948001 -0.5398054
-0.038325023 -0.5220958 0.05682276 2.6916094e-05 0.4133245 0.0852512 0.047779895 0.024419462
-0.71496034 -0.0143054845 -0.61048675 0.056212723 0.054222077 -0.3412416 0.008176995 0.39144152
00000000: 31db 0a3c 2715 38bf 8e3a ce3e 7ed6 743c
00000010: 4a5f 24bf 2da8 03be 7624 d3bd 4c97 d33d
00000020: 7a2d cebe e441 173f 5436 863d 1f51 e0bd
00000030: 8c51 10bf 850e bdbc e762 80be 9db9 223d
00000040: 0a56 1d3d fa9f 10bd 6333 8fbc 2278 a33c
00000050: 278d 093d f940 bf3d 8519 8cbb f655 3d3e
00000060: f85b 633c 0b4a 84bd b53f 213f 3111 013e
00000070: 8ebe adb9 c6a6 ad3e 1794 0f3f 4f1f ebbd
00000080: 232e 54bd cf34 d5bc c6ab 39be c865 c5be
00000090: a885 e7bd e3c1 38be 1876 c4bc 7a7f 14bf
000000a0: 1f3c babd f35f 323c 1749 91bd 197e 033e
000000b0: c669 a9be bdbc 39bd b0bd 02bf 3d94 883e
000000c0: f21e d2be f33b 1639 528b 32be 618b ff3c
000000d0: 3cc5 fe3d 8474 f8bd 3b90 603d aeaa 183d
000000e0: 41ad 00be b279 cc3e d020 88bc 002c 0dbc
000000f0: 576e bdbe f693 89bd ea4e aebc a4ff 59bc
00000100: d037 433c aef3 7dbd 3aeb c83e 4246 e7bd
00000110: b29a 29bf 4296 853d 6ba3 c23c 0363 aa3e
00000120: 3d3b 263e 90e4 5e3e 04ca 0cbf b666 223e
00000130: 30e2 acbd 9f18 d13e 305d 943e 2c08 a7bd
00000140: 4ee2 88be fee3 bcbc 6e4c 093f f4a3 12bf
00000150: 5a76 2fbf 6ff3 07be 4220 60bd 5350 293f
00000160: 6362 0f3d 2adf 303d c08b 05bf 9447 43bd
00000170: ee18 7e3c 5e34 d6be 513c a9bc 9f59 3bbd
00000180: 456e 07be 1a96 203f ea49 d0bd 3253 ff3d
00000190: 14be b6be 5e00 013f ea18 dbbe 73e0 8cbe
000001a0: a424 debc d0eb 983e 60de 0cbf c735 ac3e
000001b0: e68b aa3d b946 a93d c7a8 17bc b329 073f
000001c0: 39a1 d63d f92b 053f d113 ec3c db41 3f3d
000001d0: 8ad5 d5be 195c edbd 3425 7fb8 1fa1 aabc
000001e0: 549c 403f 7123 b9bb d195 223f 3626 e5bd
000001f0: 83ad 16bd 7979 be3e 18dc e7bc 2d22 c6be
00000200: fc5a 6a3c 68e7 2e3f fb7c cebe c74f c13c
00000210: f5cd 263f a351 e53d 4b9c f63d fedd 09be
00000220: 4445 dc3e 46e6 20bf e73e c9bc de93 c63d
00000230: 27b9 123f fbc9 88bd 186f 743e c848 a3bd
00000240: eccb 24bd 4f4b 8abd d6b4 393d 7480 41bd
00000250: c86c 373d ae95 9bbd 2f4f ad3c dc4c 5abe
00000260: 3f7f 8abc 29cd 503d e2fd 1cbf 9fbe 1cbe
00000270: af2c edbc 4e4a b0be c151 15bf e6bb 1a3e
00000280: 4453 6b3d 35a6 a2bd f0e3 343e cafc c43e
00000290: 14fe e03d a636 273e 9005 0dbd 1387 113f
000002a0: f04d d83d 39a3 4dbd c5d4 9c3d c7d9 38be
000002b0: 766f bc3e 8908 b73c 96a4 023f 3ef4 80be
000002c0: 3081 cc3e 8359 b03b be5c 223e c9b2 7e36
000002d0: bbe6 36be 889e 003e 0298 5cbd f0e2 68bd
000002e0: 6c8a c03d e7f4 c6be fd34 4a3d cbab ad3d
000002f0: 2eda ce3e 422c 013e 350c 613d aff2 2e3d
00000300: e9dd ba3c 46f6 9b3d 0e58 c5be 0ac1 e23d
00000310: 38bb 313f f0c3 453d 40b3 c3b9 deb7 aabe
00000320: 5886 21be 4d55 3dbe c543 153f d4c4 ccbd
00000330: 1342 b13d 7d11 dabe c9bd aabe 45af 9c3d
00000340: ad56 843e 2a57 beba f47c 0dbf 3959 103f
00000350: c422 253f f8e5 ce3d 5a38 243d 9703 23bf
00000360: 8ebd 77bd a99d 24bd 4ecd 093f 7418 5fbd
00000370: 44fb 95bc 2d61 d33e 445a 5d3d 03a2 8a3d
00000380: 0e03 253e 09dc 23bf 0f5a 923d 559e c2bd
00000390: f801 aa3e 275b 01bf ceb3 e53e 9b0e 913e
000003a0: 9d1e e33d 58e5 a0be 2b8f 0b3f 85f7 b1be
000003b0: 1fff b4bd 1174 203c a39a 123c b030 0abf
000003c0: b3fa 1cbd 12a8 05bf fbbe 683d dfc9 e137
000003d0: 459f d33e 2e98 ae3d dab4 433d 530b c83c
000003e0: a407 37bf 8d61 6abc dc48 1cbf 503f 663d
000003f0: f817 5e3d 38b7 aebe cef8 053c 066b c83e

linear2.bias f4 [2]
-0.11665792 0.037805524
00000000: 59ea eebd f7d9 1a3d

linear1.weight f4 [18, 9]
0.04000547 0.0629116 -0.8547657 0.024023796 0.005871149 0.0703848 0.08216997 -0.012396449
-0.0023398143 -0.10409469 0.10303828 0.31293443 0.21705733 0.04183177 0.059476968 -0.14579977
0.15309678 0.1474823 -0.074425325 0.2666992 -0.12794195 0.039325222 -0.1397316 -0.04991448
0.21606717 -0.09561757 -0.08361447 0.039403845 0.08355243 -0.014737098 -0.038673867 -0.039983176
-0.017029837 0.01456806 0.0014456259 -0.0013537825 -0.041575562 0.05315354 -0.32422528 -0.008925147
0.16173789 0.04900352 -0.059873596 0.1601844 -0.102390885 -0.08841963 -0.061175343 -0.13501972
0.041090183 -0.04592951 -0.109841384 0.057925034 -0.019165695 0.13858153 -0.045000978 0.106060505
-0.13627395 0.20177066 -0.10269468 -0.09453715 -0.08896198 -0.011398208 -0.09405973 0.029142223
0.009954107 1.1817348 0.009305157 -0.0019875853 -0.031661842 0.011692268 -0.008883766 -0.006211168
0.24010308 0.020337237 -0.036716223 0.090634994 -0.07227661 0.013839109 0.047309715 0.04955817
-0.1201986 0.010885352 0.068254314 0.2910237 0.01269234 -0.26016247 -0.06229867 -0.06981369
-0.22303008 -0.22410142 0.08540043 -0.039091602 -0.84421825 0.084147096 0.006407734 -0.10040633
-0.020110732 -0.08362844 -0.13605687 -0.013274219 0.007835821 0.056714732 0.11514003 0.047192603
-0.03337591 0.012433655 0.078417 -0.026930798 -0.062120665 0.013913241 0.51839364 -0.12099611
0.0050537908 0.039957393 -0.12216848 0.022169087 -0.0076781525 0.2910748 0.15268727 -0.07995997
-0.20593022 -0.13770439 -0.15003926 0.1602257 -0.19496717 -0.17182101 -0.079118244 -0.08313262
-0.9150178 0.041520216 -0.015849492 0.13307786 0.106775805 8.952516e-05 0.08518066 -0.07203233
-0.061104015 -0.7475597 -0.07151948 -0.08141302 -0.034865975 0.04144892 0.0798997 0.11138182
-0.046591584 -0.018501455 0.06252234 -0.025076307 -0.28476575 0.021329116 0.057391554 -0.079353094
-0.18089324 0.049500246 0.05660716 -0.9393932 -0.038490042 0.021273486 -0.1344582 -0.12943721
0.042210083 -0.061704848
00000000: c7dc 233d ccd7 803d edd1 5abf 8dcd c43c
00000010: c462 c03b e825 903d bb48 a83d 7a1a 4bbc
00000020: 9257 19bb 992f d5bd bc05 d33d f138 a03e
00000030: 4744 5e3e ca57 2b3d 1f9e 733d 894c 15be
00000040: 67c5 1c3e 9a05 173e 4e6c 98bd cc8c 883e
00000050: 3703 03be 7c13 213d cd15 0fbe 2073 4cbd
00000060: b640 5d3e 25d3 c3bd 103e abbd ed65 213d
00000070: 891d ab3d de73 71bc 7d68 1ebd 66c5 23bd
00000080: 2882 8bbc dfae 6e3c 287b bd3a 6771 b1ba
00000090: 234b 2abd 87b7 593d db00 a6be c83a 12bc
000000a0: 9e9e 253e eab7 483d 043e 75bd 6107 243e
000000b0: 50b2 d1bd 5a15 b5bd ff92 7abd 9c42 0abe
000000c0: 2e4e 283d 9520 3cbd 85f4 e0bd cd42 6d3d
000000d0: 6001 9dbc 51e8 0d3e f252 38bd 4036 d93d
000000e0: 668b 0bbe f89c 4e3e 9751 d2bd b19c c1bd
000000f0: b331 b6bd 8dbf 3abc 63a2 c0bd acbb ee3c
00000100: 8d16 233c 1643 973f a874 183c 2642 02bb
00000110: d9af 01bd ed90 3f3c 378d 11bc 0e87 cbbb
00000120: 95dd 753e 479a a63c c063 16bd d79e b93d
00000130: c205 94bd 6ebd 623c d5c7 413d 82fd 4a3d
00000140: af2a f6bd 7a58 323c ebc8 8b3d 0f01 953e
00000150: 88f3 4f3c 0434 85be e42c 7fbd 7bfa 8ebd
00000160: ff61 64be d87a 65be 6ce6 ae3d 841e 20bd
00000170: b01e 58bf 5055 ac3d f8f7 d13b d5a1 cdbd
00000180: 43bf a4bc 6345 abbd 7e52 0bbe 1c7c 59bc
00000190: d161 003c b54d 683d 89ce eb3d 084d 413d
000001a0: 2eb5 08bd 87b6 4b3c 1899 a03d fa9d dcbc
000001b0: 3d72 7ebd 5df4 633c 72b5 043f cfcc f7bd
000001c0: 459a a53b 5daa 233d 7833 fabd f29b b53c
000001d0: 0399 fbbb c207 953e 0d5a 1c3e 0ec2 a3bd
000001e0: 5fdf 52be 6102 0dbe e4a3 19be 3512 243e
000001f0: 79a5 47be d9f1 2fbe bf08 a2bd 6f41 aabd
00000200: 9b3e 6abf 1a11 2a3d cbd6 81bc 9045 083e
00000210: 46ad da3d 74bf bb38 3373 ae3d b085 93bd
00000220: 3448 7abd 1360 3fbf ce78 92bd dfbb a6bd
00000230: a0cf 0ebd 58c6 293d 74a2 a33d 271c e43d
00000240: d1d6 3ebd 5d90 97bc b60b 803d d46c cdbc
00000250: d1cc 91be 66ba ae3c 6813 6b3d e083 a2bd
00000260: 143c 39be c5c0 4a3d e9dc 673d 137c 70bf
00000270: bca7 1dbd bc45 ae3c 69af 09be 308b 04be
00000280: 7be4 2c3d 39be 7cbd

linear1.bias f4 [18]
-0.09295242 2.5951897e-06 0.2519316 -0.1182525 0.027477153 -0.17972383 0.1384325 -0.053404715
0.0049457173 -0.2584089 -0.09722375 -0.038097147 -0.05117422 0.11665824 -0.1883812 -0.056876794
-0.18497725 -0.18840976
00000000: d75d bebd 0529 2e36 2efd 803e 5e2e f2bd
00000010: c417 e13c 8609 38be 40c1 0d3e e7be 5abd
00000020: af0f a23b 2c4e 84be 3f1d c7bd c10b 1cbd
00000030: 0f9c 51bd 84ea ee3d 00e7 40be a4f7 68bd
00000040: ad6a 3dbe 7dee 40be
