model_parameter/elec_pretrained_GRU.pth (torch, 219536 bytes, 8 tensors)

gru.weight_ih_l0 f4 [384, 10]
000000 1e 11 02 bc 02 2e af ba 87 0a 91 3b b2 0e 27 21
       -0.007938651 -0.0013365152 0.004426304 5.660125e-19
000010 c9 8a 6c bb 4e 5e 70 21 21 92 0e bb 8a cf 41 9f
       -0.0036093465 8.1439974e-19 -0.002175458 -4.1041012e-20
000020 7e d2 bb ba ad 2f 5d 3c bd 78 16 bd 60 16 b6 bc
       -0.0014329699 0.013500136 -0.03673624 -0.022227466
000030 8c f8 c1 3b 39 69 53 1e 3a 66 d0 bc fe 1c b0 1e
       0.0059195217 1.11920065e-20 -0.02543937 1.8646716e-20
000040 61 77 73 bc 61 6c 08 1f 62 0a 44 bc 64 cc 10 3d
       -0.014860005 2.888877e-20 -0.011965366 0.035351172
000050 8c 83 c4 bb ca 3a 8b bb 3f 42 89 3a 52 0f f9 9e
       -0.005997127 -0.0042489516 0.0010472013 -2.6370237e-20
000060 99 22 a3 bb 5b 3e 01 22 3d aa 3e bb 7b 43 03 9f
       -0.0049784896 1.751577e-18 -0.002909317 -2.7796148e-20
000070 aa 43 1f bb 40 50 e9 3b 6a 46 b9 bb e8 78 6d 3b
       -0.0024301806 0.0071201622 -0.005654146 0.0036235396
000080 0b 27 6b 3b f6 31 d0 a1 a3 c1 56 bb 42 d8 8a 9f
       0.0035881426 -1.4107853e-18 -0.0032769225 -5.880304e-20
000090 10 fd d9 ba 98 10 f2 9e 8f 7a 93 ba d1 28 3c 3c
       -0.0016631205 -2.562961e-20 -0.0011251735 0.011484341
0000a0 0e c2 42 bc 34 99 08 bc e1 79 92 3b 68 ab f9 9d
       -0.011887087 -0.008337308 0.0044700955 -6.608698e-21
0000b0 71 e2 e8 bb 79 2d be 1f bc 51 3a bb 79 c9 5b a3
       -0.007107072 8.054336e-20 -0.0028430065 -1.1914677e-17
0000c0 d1 4a 05 bb fe 24 58 3c 9c e9 f9 b9 70 e7 07 ba
       -0.0020338784 0.013192413 -0.00047667034 -0.0005184328
0000d0 88 44 3b 3a 33 eb 59 a0 38 78 93 b7 9f a3 4d 9d
       0.0007143696 -1.8458436e-19 -1.7579747e-05 -2.7216114e-21
0000e0 74 ca 2c 39 88 1d 4f 9f d2 1c 67 b8 14 b9 d2 3a
       0.00016478618 -4.3858383e-20 -5.5101533e-05 0.0016076886
0000f0 ba 04 1b bc d5 fb 09 bc 05 81 68 3a ea 7a 0f 20
       -0.009461576 -0.008421858 0.0008869323 1.215324e-19
000100 90 a7 ed bb 77 76 49 9f bb e9 49 bb 8c 66 83 1f
       -0.007252641 -4.2661397e-20 -0.003080948 5.565031e-20
000110 be f2 21 bb b5 cb df 3b d3 6f cc bb 98 09 13 3a
       -0.0024711336 0.0068297037 -0.0062389164 0.00056090346
000120 76 72 4c 3a 91 cb 8e 1f 98 4c ac bb 5f 6a 4d 9d
       0.00077990384 6.047611e-20 -0.005258154 -2.7186517e-21
000130 0b 3c 48 bb 8f 59 b8 1e f8 91 23 bb 98 96 16 3c
       -0.0030553367 1.9518798e-20 -0.002495883 0.009191178
000140 69 11 55 bd 61 9c 0b bd ba 3a 56 3b 63 f3 3c 1f
       -0.052018557 -0.03408468 0.0032688812 4.0011873e-20
000150 2c 56 1b bd d7 d0 29 1e bd 39 b2 bc cf 37 24 23
       -0.037923977 8.9899726e-21 -0.021756047 8.902276e-18
000160 8d 58 8f bc e4 ee 35 3d 68 6a 5f ba be ad 9d 39
       -0.017498279 0.044417277 -0.00085226307 0.00030074822
000170 c2 79 8a 39 04 9a cf 9f be a1 5d ba 2a 76 d0 22
       0.00026412128 -8.792271e-20 -0.00084545824 5.6503624e-18
000180 06 cf 87 ba ab 92 b4 21 d0 f6 79 ba 78 4a 29 3b
       -0.001036138 1.2236097e-18 -0.0009535374 0.002583174
000190 e5 48 f3 ba 67 a5 b3 ba e2 df 6b b9 42 e4 08 9f
       -0.0018561153 -0.001370591 -0.0002249475 -2.898793e-20
0001a0 2c df 1d bb 75 59 78 a1 8c e5 0d bb 55 13 d5 1e
       -0.002408932 -8.4144064e-19 -0.0021651713 2.2560248e-20
0001b0 9c 52 04 bb 55 70 4a 3b c0 9a 05 bd 79 45 93 3b
       -0.002019084 0.003088971 -0.032618284 0.004494366
0001c0 18 2e 50 bb 30 01 40 9e cc 82 ec bc 77 65 22 9e
       -0.0031765755 -1.0164641e-20 -0.028870963 -8.597191e-21
0001d0 71 87 06 bd dd c7 8c a1 ac 09 f3 bc ed ab 4e 3d
       -0.03284401 -9.539672e-19 -0.029667698 0.05045693
0001e0 65 17 73 bc 5f 59 06 bc 14 30 c8 3b f8 e5 22 1f
       -0.014837121 -0.008200019 0.006109247 3.449506e-20
0001f0 0e d6 0d bc d0 4f 17 1f d6 a9 88 bb b3 a6 5a 9e
       -0.008656992 3.2041513e-20 -0.0041706366 -1.15752965e-20
000200 d0 7b 48 bb 80 eb 97 3c 0e 22 37 39 3e ff a7 3a
       -0.0030591376 0.018544912 0.00017464926 0.0012817157
000210 fd cf a2 39 b3 fc b7 1d 15 f3 9f b7 48 bc db a2
       0.0003105401 4.870098e-21 -1.9067471e-05 -5.955942e-18
000220 47 2a 21 39 16 f9 a0 9f d2 d3 12 39 b5 ba 02 3b
       0.00015369906 -6.8174714e-20 0.00014002554 0.0019947712
000230 71 73 3c bd b8 3a ed bc b2 d2 15 3b af 34 22 1f
       -0.04600853 -0.028958663 0.002286118 3.4348413e-20
000240 26 75 0a bd 81 cb d8 a1 30 cb 9a bc d5 b0 26 a2
       -0.033803128 -1.4690596e-18 -0.018895715 -2.259081e-18
000250 34 79 79 bc 98 2d 16 3d da 52 a6 3a 66 6e a0 3a
       -0.015226651 0.036664575 0.0012689487 0.0012239933
000260 e7 a1 a9 39 05 33 4a a2 90 4e 90 3a 88 15 78 a0
       0.00032354819 -2.7403114e-18 0.0011009742 -2.1013541e-19
000270 3b 81 78 39 56 31 3a 9f e3 56 59 3a d2 09 14 3a
       0.00023699265 -3.9427842e-20 0.000829084 0.00056472153
000280 34 f0 3c bd c5 b3 bb bc 0e 66 94 bb 22 c1 7f 20
       -0.046127513 -0.02291287 -0.0045287674 2.1663242e-19
000290 b6 d6 27 bd d2 71 58 23 26 c0 f7 bc 8c 5a 8a 20
       -0.04097625 1.1733486e-17 -0.03024299 2.3438028e-19
0002a0 5c b6 d7 bc de e3 1b 3d ff 4a 46 bd a0 9e f4 bc
       -0.026332073 0.038059108 -0.048411366 -0.029860795
0002b0 7d 96 f2 3b 5d 77 69 22 89 d8 09 bd b4 8f 25 1f
       0.0074031935 3.1640579e-18 -0.03365377 3.5058978e-20
0002c0 0f 23 84 bc 3f 20 87 20 4d 9e 42 bc 23 cc 3b 3d
       -0.016129998 2.2891228e-19 -0.011878562 0.045848977
0002d0 e1 73 b3 bc 72 f4 34 bc e1 8d d6 3b f0 32 8e 22
       -0.021905841 -0.011044608 0.006547675 3.854311e-18
0002e0 84 ab 5f bc d5 6c 9d 21 3e cf cb bb d6 34 0b 1d
       -0.013651732 1.0667541e-18 -0.0062197736 1.8423812e-21
0002f0 1d d1 94 bb b6 9d be 3c 8a e0 56 bd e1 d9 db bc
       -0.00454153 0.023268562 -0.05246023 -0.026837291
000300 ef 9a 1b 3c 52 e1 2b a3 2a 47 01 bd 34 44 fd 9e
       0.009497388 -9.317642e-18 -0.031562008 -2.6815625e-20
000310 d9 7f 81 bc c5 5c e4 1f 78 23 3c bc 76 97 3f 3d
       -0.015808033 9.671523e-20 -0.011483066 0.046775304
000320 94 f2 2d bd 4a 87 e7 bc 84 94 71 38 b0 6a 34 20
       -0.04246767 -0.028262753 5.7597194e-05 1.5281893e-19
000330 b4 a8 0c bd 03 ff 52 1e 05 41 a7 bc 86 3d ce 1c
       -0.034340575 1.1170043e-20 -0.020416746 1.364784e-21
000340 6b cb 8c bc 72 b6 04 3d 6f 4c d1 3a 89 3e 3f 3c
       -0.017186841 0.032400556 0.0015968214 0.011672624
000350 a0 00 9e 3b b2 73 1a 9e 8a d6 88 3b 80 d9 cb a0
       0.004821852 -8.176617e-21 0.0041759657 -3.4533467e-19
000360 34 f9 88 3a b6 5c 6c 9e a7 04 a6 3a f2 c3 38 3c
       0.0010450245 -1.2512908e-20 0.0012666181 0.011277186
000370 3d e6 62 bb 78 5e 8c 3b ab 2d 9a 3b c6 e4 06 20
       -0.0034622096 0.0042837225 0.004705151 1.1425936e-19
000380 a5 fd ee b9 65 94 08 1c bc 30 10 ba ce da 20 9f
       -0.00045583877 4.519042e-22 -0.0005500426 -3.406231e-20
000390 92 0b 22 b9 41 38 4d 3c f1 9c 69 bc e4 67 c6 bb
       -0.00015453834 0.012525619 -0.014258609 -0.006054865
0003a0 1e 69 c7 3b 1d 0d 31 23 7d a3 f7 bb 7e 02 09 a2
       0.006085529 9.597966e-18 -0.007557331 -1.8568282e-18
0003b0 dc 4d 47 bb b9 80 1f 1f 7d fb 02 bb 80 d3 8b 3c
       -0.0030411398 3.3776037e-20 -0.0019986324 0.017068624
0003c0 72 81 17 bd 16 2d b9 bc db 14 c1 3b 72 6f dd 1f
       -0.036988683 -0.022604506 0.0058923787 9.378151e-20
0003d0 29 d9 d3 bc ad a6 ae 1e 90 6d 71 bc 45 1a ef 21
       -0.025860386 1.8491902e-20 -0.014735594 1.6202223e-18
0003e0 ae a6 41 bc 00 80 0c 3d 8c a3 94 bd 4f 1d 08 bd
       -0.011819525 0.034301758 -0.072577566 -0.033231076
0003f0 88 ae 65 bc 0c f4 8b 9e 0e 24 89 bd 2b 0f cf 1e
       -0.014018662 -1.4818133e-20 -0.0669633 2.1923251e-20

gru.weight_hh_l0 f4 [384, 128]
000000 18 cb eb 3a 47 f8 4f 3b 51 a5 eb ba 82 a9 12 3a
       0.0017989604 0.0031733678 -0.0017978345 0.00055947166
000010 e3 39 11 3b 4f 40 82 ba 09 3c 31 bb d4 f7 09 bb
       0.0022159747 -0.0009937378 -0.002704384 -0.0021052258
000020 2f cb 4f bb f4 96 9e 39 33 3f ee b9 00 06 2a bb
       -0.00317068 0.00030248577 -0.00045441985 -0.0025943518
000030 aa af 2c 3b 8a 7a b1 b9 ef b2 56 3b dc 43 30 ba
       0.002634982 -0.0003385137 0.0032760461 -0.0006723979
000040 04 0b 03 bb 3e 0f 82 3b 9c 2c d6 ba 17 72 25 3b
       -0.001999558 0.003969102 -0.0016340199 0.0025245005
000050 03 d5 30 bb e4 d9 f0 3a 64 53 bb 3a 73 6e de ba
       -0.0026982434 0.0018375483 0.001429182 -0.0016970172
000060 75 9f 3a bb d0 a9 80 bb d0 f7 08 bb 9d be 4d bb
       -0.0028476391 -0.003926493 -0.002089966 -0.0031394132
000070 fa 56 21 bb 4f 8a c9 ba 68 4f 53 bb 7f 1c 6a 3a
       -0.0024618492 -0.0015376302 -0.0032243375 0.0008930638
000080 25 ec e8 3a a9 46 29 bb 68 9f 49 3a f5 ba 0f bb
       0.0017770572 -0.002582947 0.0007691295 -0.0021931503
000090 e4 a7 0d bb 51 04 f6 3a a7 03 35 3b 8e 24 14 bb
       -0.0021614963 0.0018769597 0.0027620585 -0.0022604796
0000a0 b4 6e 2e 3b 2f e6 08 bb 63 9a fa ba 47 26 5e bb
       0.0026616277 -0.0020889153 -0.0019119497 -0.0033897327
0000b0 be 3e 55 3b 4c 72 20 bb 0b dd e0 3a 04 97 17 bb
       0.0032538618 -0.0024482189 0.001715572 -0.0023130784
0000c0 18 25 23 bb 5e c0 a5 3a b9 3a 35 bb 2b 25 1f 3b
       -0.0024893936 0.0012645831 -0.002765341 0.0024283628
0000d0 14 4d dc 3a 70 ca 0c 3b dd ec 0c 3b 1e 7f 02 bb
       0.0016807639 0.0021482967 0.0021503486 -0.0019912194
0000e0 cb de 36 bb 3d 76 0f 3b 55 ee 0f bb 99 fd 7f bb
       -0.002790379 0.0021890544 -0.0021962125 -0.0039061068
0000f0 7d f3 fa ba 40 56 0a 3b 0d e0 3c bb 5e 72 62 3b
       -0.0019146051 0.0021108538 -0.0028820068 0.0034553031
000100 66 a6 2f bb 30 8a b2 ba 74 ed 12 bb 9e 20 95 ba
       -0.0026802062 -0.0013621505 -0.0022419365 -0.0011377519
000110 0f 11 08 bb 6e e7 d5 39 de 65 51 bb b9 3d 25 3b
       -0.002076212 0.00040798954 -0.0031951587 0.0025213792
000120 0d 0b 12 3b 33 7a 05 3b 3c 87 ea ba 84 c1 2f bb
       0.0022284419 0.0020367026 -0.0017893086 -0.0026818225
000130 dc 5a 61 3b 09 d2 8d 3b 7d 62 67 bb e7 d3 08 bb
       0.0034386432 0.0043280167 -0.0035306506 -0.0020878257
000140 d2 89 4a bb f3 30 48 bb 99 2c d8 ba da 1b 8d 3a
       -0.0030904901 -0.0030546754 -0.0016492783 0.0010765747
000150 4b 8c f0 3a 5c 27 03 bb 00 bd d8 39 16 4b f7 ba
       0.0018352357 -0.0020012474 0.00041339546 -0.0018866982
000160 64 65 a7 ba d8 8b 20 3b 31 55 96 ba 0d 24 03 bb
       -0.0012771306 0.0024497416 -0.0011469481 -0.0020010502
000170 59 6d de ba 74 77 2e 3b fb 2c 6b 3a 91 2a 5b 3b
       -0.0016969844 0.0026621493 0.0008971241 0.003344212
000180 f4 cf 45 3b 2e 73 ca ba 48 ff a7 3a ef e6 98 3a
       0.0030183764 -0.0015445703 0.0012817169 0.0011665503
000190 05 df 39 3a 88 f5 45 3b 23 19 73 3b 76 b6 b1 ba
       0.00070904224 0.0030206162 0.003709384 -0.0013558406
0001a0 37 51 e7 3a a3 79 4e 3b 43 74 61 bb 0f 1f fd 39
       0.0017648105 0.0031505607 -0.0034401573 0.0004827906
0001b0 70 49 13 bb 62 3c 48 3a e8 2d 0a bb 65 75 25 3b
       -0.0022474192 0.0007638392 -0.002108449 0.0025246975
0001c0 ab 31 45 3b 06 97 0c 3b b0 ed 6c 3b b0 24 16 3b
       0.003008942 0.0021452322 0.0036152415 0.002291005
0001d0 ba 37 21 bb a1 3e 99 ba 02 5a 27 bb 17 1d a2 3a
       -0.0024599866 -0.0011691639 -0.0025535827 0.0012368289
0001e0 b9 0a 81 3a 46 31 33 bb ce 86 39 3b fb 01 91 ba
       0.0009845115 -0.0027342602 0.002830911 -0.0011063212
0001f0 a2 10 1a 3b 4a c0 40 3a 65 d2 66 39 4c b4 3a 3a
       0.002350845 0.0007352872 0.00022012887 0.0007122203
000200 1a eb 05 3c 1d 7a 92 3b 47 96 66 bb 20 d9 74 3c
       0.008173728 0.0044701234 -0.0035184787 0.014944345
000210 fa b1 e1 3b 35 47 a7 bb 4c 39 ae 3a ef 79 34 3c
       0.0068876715 -0.005104924 0.0013292222 0.011015399
000220 7d 23 51 bb 17 43 95 bb 1b 0a 87 3b 66 69 4f 3c
       -0.0031912022 -0.004555117 0.0041210777 0.012659406
000230 5e db 31 3c 56 1d f2 3b eb 00 ac 3a c8 b5 ab ba
       0.010855524 0.007388751 0.0013122832 -0.001310044
000240 8b 93 62 3b 07 de 08 3c 43 26 12 bc 2f 42 92 3b
       0.0034572806 0.008353717 -0.008920255 0.004463456
000250 05 a7 93 39 fd 3b 79 3c 4d 40 73 3c 18 c6 14 bc
       0.00028162464 0.015212056 0.0148468735 -0.009080432
000260 f4 08 92 bb 18 4b ee 39 9d d2 06 bc be ba 26 3a
       -0.0044566337 0.00045450847 -0.008228925 0.0006360224
000270 ad a5 11 bb 09 2a a3 bc e7 85 5c bb 95 f6 d7 3b
       -0.0022223995 -0.019917505 -0.0033649148 0.006590674
000280 0c 5e a9 3b 0c c6 9b bb 73 72 ba 3c a8 10 aa bb
       0.005168682 -0.0047538336 0.022759652 -0.005189974
000290 73 78 a6 3b 2e ac 12 3c ec e0 88 3b d3 77 24 bc
       0.0050802766 0.008952184 0.0041772034 -0.010038334
0002a0 76 af 0e 3b 8e 65 7e bb 04 7a a9 bc ca c7 6b bb
       0.0021772063 -0.0038817856 -0.020688064 -0.0035977238
0002b0 f4 0f a0 3b ed fe 9f 3b 6e 27 2b 3c 00 9d 2e bc
       0.0048847143 0.0048826844 0.0104464125 -0.010657549
0002c0 28 a2 9a bb 7c dc 8c 3c 9d fe 30 bc a4 38 1f 3b
       -0.0047190376 0.017194979 -0.010802892 0.0024295235
0002d0 d2 53 33 3b 6e 81 ea 3b 55 11 81 3b 2d 2b 8c bc
       0.0027363193 0.0071565425 0.0039388337 -0.017110432
0002e0 bc 6a 56 bb 10 ae b9 3b 85 ed 05 bc bd d3 e1 ba
       -0.0032717427 0.005666502 -0.008174305 -0.0017229241
0002f0 74 93 76 bb 87 13 30 3c 0d 86 68 ba 46 ea c3 3b
       -0.003762451 0.010746843 -0.0008870073 0.0059788553
000300 bb 86 46 bc 21 11 7f bb 08 b1 65 bb 4c dd 1f bc
       -0.012117083 -0.0038920122 -0.0035048146 -0.009757351
000310 4e e2 bb bb 16 9f 9f 3b 19 3d 59 bb 65 fb b4 b9
       -0.0057337647 0.0048712594 -0.003314799 -0.0003451958
000320 df ca 70 3b dd b7 9a 3b e4 d7 ce bb 24 18 e6 3b
       0.0036742014 0.0047216252 -0.0063123573 0.0070219208
000330 a1 85 6b 3b 2b 93 da 38 61 d2 5e bb 27 03 6b 3c
       0.0035937803 0.00010422462 -0.0033999907 0.014344013
000340 f7 d4 fa bb 64 31 fa ba 6b 69 73 3b 48 2a 2b 3b
       -0.007654782 -0.0019088206 0.0037141691 0.002611773
000350 38 fd 3c bb f6 cc ce 3b 11 d2 54 3c 8e d3 9f bb
       -0.0028837454 0.0063110543 0.012989537 -0.004877514
000360 7a d8 2d bb 97 11 3f 3c 4a 93 a7 bc c0 f6 0f bb
       -0.0026526735 0.011661909 -0.020455975 -0.0021967143
000370 51 fc a2 bb 09 c4 00 37 b7 b3 86 bc 41 fd 10 3b
       -0.004973926 7.6750375e-06 -0.016443117 0.0022123607
000380 82 c0 7e 3a 87 8a 4c bc e8 2d 0a 3b b1 62 fd 3a
       0.0009718017 -0.012484199 0.002108449 0.001933178
000390 86 f9 c0 bc f7 86 a3 3b 79 a0 51 3b 51 2b 80 bb
       -0.023556482 0.0049904543 0.0031986518 -0.0039114137
0003a0 a2 9d 7a 3c 1f 50 a2 3b e7 8d 36 bb 1e fc cc 3b
       0.015296372 0.004953399 -0.0027855576 0.0062556406
0003b0 80 97 13 bc 3b 86 86 bc ee fd ca bb d3 13 5f bb
       -0.009008288 -0.016421428 -0.0061948216 -0.0034038916
0003c0 73 ad 63 3b 14 e7 e1 ba a3 9f 2d ba ac 2e 23 3b
       0.0034740835 -0.0017235004 -0.0006623214 0.0024899645
0003d0 3c 56 ad bb e4 27 7e bc 81 2e d2 bb b9 3a 6b 3c
       -0.005289821 -0.01551244 -0.006414235 0.014357262
0003e0 c5 f6 2f 3c 19 87 bb b9 e1 26 64 3b d6 e9 f2 bb
       0.010739987 -0.00035768075 0.0034813213 -0.0074131293
0003f0 d3 ae 4e 3b e1 3c 85 3c b2 b3 cf 39 d4 2e 04 3b
       0.0031537309 0.01626438 0.00039616 0.0020169513

gru.bias_ih_l0 f4 [384]
000000 ab e0 7b 3c ec 87 d0 3b d2 21 70 bb 46 50 3c 3d
       0.015373389 0.0063638594 -0.0036641252 0.045974992
000010 7f d5 6d 3b df 1c 9e ba 34 6b 1a bc bb cf ee 3c
       0.0036290584 -0.0012063048 -0.009424973 0.029151788
000020 16 3f 53 3b da 4a 8f 3b 35 fb 40 bb ed 56 48 3d
       0.0032233647 0.0043729367 -0.0029446606 0.048911024
000030 c8 56 6e 3c fa 65 44 3c 01 c5 87 bb a9 2e 53 38
       0.014547057 0.011987204 -0.0041433577 5.0349776e-05
000040 e3 e6 fd bb cc da 84 3c 55 ea 7b bb a5 f8 82 bc
       -0.007748471 0.016217612 -0.0038439233 -0.015987704
000050 f6 40 69 bc 06 77 35 3d 76 09 14 3d 7a 19 93 3c
       -0.014236679 0.044302963 0.036141835 0.017956484
000060 17 8c 0a 3c a6 95 a6 ba 0f b8 4d bc 0b 1a ff 3c
       0.008456252 -0.0012709394 -0.01255609 0.031140348
000070 7b e0 58 bc 4e b8 7e 3d 79 59 4b bc 53 9e 29 3c
       -0.013237114 0.062187485 -0.012411469 0.010352689
000080 88 43 67 ba c7 c3 7f 3b ba 7a b2 3d 50 7b 93 bb
       -0.00088220136 0.0039026604 0.087148145 -0.004500784
000090 2c 61 8c 3a e5 37 fc 3b ce e7 a0 bb bb 3b b0 3c
       0.0010710112 0.007697093 -0.004910446 0.021512857
0000a0 1a 13 a6 bc 34 47 24 bc 2f 31 91 3d 6d ca 59 3c
       -0.02027278 -0.010026742 0.07089459 0.013292891
0000b0 62 e7 35 bb ce 23 a6 3b 3e 9c 64 3c 72 2e 2e 3d
       -0.0027756323 0.005070186 0.013953267 0.042524762
0000c0 25 c1 d7 ba 2f 83 20 3d 1e 86 80 3c 94 85 78 bc
       -0.001646076 0.039187606 0.015688952 -0.015168566
0000d0 d8 71 a8 bb 02 a1 8a bc c1 9c ab bb bb be 60 3d
       -0.0051405244 -0.016922478 -0.0052371924 0.054869395
0000e0 85 35 1e bc 37 04 13 ba 15 6d 90 3c e7 34 e8 bc
       -0.009656315 -0.0005608233 0.01763014 -0.028345538
0000f0 80 48 f9 ba 13 7c aa 3c cc 00 89 bc b2 d5 3d bc
       -0.0019018799 0.020811116 -0.016724013 -0.011586593
000100 ec f1 ef 3c 3b 44 97 3a 99 53 cd 39 74 72 bb 3a
       0.029290162 0.001154072 0.00039162932 0.0014301077
000110 60 c1 aa 3a 8e 85 56 3b b0 37 9e 3b 9e 3a 4e bc
       0.0013027601 0.0032733413 0.004828416 -0.012587218
000120 b6 7a ad bb a2 92 b8 3a 9b 5e bd 3b 26 3e 4b 3c
       -0.0052941693 0.0014081786 0.0057791 0.012404954
000130 dc 69 da ba a1 69 77 bc e8 d4 af bb 83 9d 25 3d
       -0.0016663629 -0.0151008675 -0.0053659566 0.040433418
000140 bd 17 ac bb 62 af 78 bc 09 5e 3b 3a d6 0a 9f 3a
       -0.0052518533 -0.015178533 0.0007147496 0.0012133967
000150 79 20 b2 bb ea 3f 37 3c 0f b7 a7 3c 8d f7 24 bc
       -0.005436 0.011184672 0.020473031 -0.010068786
000160 73 07 38 38 03 00 9e 3c 55 5d 88 3d 33 dc 72 3c
       4.3875956e-05 0.019287115 0.06658427 0.014823007
000170 31 dc 89 3b 12 f3 2b bc 17 be a0 3d 63 08 2f 3d
       0.004207157 -0.010494964 0.07848757 0.042732608
000180 55 90 2f 3b a8 f8 d7 3c 60 3f c6 ba 90 61 32 39
       0.002678891 0.026363686 -0.0015125088 0.00017011748
000190 a6 17 f7 3d cc e1 db 3b f9 07 53 bc af bd 50 3b
       0.120650575 0.0067102667 -0.012880319 0.0031851341
0001a0 b4 61 1f 3d aa e1 2a ba 81 23 ed bb 88 d1 22 3c
       0.038911536 -0.0006518612 -0.0072368984 0.009937651
0001b0 dc 89 87 3b d2 b3 7b 3d cd 52 85 3b 18 2e 20 ba
       0.004136307 0.061450787 0.0040687085 -0.0006110384
0001c0 b4 2a 08 bc 9e c6 9d bb b3 e1 52 bb 64 e4 a0 bc
       -0.0083109625 -0.004814937 -0.0032177984 -0.019640155
0001d0 9d 85 bf 3a 58 0c 36 3d 4e 3c 4b bb 9c d4 2f 3d
       0.0014611963 0.044445366 -0.0031011286 0.04292737
0001e0 a5 4d 88 3c 92 3e b1 3b f8 c5 43 bc 9d 19 9d 3c
       0.016638586 0.0054090703 -0.011949055 0.019177252
0001f0 d4 0d 77 bb 4c e7 44 3d f2 b3 8e 39 a1 f5 90 bb
       -0.0037697451 0.048072144 0.0002721842 -0.0044238125
000200 75 ae 3b be 8d a2 4f be 13 7b 9c bd 1b 87 15 be
       -0.18328269 -0.20276852 -0.07640662 -0.1460232
000210 bf c0 ba bd ad 17 f8 bc 80 08 85 bc a0 2b 1b bd
       -0.09118795 -0.030284727 -0.016239405 -0.0378834
000220 c2 12 35 be 7a 60 4b bc e7 3b e3 bb 3e 26 53 bd
       -0.17682937 -0.0124131385 -0.006934631 -0.051550142
000230 55 14 34 be 4d bf f3 bc 9b 07 03 be 56 5b 38 bc
       -0.17585881 -0.029754305 -0.1279587 -0.011252245
000240 ad 93 c5 bd fc 53 60 be 4b 60 1f be dc 8d 34 be
       -0.096473075 -0.21907037 -0.15564077 -0.1763224
000250 89 18 b5 bd 96 97 67 be 2a d9 3e be 1d 30 27 be
       -0.0884257 -0.22616419 -0.18637529 -0.16326948
000260 d4 ee 45 be c6 5d 5d be f8 7a 56 be 64 1d 6a be
       -0.19329387 -0.21617803 -0.20945346 -0.22862774
000270 4a ab ed bd 95 8c 68 be 7f cf ca bd fa 90 b4 bd
       -0.116049364 -0.22709878 -0.09902858 -0.088167146
000280 b4 2a b4 bd 3f 4b 21 be e7 f7 66 be 48 7f 53 bd
       -0.087972075 -0.1575136 -0.22555505 -0.051635057
000290 bd cc 34 bd 10 99 06 be db c0 03 be 41 b5 3d be
       -0.044140566 -0.13144326 -0.12866537 -0.18526174
0002a0 d0 19 f7 bd aa 74 93 bd e8 d8 6c be 23 a7 3e be
       -0.1206547 -0.07199986 -0.23129618 -0.18618445
0002b0 af 4c 3f be da 14 a3 bc f8 94 09 be 45 36 42 be
       -0.18681596 -0.019907404 -0.13435733 -0.18966015
0002c0 b3 c1 9c bd 81 fe 45 be d6 b4 35 be c9 5e ab bd
       -0.07654133 -0.19335367 -0.17744765 -0.08367688
0002d0 63 33 f9 bc 31 6c e2 bd b0 dc 0b be 8e b1 6c be
       -0.03042001 -0.11055792 -0.13658404 -0.23114607
0002e0 fc c4 e8 bd 03 70 9a bd bb 5c d4 bd b7 7e 85 be
       -0.11365697 -0.07540896 -0.103692494 -0.26073238
0002f0 29 94 38 bd c6 47 30 be 4e 98 0d be b5 06 50 be
       -0.04506317 -0.1721488 -0.13827631 -0.20315059
000300 4f 7c 91 be b9 70 0f bd d5 e9 09 bd 84 f0 b5 bd
       -0.28415152 -0.03501961 -0.033670265 -0.08883765
000310 47 fc 85 bd 0d d5 01 bd 87 fd 44 be e5 a5 a4 bd
       -0.06542259 -0.03169732 -0.19237338 -0.08039454
000320 81 8e 6c bd c2 1e 8e bd b1 3d c2 bd 83 4a 9d bd
       -0.05775309 -0.0693946 -0.09484423 -0.076802276
000330 07 65 64 be f6 14 9d be 3c 9f ea bd 75 1c 27 bd
       -0.22304164 -0.30680054 -0.11456153 -0.040798623
000340 02 fd 6f be 3b 08 51 be 05 e7 14 bc 2c 94 dd bc
       -0.23436359 -0.20413296 -0.0090882825 -0.027048193
000350 b6 3d a0 bc 85 9c 03 bd c7 5c 03 be ac c8 24 bd
       -0.019560676 -0.03213169 -0.1282836 -0.040230438
000360 7d a9 94 bc b7 0f 47 be ce ab 62 be 25 e0 04 be
       -0.018147225 -0.19439588 -0.22135851 -0.1297613
000370 0c 30 24 be 0c 21 e7 bd c9 37 0b be 13 ba 63 be
       -0.16033953 -0.112856 -0.13595499 -0.2223895
000380 e6 b2 cb bd 0c e3 28 be cc e6 ad bb 1c 1a 6d bc
       -0.099462315 -0.16492862 -0.005307054 -0.014471557
000390 67 37 32 be 0c 49 47 be 64 d5 5e be 7a e0 32 bd
       -0.17403947 -0.19461459 -0.2176109 -0.04367111
0003a0 84 b8 67 be 14 ed fd bd 82 a3 1a be 04 df 4e bd
       -0.22628981 -0.12398735 -0.15101436 -0.050505653
0003b0 44 b3 16 be e0 38 0b be d6 64 2a be 54 9e c7 bd
       -0.14716822 -0.13595915 -0.16640028 -0.097469956
0003c0 57 0f 4d be 80 28 23 bd 32 5c ee bd 22 e2 ef bd
       -0.20025383 -0.039833546 -0.116386786 -0.11713053
0003d0 85 dd 1d be ce 46 38 be 15 f2 f6 bd 9a 4c 1a be
       -0.15416534 -0.1799576 -0.12057892 -0.15068284
0003e0 0d 07 0e be 4b 06 b2 bd a6 3b 3a be 30 60 f7 bd
       -0.13869877 -0.086926065 -0.18186817 -0.12078893
0003f0 4c 1a 1e be 5b c1 1a be 05 dd 02 bc ef 85 d2 ba
       -0.15439719 -0.15112822 -0.0079872655 -0.0016061644

gru.bias_hh_l0 f4 [384]
000000 6b d8 51 3b ec e9 09 3c c7 e2 68 bb 55 3d 17 3d
       0.0032019864 0.008417588 -0.003553556 0.036923725
000010 17 47 72 3b e1 ec 9d ba 0b f1 06 bc a1 cd b6 3c
       0.0036968642 -0.0012048745 -0.00823618 0.022314848
000020 a9 89 dc b9 56 9f 8f 3b 85 1a 66 bb f0 a6 64 3d
       -0.00042064235 0.004383008 -0.0035111022 0.055823267
000030 a5 d9 6b 3c 06 01 45 3c b0 2e eb bb f3 74 58 38
       0.014395152 0.01202417 -0.0071771964 5.160733e-05
000040 74 1c 0f bc c6 42 6e 3b e4 cb 10 3d f5 46 6a 3c
       -0.008734811 0.0036355718 0.035350695 0.014299144
000050 6d 60 5d bc 9d 02 37 3d 16 14 15 3d 39 0d c6 3c
       -0.013511759 0.044680227 0.03639611 0.024176227
000060 60 d5 f5 ba 0c 7a 9f bc 7d 81 7e 3a ed 8e f0 3c
       -0.0018755607 -0.019467376 0.00097086263 0.029365027
000070 d1 82 3f bc 61 91 7c 3d 55 06 0e bc 8d f0 2a 3c
       -0.011688904 0.06166208 -0.008668502 0.010433328
000080 89 3e 68 38 93 71 27 3b 06 30 b3 3d 1f 00 a5 bb
       5.537135e-05 0.0025549873 0.08749394 -0.005035415
000090 70 fe a9 3b 71 e1 dc 3b 53 e7 a0 bb 73 e9 91 3c
       0.005187802 0.006740742 -0.0049103885 0.017811513
0000a0 6f 60 d0 3a 0f 30 8f bb eb 4d 93 3d 9b f0 e8 bb
       0.001589788 -0.0043697427 0.07192596 -0.0071087605
0000b0 9d 23 1c ba f4 37 b7 ba 2b 47 65 3c 7c 3b 96 3c
       -0.00059562345 -0.0013978467 0.013994019 0.018338911
0000c0 15 fa 0f bc 79 8c 20 3d 7f 31 e0 3c 8c 52 1c bc
       -0.008787652 0.039196465 0.027367352 -0.009541165
0000d0 01 8b 92 bb 9c 01 21 3c 27 ed 6b bb 4d c9 4f 3d
       -0.004472137 0.009827044 -0.0035999508 0.050729085
0000e0 40 20 ae bb 47 3b 3b bb d5 23 07 bb c8 c9 3a bd
       -0.005313903 -0.0028569268 -0.0020620723 -0.04560259
0000f0 59 5d d4 ba 91 eb aa 3c 0e 2c 9f bc 01 55 0b bc
       -0.0016202136 0.02086428 -0.019430187 -0.008504153
000100 0b aa b0 3d ec c7 94 3a 8b 56 c9 39 99 18 bb 3a
       0.08626183 0.0011351085 0.00038402187 0.0014274298
000110 fb 70 ab 3a 59 66 56 3b bf 07 83 3c 19 66 41 bc
       0.0013079935 0.0032714813 0.015994905 -0.011804127
000120 e4 8c ae bb 3b 65 b7 3a 37 64 c0 3b 96 bb 06 bc
       -0.005326854 0.0013991961 0.0058713215 -0.008223435
000130 46 f7 db ba 2a 2a cf bc 46 56 81 bc d7 7c 58 3d
       -0.0016782067 -0.02528866 -0.015788209 0.05285343
000140 eb c9 61 3c d4 98 89 bc 0c 18 7e 3a 72 78 93 3a
       0.013781051 -0.016796507 0.00096929143 0.0011251105
000150 fe d0 b1 bb e5 c2 39 3c a8 a4 a6 3c 86 61 0d bc
       -0.005426525 0.01133797 0.020342186 -0.008629208
000160 17 c7 bf 38 d8 60 91 3c 7a 2d 81 3d 07 7d 41 3c
       9.144673e-05 0.017746374 0.06307502 0.011809594
000170 55 a8 89 3b e7 a3 2c bc 61 be 89 3d 60 85 bb 3c
       0.004200975 -0.010537124 0.06725765 0.022890747
000180 f0 04 7a bb a6 84 dc 3c 9e 27 c7 ba e2 f8 4b 39
       -0.0038149916 0.02691872 -0.0015194302 0.00019452305
000190 0c 0a f7 3d 09 f7 52 3c 77 36 8f 3b 2d 9c 50 3b
       0.12062463 0.012876281 0.0043705064 0.003183137
0001a0 ef e9 0e 3d 83 a6 be ba 93 54 47 bb a7 72 5a 3c
       0.034891065 -0.0014545474 -0.00304154 0.013332999
0001b0 b1 c3 78 3b dc c4 8d 3d b8 f6 dc 3b 79 7d 17 ba
       0.0037958438 0.069223136 0.0067432784 -0.000577889
0001c0 1b f9 f6 bb b7 e0 9d bb db e2 94 bb a1 00 82 bc
       -0.00753702 -0.004818048 -0.004543645 -0.01586944
0001d0 5a 73 1e 3d d2 a0 45 3d f6 43 4b bb ad 5a 4a 3d
       0.038684227 0.048249073 -0.003101585 0.04940288
0001e0 ba 86 48 3d a9 6d d5 3b f5 89 1c bc ea 0e 9c 3c
       0.04895661 0.0065133166 -0.009554376 0.01905008
0001f0 46 a1 7d bc 40 59 46 3d d6 94 87 39 8d 08 92 bb
       -0.015480345 0.04842496 0.00025860098 -0.0044565857
000200 43 22 3d be 33 6f 50 be 67 78 9c bd 8f 7c 15 be
       -0.18470101 -0.20354919 -0.076401524 -0.14598297
000210 bb b5 ba bd bf 97 f7 bc e6 7b 85 bc 9c bd 1a bd
       -0.091166936 -0.030223725 -0.016294431 -0.03777848
000220 24 03 35 be 91 65 4b bc 92 3f e3 bb 3b 4b 56 bd
       -0.1767698 -0.012414352 -0.0069350684 -0.05231784
000230 ea ca 33 be 14 bd f5 bc 85 78 00 be 41 3f 39 bc
       -0.17557874 -0.029997386 -0.12545975 -0.011306585
000240 60 63 c5 bd 7d 97 60 be f8 73 1f be 27 20 34 be
       -0.09638095 -0.21932788 -0.15571582 -0.1759039
000250 be 16 b5 bd 45 dc 65 be db 4e 3d be 4a 40 27 be
       -0.08842228 -0.22447307 -0.18487112 -0.16333118
000260 fb 51 41 be 61 da 64 be f6 fc 5f be ca f2 63 be
       -0.1887893 -0.2234893 -0.2187384 -0.22260585
000270 e9 38 ed bd ad 60 64 be 9a c3 ca bd c6 17 b5 bd
       -0.115831204 -0.22302504 -0.09900589 -0.08842425
000280 d5 25 b4 bd 67 88 21 be 0a 3f 60 be 0e 87 53 bd
       -0.087962784 -0.1577469 -0.21899047 -0.05164247
000290 95 15 34 bd 78 b1 06 be 72 e2 03 be 11 8a 3b be
       -0.043965895 -0.13153636 -0.12879351 -0.18314387
0002a0 17 31 f7 bd 70 81 93 bd 07 29 6d be c3 af 3e be
       -0.1206991 -0.072024226 -0.23160182 -0.18621735
0002b0 8e 6f 3f be 3a 80 a3 bc dd 94 09 be ff 97 42 be
       -0.18694898 -0.019958604 -0.13435693 -0.19003294
0002c0 4d b1 9c bd 8e a2 46 be 98 14 35 be 18 68 ab bd
       -0.07651005 -0.19397947 -0.17683637 -0.08369464
0002d0 2b 16 f9 bc ec 14 e2 bd 87 db 0b be a0 98 6b be
       -0.030406078 -0.11039147 -0.13657962 -0.2300744
0002e0 7c a0 e8 bd ed bd 9a bd 0b f7 d3 bd 3f 16 86 be
       -0.11358735 -0.07555757 -0.10349854 -0.26188847
0002f0 48 94 38 bd c3 3d 30 be 33 5b 0a be 09 cd 4d be
       -0.045063287 -0.1721106 -0.13511352 -0.20097746
000300 22 fe 87 be d7 83 0f bd 52 f0 09 bd 98 d0 b5 bd
       -0.26561075 -0.03503784 -0.033676453 -0.08877677
000310 c2 eb 85 bd 38 d8 01 bd 46 c7 44 be b3 6d a4 bd
       -0.06539108 -0.031700343 -0.19216642 -0.08028736
000320 b8 8f 6c bd 0e f3 8d bd 05 a2 c1 bd d5 96 9b bd
       -0.05775425 -0.06931125 -0.09454731 -0.07597128
000330 b7 29 64 be 13 d3 9c be 6b 9d ea bd 90 e6 26 bd
       -0.22281538 -0.30629787 -0.11455806 -0.040747225
000340 b2 30 7c be 6c 46 52 be 75 de 13 bc 2d dd dd bc
       -0.24627951 -0.20534676 -0.009025206 -0.027083004
000350 50 93 9f bc 69 12 05 bd 62 70 03 be 21 ce 24 bd
       -0.019479424 -0.03248826 -0.1283584 -0.040235642
000360 5f 5b 94 bc 1f e6 46 be 56 16 63 be 75 c1 04 be
       -0.018109975 -0.19423722 -0.22176489 -0.12964423
000370 f9 48 24 be b5 59 e7 bd 48 64 0c be 4d 50 5a be
       -0.16043462 -0.11296407 -0.1371013 -0.21319695
000380 1f 57 cd bd 1c db 28 be 61 e6 ad bb 1a 47 64 bc
       -0.10026383 -0.16489834 -0.0053070043 -0.013932968
000390 ce cf 30 be 3f 19 47 be b7 96 5f be c3 bc 32 bd
       -0.17266771 -0.19443224 -0.21834837 -0.04363705
0003a0 1f af 67 be ef 17 fe bd 44 a3 1a be 45 bd 4e bd
       -0.22625397 -0.12406909 -0.15101343 -0.05047347
0003b0 fb b6 16 be bf ee 0b be 49 64 2d be 05 82 c7 bd
       -0.14718239 -0.13665293 -0.16932787 -0.09741596
0003c0 ba f3 4f be 46 0d 23 bd c0 ca ee bd 10 32 f0 bd
       -0.20307818 -0.03980758 -0.11659765 -0.11728299
0003d0 63 2c 1d be 59 00 35 be d1 fc f6 bd 66 3b 18 be
       -0.15348963 -0.17675914 -0.1205994 -0.14866409
0003e0 37 82 0d be 99 45 b3 bd 84 fb 3a be dc 4f f8 bd
       -0.13819204 -0.08753509 -0.18260008 -0.12124607
0003f0 4d 0e 1f be e8 c1 1a be 77 e1 02 bc 61 7b d2 ba
       -0.15532799 -0.15113032 -0.007988325 -0.0016058498

linear2.weight f4 [2, 128]
000000 55 5f 8a 3e 72 5b 9a 3e a1 e6 26 be ed 42 31 3e
       0.27025858 0.30147892 -0.16298915 0.17310686
000010 63 a3 ee 3d ca 8e 89 bc 57 4b 8d bc cd 75 bf 3d
       0.11652257 -0.01679172 -0.017247839 0.093486406
000020 21 09 6e be 11 8d a4 bc d4 96 ec bc 31 a7 6b 3d
       -0.2324567 -0.020086797 -0.028880514 0.057532493
000030 55 dc 6f 3e 43 c3 81 3d 53 c6 ca 3d c3 85 2b bd
       0.23423894 0.06336071 0.099011086 -0.041875612
000040 19 bd 39 be 11 ea 8f 3e af 3a 6e be 58 f5 95 3e
       -0.18138541 0.28108266 -0.23264574 0.29288745
000050 1e 43 35 be 6a a2 97 3e 5e d5 4a 3e 66 84 5b be
       -0.17701384 0.296161 0.19807956 -0.21437225
000060 21 f7 8f be 47 8c a1 be 70 17 90 be fd bf b9 be
       -0.28118232 -0.31552336 -0.2814288 -0.36279288
000070 63 74 2e be c9 e8 85 be 0e f2 43 be 93 83 44 3e
       -0.17036586 -0.26154163 -0.19135305 0.19190817
000080 5f 20 3d 3e b1 8d 4c be d8 eb 42 3e 45 b0 f5 bd
       0.1846938 -0.19975926 0.1903528 -0.11996511
000090 3b cc 88 bd 0e ed 0c 3e 74 9a 41 3e b5 35 90 be
       -0.06679579 0.13762304 0.18906575 -0.28165975
0000a0 68 5f 5d 3e fb ec be bd 7e fb 89 be 42 16 60 be
       0.21618426 -0.09322544 -0.26949686 -0.2188349
0000b0 30 96 ab 3e b1 1d 01 3c f3 39 20 3e 30 df 86 be
       0.3351302 0.007880614 0.15647106 -0.26342154
0000c0 69 13 ce bd a0 54 86 3e 83 27 52 be 27 10 5c 3e
       -0.10062296 0.2623644 -0.20522885 0.21490537
0000d0 de 72 2a 3d 6c 46 29 3e 0c c0 83 3e fb ea 89 be
       0.041613452 0.1653077 0.25732458 -0.26937088
0000e0 58 b8 f7 bd 4a 83 fe 3d bf 7b 27 be cf c7 c6 be
       -0.12095708 0.12427385 -0.16355799 -0.38824317
0000f0 5b b9 e9 bd 6a e0 50 3e 26 ff 55 be 8a 14 88 3e
       -0.11412307 0.20398107 -0.20898113 0.2657817
000100 b8 8f ac be ee 7b 85 bb 38 57 56 bd 3b cb 03 be
       -0.337034 -0.0040736115 -0.052329272 -0.12870495
000110 6f c7 bc bd cf 20 02 3e ac b5 8a be b9 eb db 3d
       -0.092177264 0.12707828 -0.2709173 0.1073832
000120 8f 71 30 3d 0d 9d 23 3e 69 d6 2d be 30 63 d1 bd
       0.043077048 0.15977879 -0.16976322 -0.10223997
000130 48 de bd 3e 7f aa c8 3e 11 c3 33 be 2a 99 51 3c
       0.3708365 0.39192578 -0.1755488 0.012792865
000140 1b 62 b2 be 65 f2 c3 be 26 d5 34 bd f3 a2 1a 3d
       -0.34840474 -0.3827087 -0.044148587 0.037753057
000150 10 07 c6 3d ad 16 2d bd 4b 30 05 3e 62 55 4a bd
       0.09669316 -0.042257953 0.13006704 -0.049397834
000160 a3 28 07 bd d1 d9 9b 3e da de 86 be b0 2f 2d be
       -0.03299774 0.30439618 -0.26341897 -0.16912723
000170 8a 97 63 be 55 05 75 3e 4a 74 2c be c8 8c a7 3e
       -0.22225776 0.23927815 -0.16841236 0.32724595
000180 25 ef 3c 3e 46 a2 56 be f9 2d b3 bc 69 62 41 3d
       0.18450601 -0.2096034 -0.021872507 0.047212992
000190 df ac 37 be 86 5a 80 3e 73 48 9f 3e c8 79 a6 bd
       -0.17937039 0.25069064 0.31109962 -0.08128697
0001a0 36 4b 98 3e 7b 1d 4c 3e 23 55 82 be 74 29 a6 3d
       0.2974488 0.19933121 -0.2545558 0.08113375
0001b0 66 78 36 be 34 d2 17 be 2b 7a 70 be 2d c4 27 3e
       -0.17819366 -0.1482628 -0.23484103 0.16383429
0001c0 58 10 a8 3e 58 3d 12 3e 41 b4 2a 3e 3f 82 3d 3e
       0.3282497 0.14281213 0.16670324 0.18506716
0001d0 99 ae 29 be d7 39 57 be bb 96 5a be 53 1d 57 3e
       -0.1657051 -0.21018158 -0.21346562 0.2100728
0001e0 4b 83 24 3e 49 9c a9 bd c4 48 93 3e 2e 8f 2c be
       0.1606571 -0.08281762 0.28766453 -0.16851494
0001f0 34 05 56 3e 12 2f 31 3e f6 f5 bb bd 41 6e 35 3c
       0.20900422 0.17303112 -0.09177773 0.01107365
000200 06 98 82 be 68 9a a6 be d8 2f de 3d 16 c2 34 be
       -0.2550661 -0.32539678 0.10848969 -0.17652163
000210 44 4c 25 be bf e7 f3 3d c6 88 0d 3d 8b 17 25 bd
       -0.16142374 0.119094364 0.034554265 -0.040305655
000220 3c 48 61 3e bc 74 a9 3d 83 54 c7 bd 91 6c 3f bd
       0.22000211 0.082742184 -0.09732916 -0.046734396
000230 3c dd 5e be 40 2f d4 bd f3 39 43 be 13 ad 3c 3d
       -0.21764082 -0.10360575 -0.19065075 0.046063494
000240 8a bc 06 3e e7 77 24 be a5 b0 58 3e d6 b7 92 be
       0.1315786 -0.16061364 0.21161135 -0.2865588
000250 c1 1f f5 3d d3 51 80 be f0 16 89 be e6 92 4c 3e
       0.11968947 -0.25062427 -0.26775312 0.19977912
000260 5a b1 86 3e 81 e1 bd 3e 32 52 9d 3e e4 25 95 3e
       0.26307184 0.37086108 0.30726773 0.2913047
000270 a7 84 89 3e c0 30 7f 3e cb 48 2a 3e 21 a3 7e bd
       0.26859018 0.2492094 0.16629331 -0.06216729
000280 b3 bc b7 bd c8 44 9c 3e 52 29 73 be 38 32 96 3d
       -0.089715384 0.30521226 -0.23746231 0.07333797
000290 7d c0 7e 3d f7 ae 4d be 39 4d 87 be 70 b5 6a 3e
       0.06219529 -0.20086275 -0.26426104 0.22920775
0002a0 3f 59 05 be 5f e6 2c 3e 98 fa 71 3e 6a ad 37 3e
       -0.13022326 0.16884755 0.2363075 0.17937246
0002b0 a2 f9 86 be 31 46 44 3d 44 85 55 be 2e 5c 8b 3e
       -0.2636233 0.047918502 -0.20851618 0.27218765
0002c0 ba 0b df 3d c5 59 18 be 44 b8 51 3e 3c 5d c4 bd
       0.108909085 -0.14877994 0.20480448 -0.095880955
0002d0 a6 10 eb bd 4e 4d 29 be 1a d9 66 be 7f b7 77 3e
       -0.11477785 -0.16533396 -0.22543755 0.24191092
0002e0 ad f3 46 3e c9 aa 0e be 71 d8 07 3e f1 55 aa 3e
       0.19428892 -0.13932337 0.1326616 0.33268693
0002f0 4a 29 92 3d 10 bb 74 be 52 47 5a 3e dc 22 72 be
       0.071367815 -0.23899484 0.21316269 -0.2364611
000300 81 6c aa 3e e6 e5 18 3e ca 0b c2 3d c1 73 cc 3d
       0.33285907 0.1493145 0.09474905 0.09983016
000310 cc e9 05 3e 57 11 31 bc 01 0d a0 3e 3c 92 36 be
       0.13077468 -0.010807357 0.3125992 -0.17829221
000320 9e 7c 27 be 8d a2 f1 bd 48 07 04 3e 49 1a c3 3d
       -0.16356131 -0.11798582 0.12893403 0.09526498
000330 8b 45 83 be 0d 9f c5 be 65 07 68 3e 35 96 e6 bd
       -0.25638995 -0.3859791 0.22659071 -0.112591185
000340 be 19 a1 3e c9 b0 a0 3e b2 54 5e bd f7 2c be bd
       0.31464952 0.31384876 -0.05427999 -0.0928592
000350 7b 79 00 3d 56 aa 83 3c 78 e6 42 be 71 6e 9d 3d
       0.031365853 0.016072433 -0.1903323 0.07687081
000360 b0 c5 9d 3d 1b 23 78 be b4 d9 39 3e c0 6b 48 3e
       0.077037215 -0.24232142 0.18149453 0.19572353
000370 9f 3a 2c 3e b6 c4 1b be 5d d3 22 3e f7 72 9a be
       0.16819237 -0.15211758 0.15900941 -0.30165836
000380 d5 27 71 bd b9 bf 62 3e b1 2a af bd 02 d6 18 bd
       -0.058875877 0.22143449 -0.085530646 -0.03731347
000390 92 98 4e 3e 33 f1 84 be 53 1a 90 be c3 1b eb 3d
       0.20175388 -0.2596527 -0.28145084 0.114799045
0003a0 f6 6f 4e be 39 73 8a be 00 b9 5e 3e d9 97 f6 bd
       -0.20159897 -0.27041033 0.2175026 -0.120406814
0003b0 d3 57 67 3e 18 4b 4c 3e ea 11 83 3e 85 f3 60 be
       0.22592096 0.19950521 0.25599605 -0.21967895
0003c0 d5 00 8f be 22 a8 01 3c 3e ef af bd 7d da 48 be
       -0.27930322 0.007913621 -0.08590554 -0.19614597
0003d0 92 b8 74 3e d5 aa 65 3e 23 9a 38 3e 2b 3c 0d be
       0.23898533 0.22428448 0.18027548 -0.13792484
0003e0 8b 07 52 be 99 d1 14 3e b6 c6 75 be 32 c9 2c 3e
       -0.2051069 0.1453308 -0.24001583 0.16873625
0003f0 f5 9c 59 be 9e 7d 3f be f0 6b 48 bd 43 bb 0d bc
       -0.2125128 -0.18700263 -0.048931062 -0.008650604

linear2.bias f4 [2]
000000 51 05 8d bd 70 cc 9a 3c
       -0.0688578 0.018896312

linear1.weight f4 [10, 5]
000000 dd c3 60 3f 02 f1 ba 3e fa 24 c8 bd 7a 24 b1 be
       0.87798864 0.36512 -0.09772678 -0.34598142
000010 71 0b 38 3d fe 94 27 3f b1 11 35 3e d2 d6 57 3a
       0.044932786 0.6546172 0.1768253 0.000823361
000020 8c 9a 9b 3e d6 ab 0e bc 98 c0 7b be f0 00 35 3e
       0.30391347 -0.008707961 -0.24585187 0.17676139
000030 9c 4c c7 bc 49 f5 02 3e 07 05 96 3e 33 fd ad 20
       -0.024328522 0.12788881 0.2930071 2.9474893e-19
000040 03 a3 14 21 ab 61 87 a3 48 73 88 ba f2 16 9b 37
       5.0360095e-19 -1.4678093e-17 -0.0010410333 1.8488125e-05
000050 c2 ab 15 3f 79 d9 e7 3e 0d 42 e1 bd b8 6b 7f 3d
       0.58465207 0.45283106 -0.10998926 0.062358588
000060 4d f3 bf be ea 27 b3 ba c1 26 d0 1f 84 5b a1 34
       -0.3749031 -0.0013668512 8.815554e-20 3.0055173e-07
000070 c6 9d af bb f7 d8 ab 21 44 ac a3 3e 66 df f4 3e
       -0.005359384 1.1644841e-18 0.31967366 0.4782669
000080 f1 b0 09 be 41 14 99 bd 1f 31 35 3d ed 4a b4 ac
       -0.13446404 -0.07474566 0.0442363 -5.124226e-12
000090 d8 f3 60 3c 0a ac ca 1f ea 7f 9d 9e fc 6c 29 37
       0.013730012 8.583494e-20 -1.6675926e-20 1.009856e-05
0000a0 70 9d 85 3e 74 7e dd 3e 17 c1 3b 3c c5 ef 35 be
       0.26096678 0.4326054 0.01145961 -0.17767246
0000b0 df ea 7a 3e 5d e6 45 bf 38 8c 02 be 90 fb 84 bd
       0.24503659 -0.7730463 -0.12748802 -0.06493294
0000c0 4c 64 72 be cd b1 b1 3c
       -0.23671073 0.021691227

linear1.bias f4 [10]
000000 72 92 1c 3e 1d ea f3 3d 7d 6b 15 be 91 29 87 b9
       0.1529024 0.11909888 -0.14591785 -0.00025780176
000010 c8 a9 22 3e dd 7e 50 ba fb fc bc bd ff e6 58 bc
       0.15885079 -0.00079534744 -0.0922794 -0.0132386675
000020 47 d3 f7 bd 65 dc 97 3e
       -0.12100845 0.29660335
