model_parameter/rbf_pretrained_GRU.pth (torch, 235524 bytes, 8 tensors)

gru.weight_ih_l0 f4 [384, 20]
000000 ac 2c 66 b9 be 22 2c b9 b4 3f 49 b9 25 2e cf b9
       -0.00021951151 -0.0001641614 -0.00019192585 -0.00039516497
000010 97 7a 67 b9 59 5e c3 b8 15 33 5d b9 62 d7 e2 b9
       -0.00022075545 -9.315898e-05 -0.00021095232 -0.00043266552
000020 db 26 8f b9 a0 d7 58 b9 83 4b 31 b9 17 f7 12 ba
       -0.00027304035 -0.00020679692 -0.00016908166 -0.0005606277
000030 35 0c 15 ba cc 74 26 b9 b5 4a 92 b9 60 ee 86 b9
       -0.0005685718 -0.00015874504 -0.0002790295 -0.00025736075
000040 7d 07 00 ba f4 74 53 b9 3f 7e 02 ba 3e c6 8d b9
       -0.00048839283 -0.00020166097 -0.00049779186 -0.00027041318
000050 ed 6d 8c 38 51 00 47 3a 56 83 e5 b7 a8 13 0b ba
       6.6961955e-05 0.00075912947 -2.7360085e-05 -0.0005305358
000060 ed c6 1d 39 49 6c 49 b9 f5 08 2e ba 46 c5 1d ba
       0.00015046792 -0.00019209193 -0.0006638908 -0.0006018471
000070 18 d3 5f b9 09 b3 ef 38 34 7e 58 b9 8c 1e 1e b8
       -0.00021345576 0.00011429756 -0.0002064638 -3.7698584e-05
000080 1a b2 1a b9 0f ec 0d 38 1b 80 72 b9 ce 65 f5 b9
       -0.00014752932 3.3836866e-05 -0.00023126641 -0.00046805892
000090 bb a0 3b ba 93 75 e0 b7 42 b0 21 ba ec 50 a6 ba
       -0.00071574346 -2.675763e-05 -0.0006167927 -0.0012688912
0000a0 1e 28 bd 3a ca e3 97 b9 7b a8 b4 b9 93 ea bf ba
       0.0014431512 -0.0002897068 -0.00034457803 -0.0014642052
0000b0 7c 81 86 b9 84 f3 ca 39 3f 49 8d 39 34 6d a8 b9
       -0.00025654945 0.00038709876 0.00026948188 -0.0003212482
0000c0 e8 54 45 39 e5 3b 80 38 0a b9 cf 39 65 b5 56 ba
       0.00018819014 6.114672e-05 0.00039619982 -0.0008190482
0000d0 88 f5 ba b9 33 cb c6 38 44 fa af ba 4e d9 ae 39
       -0.0003565962 9.4792245e-05 -0.0013426025 0.0003334977
0000e0 69 1c 6e 37 53 ed 53 b9 da 38 87 ba b7 98 bc b9
       1.419252e-05 -0.00020210938 -0.0010316626 -0.00035971936
0000f0 54 10 70 3a a5 e3 13 39 4d 95 2f ba eb 58 92 3a
       0.00091577065 0.00014103817 -0.0006697968 0.0011165416
000100 bb fd e8 3a 42 63 d8 37 ee e9 2a 3a 39 03 cf 3a
       0.0017775813 2.5795427e-05 0.00065198436 0.0015793807
000110 bc 59 26 3a c7 ad 2b 3a db 65 60 39 64 6f a4 3a
       0.0006345769 0.0006549027 0.00021400249 0.0012545404
000120 48 e3 17 3a f1 db 45 3a 97 2f 88 3a 83 d1 a4 b9
       0.00057940604 0.00075477274 0.001039016 -0.00031436616
000130 ad dc 53 3a 9d ee 60 b8 79 12 01 3a b5 c0 98 38
       0.00080818945 -5.3627988e-05 0.0004923712 7.283819e-05
000140 2e a2 dc 37 a8 40 85 3a 97 e6 00 3a 32 9f 80 bb
       2.6301565e-05 0.0010166364 0.0004917173 -0.0039252276
000150 71 92 83 bb cf 4b 31 bb 03 b5 7f bb 3e 70 e4 bb
       -0.00401526 -0.0027053242 -0.0039017804 -0.006971388
000160 3b 66 9c b8 af 3b 97 3a 69 e7 8b 39 f6 9f bb bb
       -7.4577016e-05 0.0011538173 0.0002668456 -0.005725856
000170 2b 3c ef ba 9a 5f bd ba 64 6a a6 ba 8a 56 86 bb
       -0.0018252184 -0.0014448047 -0.0012696502 -0.0040996717
000180 3c 03 d3 bb e3 72 44 bb 57 62 64 bb 00 bd c4 bb
       -0.0064395946 -0.0029975704 -0.0034848654 -0.006003976
000190 48 37 8f 3b 59 d1 07 3c e4 54 25 3b ad c5 02 bc
       0.0043706037 0.008289658 0.00252276 -0.0079817
0001a0 b5 3d 55 bb ee f1 4c bb 59 19 07 bc 92 29 0d bc
       -0.0032538 -0.003127213 -0.008245789 -0.008615868
0001b0 79 20 64 ba 7d 1e 98 3b e9 5f 9a 37 f6 a9 76 bb
       -0.00087023486 0.0046423064 1.8402892e-05 -0.0037637926
0001c0 73 b2 09 3b 92 fd 8d b8 88 d6 b3 ba 8f 0f c0 bb
       0.0021010905 -6.770635e-05 -0.0013720552 -0.0058612297
0001d0 f2 e3 10 bc 34 d7 27 bb 4d 50 af bb 01 e8 67 bc
       -0.008843409 -0.0025610449 -0.005350149 -0.014154435
0001e0 e3 5b 40 3b f5 d9 90 3b e5 5e 58 bb 86 20 bb bb
       0.0029351644 0.0044205138 -0.0033015546 -0.005710664
0001f0 1b 39 ca 3a fe 74 94 bb 4a eb eb bb de 25 0e bc
       0.0015428396 -0.004530548 -0.0071996795 -0.00867602
000200 25 75 9f ba b8 1f 43 3b 9b 96 55 bb 12 8b 5c ba
       -0.0012165649 0.0029773545 -0.0032590989 -0.0008413057
000210 b0 bf 1d bb 8b 80 06 39 56 b7 6c ba c3 6a d2 bb
       -0.0024070553 0.00012827122 -0.0009030005 -0.0064214184
000220 79 b4 17 bc af 90 53 bb 93 ae 82 bb dc bf 15 bc
       -0.009259337 -0.0032282283 -0.003988096 -0.009139981
000230 9c a8 07 3d de d5 d6 3c 1e da fd bc 1b 3d 33 3c
       0.033119783 0.026225027 -0.030987795 0.010939862
000240 82 a6 3a 3d 33 f1 08 bc d1 1a 31 bd 1e 43 67 bd
       0.04556895 -0.008358288 -0.043238465 -0.056460492
000250 bc 4d 02 3b ad 67 0c bc 48 ed 4a 3b 3a 93 a5 3a
       0.001988276 -0.00856964 0.0030964185 0.0012632378
000260 f4 a8 94 3c c2 ff 5e 3c b9 96 c6 3c 9a 73 37 bd
       0.01814697 0.013610782 0.024241792 -0.04478798
000270 c2 94 8e bd b7 13 ac 3b a9 13 ae bc 6b 2a 18 bc
       -0.06961967 0.0052513736 -0.021249609 -0.009287457
000280 7b 71 d8 ba e8 5e 53 b9 ef 25 70 ba ad da 08 bb
       -0.0016513312 -0.00020157883 -0.0009160926 -0.0020882294
000290 1d 20 af ba 32 ff b1 ba 4f 71 2b bb 2a c8 75 bb
       -0.0013361011 -0.0013580082 -0.0026160066 -0.003750334
0002a0 85 37 a9 ba 70 28 37 ba 6b 8a 40 ba 27 ff 4e bb
       -0.0012910223 -0.00069869217 -0.00073448446 -0.0031585188
0002b0 b8 fa 01 bb 60 4e b2 ba 23 39 37 ba 12 ba 41 bb
       -0.0019833278 -0.001360368 -0.000698941 -0.002956037
0002c0 31 ff 96 bb 83 e7 a0 ba 89 c8 c2 ba 2f ba 66 bb
       -0.004608058 -0.0012276027 -0.001486079 -0.003520619
0002d0 27 4e be 3c 3f 78 a8 3c c1 af 60 bc c4 ca 36 bc
       0.023230625 0.02056515 -0.013713778 -0.0111567415
0002e0 fb 25 88 3c 1c 7d 60 bc 4b 64 00 bd 02 3a ea bc
       0.016619673 -0.013701703 -0.031345647 -0.028592113
0002f0 13 05 6b bb 44 65 94 3b 72 99 9b bb 56 fa 0d 39
       -0.0035861179 0.0045286734 -0.0047485167 0.00013540065
000300 02 85 79 3c 37 3f e9 3b 4d d0 73 3b 80 5d f2 bc
       0.015229465 0.0071181315 0.0037203014 -0.0295856
000310 29 19 3e bd e5 7e 88 bb 3a 53 ff bb 29 8f 96 bc
       -0.046410713 -0.0041655176 -0.007791904 -0.018378811
000320 09 f1 36 3b 72 c3 0d 3c b9 20 a9 ba 6e f8 a4 3b
       0.0027914664 0.008652555 -0.0012903429 0.005034498
000330 9c 9d f2 3b b2 21 a1 bb 30 ee fd bb cb c6 99 ba
       0.0074040424 -0.004917347 -0.0077493414 -0.0011732219
000340 a0 1f e1 ba bf 38 1f 3b 95 b5 2f b8 de c6 32 3b
       -0.0017175563 0.0024295298 -4.1892363e-05 0.0027279179
000350 31 38 71 3b d2 72 80 3b 2c 1c d1 3b 42 c1 b8 ba
       0.0036807174 0.0039199376 0.006381532 -0.0014095681
000360 44 45 93 bb 74 82 c8 3a 7f b8 5e bb 0c ba 0a bb
       -0.004494341 0.0015297667 -0.003398448 -0.0021168021
000370 20 7b 4a 3c d9 1b 86 3c 21 98 04 bc f5 b4 4a bc
       0.012358457 0.0163707 -0.008092911 -0.012372245
000380 fd 11 d8 3b d8 38 c3 bb f3 00 c9 bc 4b 82 8d bc
       0.0065939412 -0.005957704 -0.024536585 -0.017274043
000390 40 5a 7a ba bb a3 e1 39 f2 e4 14 bb ce 61 87 b9
       -0.00095501915 0.00043037333 -0.002271947 -0.00025822077
0003a0 c2 5b 42 ba 16 a4 17 3c 5e 2b 90 ba 54 2a a4 bc
       -0.00074141857 0.00925543 -0.0010999253 -0.020039715
0003b0 38 20 e7 bc 6e d2 54 bb 68 74 5b bc a0 31 29 bc
       -0.028213605 -0.0032474059 -0.013394453 -0.010326773
0003c0 f9 75 a1 3c 1f 1f 88 3c 33 ed 19 bc 28 3a 8d bc
       0.019709574 0.016616402 -0.009394932 -0.017239645
0003d0 bf de 0c 3c ab c4 22 bc 4e e4 fe bc c8 b0 ad bc
       0.008598029 -0.009934585 -0.031114724 -0.02120246
0003e0 b4 96 96 bb de db 12 3b ff 15 b6 bb 9f 69 f4 38
       -0.004595602 0.0022408883 -0.0055568214 0.000116545
0003f0 8f bb 2d 3c b4 b9 dc 3b 5a c2 37 bb bd 5b c2 bc
       0.0106037995 0.0067360047 -0.0028039427 -0.023725385

gru.weight_hh_l0 f4 [384, 128]
000000 f6 10 16 36 a9 8a 72 37 85 16 fb 36 b4 57 e0 b8
       2.2361614e-06 1.4456608e-05 7.4830045e-06 -0.00010697488
000010 53 38 2a 38 1d fa 80 37 dd de 7c 37 3e ad c2 b8
       4.0583614e-05 1.5375257e-05 1.507226e-05 -9.28291e-05
000020 6e ec 85 b6 ad d5 28 38 d0 36 18 39 94 e5 d5 36
       -3.991233e-06 4.0253322e-05 0.00014516269 6.374621e-06
000030 8a 3f 52 38 1a cf d5 36 d6 bc 58 37 a4 ac 19 b7
       5.0127077e-05 6.3720045e-06 1.291857e-05 -9.159707e-06
000040 4a d8 17 b7 c2 d8 98 38 15 91 0d b6 7e 2b 50 38
       -9.05066e-06 7.288299e-05 -2.1095086e-06 4.963157e-05
000050 1c 15 89 37 5c 4c cc b9 a3 a2 41 b8 98 d6 4c 37
       1.6341502e-05 -0.00038966804 -4.6166253e-05 1.22093115e-05
000060 18 c6 fc b8 30 8a f4 38 62 9b 0f b6 7f 0d 71 35
       -0.00012053194 0.00011660566 -2.1399105e-06 8.9799136e-07
000070 8e 7f e7 b8 7b 1f f8 36 20 1c 42 38 fb 61 0e 36
       -0.00011038697 7.3946408e-06 4.6279398e-05 2.121668e-06
000080 a1 d6 45 b7 9f a4 19 b7 af 18 d5 b6 6f 21 dd b6
       -1.1792087e-05 -9.1578395e-06 -6.350768e-06 -6.5902054e-06
000090 90 d9 00 38 97 25 97 b8 10 5a 50 b6 6b f6 01 b6
       3.07202e-05 -7.207243e-05 -3.1046839e-06 -1.9365932e-06
0000a0 4e 01 0d b6 d3 b1 b3 39 32 71 9b b7 2d 26 30 b8
       -2.1011397e-06 0.0003427403 -1.853015e-05 -4.1997224e-05
0000b0 24 df 07 b9 03 2d 43 36 3b 6c 20 b7 0d 71 7d b6
       -0.0001295773 2.9083465e-06 -9.5619425e-06 -3.7765742e-06
0000c0 17 be d3 b7 31 48 05 3a f7 a5 37 36 9c d0 2f 37
       -2.5241678e-05 0.0005084305 2.736573e-06 1.04793835e-05
0000d0 39 99 ff b6 df a3 22 b8 43 d6 16 38 97 c9 da 38
       -7.6174297e-06 -3.8776427e-05 3.5962334e-05 0.00010432599
0000e0 39 0d 2a 38 95 fc 98 37 2a 53 aa 37 64 dd f1 38
       4.0543473e-05 1.823743e-05 2.0304306e-05 0.00011533013
0000f0 8c 92 81 b8 60 1d 1f 38 03 49 9d b7 65 18 19 b9
       -6.178496e-05 3.793591e-05 -1.8749857e-05 -0.00014600305
000100 a6 80 e3 b6 9a 4e 30 b7 1a 46 bb 38 de 0e b1 b6
       -6.780104e-06 -1.0508718e-05 8.929912e-05 -5.276742e-06
000110 66 e8 09 b8 52 be 53 38 70 df e0 38 f4 80 44 38
       -3.2879783e-05 5.048357e-05 0.00010722771 4.685014e-05
000120 77 12 14 b7 f1 93 92 b7 ef 5c bb b8 9c 67 80 b8
       -8.825787e-06 -1.7473447e-05 -8.934165e-05 -6.1228144e-05
000130 88 e6 f3 36 25 66 d2 b5 2b a6 fa 35 aa 7c ba 38
       7.2688017e-06 -1.5675947e-06 1.8674813e-06 8.8923916e-05
000140 c5 b6 f2 b8 a2 a0 a2 b7 d6 fa 46 37 e9 a5 1d 37
       -0.00011573503 -1.9386705e-05 1.1860122e-05 9.396558e-06
000150 b8 b9 5b 37 19 c0 09 b8 01 b7 b3 b8 67 30 bb b6
       1.3096658e-05 -3.284225e-05 -8.569472e-05 -5.578669e-06
000160 62 28 79 38 96 7d 5b b6 50 77 9b 38 0d 4a f3 37
       5.9403836e-05 -3.2706644e-06 7.4132e-05 2.900234e-05
000170 d7 e8 80 b6 e8 35 cc b8 fe ff 44 b8 1e 5a 40 b8
       -3.8418034e-06 -9.737519e-05 -4.6968453e-05 -4.5860295e-05
000180 a6 25 15 37 1c d0 40 39 ce 16 1b 36 40 fd 9e 38
       8.889858e-06 0.00018388074 2.3110074e-06 7.5811986e-05
000190 bc 0f 54 b7 f9 12 92 b5 79 75 08 3a 93 d8 e9 38
       -1.2639848e-05 -1.088337e-06 0.0005205493 0.00011150646
0001a0 a9 0b de 38 2b 41 2b b8 ae e8 db b8 66 20 9d 35
       0.00010587957 -4.083027e-05 -0.00010486074 1.1706841e-06
0001b0 a4 ec ba 36 33 2e 61 b8 1c 30 0b b7 f3 aa 3f 39
       5.5707806e-06 -5.3687207e-05 -8.296247e-06 0.00018278863
0001c0 cf bd 1d 37 9e a5 15 38 0f 6e 1e b7 1f 83 b6 38
       9.4021225e-06 3.567861e-05 -9.443159e-06 8.7028595e-05
0001d0 b3 68 ca b7 27 93 08 37 2d e5 b9 b7 39 b7 6e b9
       -2.412903e-05 8.140493e-06 -2.2160437e-05 -0.00022765704
0001e0 47 5c b6 36 8c 23 a4 37 f9 10 ea 37 e9 d5 54 38
       5.434765e-06 1.9566876e-05 2.7902877e-05 5.0743958e-05
0001f0 cc 74 a3 36 73 48 84 37 a1 02 98 37 1c 2d f7 36
       4.8713755e-06 1.5769363e-05 1.8121036e-05 7.366425e-06
000200 50 8a 87 37 e1 08 e1 36 6f b4 77 b8 53 50 59 b8
       1.615766e-05 6.706556e-06 -5.905743e-05 -5.181164e-05
000210 ee 68 0b 39 0b 94 6c 39 48 b3 49 b7 3b d9 07 39
       0.00013295162 0.00022561864 -1.2022276e-05 0.00012955528
000220 bc 14 7f 38 73 e3 f0 b8 6f 98 d9 37 eb d0 d5 b8
       6.0816048e-05 -0.000114864575 2.5939398e-05 -0.000101955455
000230 8c e3 51 b9 3c c2 b4 36 9f 7a 21 b8 78 76 02 39
       -0.00020016561 5.38703e-06 -3.849959e-05 0.00012441899
000240 d4 9d a6 b8 e5 1f f9 36 3b e1 69 38 5c b2 f0 37
       -7.9448946e-05 7.4244913e-06 5.576129e-05 2.8693285e-05
000250 64 a4 e5 b7 47 a2 3e b9 64 0e 12 b9 db 7b d0 b7
       -2.7375478e-05 -0.00018180265 -0.00013929006 -2.4853207e-05
000260 dc 4c 46 38 46 a1 76 b9 d3 00 b3 b7 e9 e8 e1 38
       4.727846e-05 -0.00023520467 -2.1338847e-05 0.00010772219
000270 b0 47 ba b8 33 0d 2d b7 27 5d 25 b9 b5 d5 74 37
       -8.882524e-05 -1.0314677e-05 -0.00015770328 1.4593291e-05
000280 e3 15 8b b7 64 19 fb b8 1f 56 27 b8 a0 5b 27 b7
       -1.6580283e-05 -0.00011973342 -3.989611e-05 -9.975309e-06
000290 d0 82 03 39 80 c5 06 38 b5 ba b1 38 50 cc a4 36
       0.00012541865 3.2132026e-05 8.4747946e-05 4.911366e-06
0002a0 1b 8f d4 37 30 53 f6 38 65 f9 1e b8 ab 4a 2f 39
       2.5339008e-05 0.00011745689 -3.7902402e-05 0.00016717117
0002b0 20 f1 2a 39 48 7d 34 b8 0e fa ca b9 4b 70 b7 37
       0.0001630229 -4.303202e-05 -0.00038714748 2.186759e-05
0002c0 8d 0e b6 36 bd 5b 98 39 81 35 df 37 99 c5 5f b7
       5.4257166e-06 0.0002906005 2.6608586e-05 -1.3337843e-05
0002d0 d7 ec f2 b6 6f dd 44 38 ee 83 3b 38 fa 03 0a b9
       -7.239734e-06 4.6936268e-05 4.4707143e-05 -0.00013162187
0002e0 5a 1f 8b b8 28 cf 98 b8 24 23 b6 b8 a2 d8 34 b8
       -6.633876e-05 -7.286511e-05 -8.684982e-05 -4.31171e-05
0002f0 ab f3 0f 37 2a 13 00 b9 a4 6e eb b7 e3 a3 e1 b7
       8.580198e-06 -0.0001221417 -2.8065704e-05 -2.6898406e-05
000300 e2 87 a9 37 64 08 c3 38 80 d1 1d 38 32 cf 91 35
       2.0209645e-05 9.2998875e-05 3.762683e-05 1.0863644e-06
000310 d9 52 01 39 1e 13 21 b9 9e 2b 11 38 73 b6 3c 38
       0.00012333262 -0.00015361278 3.4611316e-05 4.4992612e-05
000320 63 70 28 38 fc a6 fb 38 30 51 0f b8 dc f0 90 39
       4.015899e-05 0.00011999716 -3.416947e-05 0.00027645275
000330 d1 b8 86 37 7b cd 56 38 3d a1 bc b5 86 a8 27 39
       1.6060107e-05 5.1212945e-05 -1.4054018e-06 0.00015989141
000340 4b 61 4e b8 90 04 bd 33 1b e7 1d 37 c3 fc a6 38
       -4.920484e-05 8.801828e-08 9.411738e-06 7.9625774e-05
000350 12 0d 04 39 0e cc e3 38 d9 da 61 b9 8a de d3 38
       0.0001259337 0.00010862212 -0.00021539199 0.00010102715
000360 3b 24 e9 b6 21 53 08 38 b5 2b 0f 38 6c 8d 0c b9
       -6.948159e-06 3.2502347e-05 3.4134562e-05 -0.00013404124
000370 ec 20 0b 39 fa c4 39 39 9c 78 23 39 49 74 70 b8
       0.00013268337 0.00017716354 0.00015589822 -5.7328758e-05
000380 06 f5 08 b9 74 22 06 b8 62 b1 bd b7 07 41 77 b5
       -0.00013061249 -3.1980177e-05 -2.2613156e-05 -9.21093e-07
000390 7e a0 0a b8 1a bd c7 b6 71 7a 92 39 19 8c 2c b9
       -3.3051234e-05 -5.9526765e-06 0.00027938516 -0.00016455389
0003a0 3f 98 5a b9 3d 92 dd 37 81 ed 90 37 28 13 98 b7
       -0.00020846816 2.641335e-05 1.7276734e-05 -1.8128732e-05
0003b0 6d 91 ff 38 1a 96 47 39 77 77 84 b7 5c f0 ad 38
       0.00012186435 0.00019034036 -1.5791256e-05 8.294053e-05
0003c0 ac b4 a6 38 7d aa 05 39 53 ca 48 38 77 cd 0a b9
       7.9491496e-05 0.0001274738 4.7872145e-05 -0.00013237247
0003d0 0d 1d 05 39 ad fc 33 39 fb 13 56 38 75 94 93 b8
       0.0001269469 0.000171649 5.1040184e-05 -7.0371585e-05
0003e0 dc c9 31 b9 90 14 cc b8 86 ff cd b8 f0 ea ae b7
       -0.00016955234 -9.731308e-05 -9.822757e-05 -2.0851818e-05
0003f0 d4 21 75 38 72 3b a0 b8 33 8a 38 37 7e e1 c8 38
       5.8444057e-05 -7.640467e-05 1.0999432e-05 9.578744e-05

gru.bias_ih_l0 f4 [384]
000000 de e3 7c ba 42 b3 62 ba 1f 1e b3 ba 30 36 eb 39
       -0.0009646992 -0.00086479273 -0.0013665593 0.00044863066
000010 22 4f e0 bb fd 2f d2 bb 03 81 af bb a8 a7 2a bc
       -0.006845371 -0.006414412 -0.0053559556 -0.010415949
000020 27 bc 94 bb 98 3c 31 bc aa 32 a0 39 a5 3f 2c bc
       -0.004539031 -0.010817669 0.00030555326 -0.010513221
000030 66 65 39 bc f5 6b 0c bc 40 4d 85 bb 32 c1 8f bb
       -0.011315679 -0.008570661 -0.004068047 -0.0043870443
000040 38 0e a5 bb ef 08 73 bb d3 57 90 bb 36 ad e0 bb
       -0.0050370954 -0.0037084182 -0.0044050007 -0.006856586
000050 39 8f 53 bc ac 12 23 3c de f9 0c bc 88 a0 1a bc
       -0.012912565 0.009953182 -0.008604495 -0.009437688
000060 a6 2f ec ba 04 26 6f bc e6 1e 87 ba 32 2c 97 bb
       -0.0018019571 -0.014596466 -0.0010308891 -0.004613423
000070 04 f9 2c b9 25 66 ae b9 66 70 72 39 c8 9f ce ba
       -0.00016495964 -0.0003326397 0.0002312079 -0.0015764171
000080 a4 ec 93 bb b7 cc 1e bc 8f ce a7 b9 89 7a 02 ba
       -0.0045142937 -0.0096923625 -0.0003200662 -0.00049773656
000090 2f 75 56 bb e4 68 56 39 dc 19 15 3c 7f 29 f2 b9
       -0.0032723655 0.00020447705 0.009100404 -0.00046188754
0000a0 cc e5 77 bb 6c ff 34 3c 5c d6 82 bb c5 c6 b5 bb
       -0.0037826179 0.011047225 -0.003992839 -0.005547377
0000b0 f6 96 a4 bb 5d 26 d5 ba ff 19 83 bc 4b 4f 36 bb
       -0.0050228788 -0.0016262044 -0.016003607 -0.0027818258
0000c0 43 1d 31 bc 0c 97 a0 3c 42 6f be ba f7 cf 95 ba
       -0.010810199 0.019603275 -0.0014529007 -0.0011429776
0000d0 02 99 c6 bb ac 79 10 bc f5 93 6c bb f7 16 eb bb
       -0.0060607204 -0.008818071 -0.0036098931 -0.0071743685
0000e0 d4 fc 1f bc 33 16 fd 3b 6c 2c 8c bb af 93 35 bc
       -0.009764869 0.0077235936 -0.0042777564 -0.011082574
0000f0 d1 1c 0a bc 4f 06 69 bb f6 b6 5e ba ef 12 0b bb
       -0.008429722 -0.0035556739 -0.0008495891 -0.0021221002
000100 9d c7 06 ba 67 3f 41 bc 7b 57 71 ba 8a 02 b2 bb
       -0.0005141439 -0.011794901 -0.0009206456 -0.0054324316
000110 35 42 b2 bb 83 2d b5 bb 19 3b d5 3b a3 56 61 bc
       -0.0054400214 -0.005529107 0.006507289 -0.013753566
000120 31 69 4d bb 81 d0 98 bb 9a 0c 45 bb de bc 75 bc
       -0.0031343217 -0.0046635275 -0.0030067326 -0.014998643
000130 49 02 ae b9 db c1 fd ba 43 f2 5d ba e0 95 1e 3c
       -0.0003318957 -0.0019360142 -0.0008466581 0.009679288
000140 53 d0 5a 3a 75 86 f4 bb 0d 27 57 bb c4 80 23 bc
       0.0008347083 -0.0074623176 -0.0032829673 -0.009979431
000150 01 cb 23 bc b4 16 78 3c 01 9d 89 bc 55 18 a4 bb
       -0.00999713 0.015142132 -0.016798498 -0.0050077834
000160 9f fa 17 bc ae 91 4f ba 7a c9 0b bc d3 d1 3a bb
       -0.009276061 -0.00079181313 -0.0085319225 -0.0028506413
000170 d3 4f ac bb ab ec fb bb fd ae 5c bc b9 aa 3d bb
       -0.005258539 -0.007688125 -0.013469455 -0.002894087
000180 1a cf 9d bb 48 7a 89 3b 6a a1 32 bb 36 94 af 3a
       -0.004815948 0.0041954853 -0.0027256855 0.0013395611
000190 7e 3e ef bb 8c 89 6a b8 32 f5 9e 3c 34 52 87 bb
       -0.007301151 -5.5918048e-05 0.019404028 -0.0041296724
0001a0 99 ad 34 bc e5 d4 51 bc 69 1d 40 bc 23 b6 ba ba
       -0.011027717 -0.012807106 -0.011725762 -0.0014244955
0001b0 ef 05 79 bc 99 09 16 bc db 07 00 ba 26 df 4e 3a
       -0.015199169 -0.009157562 -0.0004883983 0.0007891528
0001c0 2d 42 35 bc 45 29 8c ba 02 a0 e2 bb a2 6d 17 bb
       -0.011063141 -0.0010693452 -0.006916047 -0.0023106118
0001d0 30 53 29 bc 14 1e 8e ba 89 31 90 bb 0b 82 d5 3a
       -0.010334775 -0.0010842704 -0.0044004363 0.0016289366
0001e0 b5 7f 39 bc 4b 3b b3 bb 29 f5 bc bb cb 33 ab bb
       -0.011321952 -0.0054697148 -0.00576653 -0.00522468
0001f0 4e f3 24 bc d1 e6 58 bb 24 56 1c ba 94 5c 43 bb
       -0.010067774 -0.0033096562 -0.00059637637 -0.002980982
000200 b5 6e 2a ba 88 40 a1 b9 83 75 b6 3b eb 12 4e ba
       -0.0006501482 -0.00030756393 0.0055682077 -0.00078610954
000210 f9 d9 89 bc 6c 22 1c bd ee 15 94 bc d9 0a 5e be
       -0.01682757 -0.038118765 -0.018076863 -0.21683826
000220 a2 a8 c9 bb c2 74 fd bd 8f 14 38 3c 4b d1 ae bd
       -0.006154136 -0.123757854 0.01123537 -0.08536013
000230 41 ea cc bd 95 b0 5c bd 12 45 52 bc 82 61 cd bc
       -0.10005618 -0.05387934 -0.01283385 -0.02507091
000240 3a 81 e0 bb 41 f1 0e be 59 1d a4 bb 4b 13 66 bd
       -0.0068513425 -0.13959219 -0.0050083813 -0.056170743
000250 c5 bb ea bd 81 b6 0e 3c eb cd 6d bd 27 a2 b4 bd
       -0.114615954 0.0087105045 -0.058057707 -0.088199906
000260 60 af 3a be f4 37 17 be 6b ba 49 bb 00 dc fe bb
       -0.18230963 -0.14767438 -0.003078128 -0.007777691
000270 e7 87 c4 3a 0c c5 34 3a 7c a0 ae bd 9b b5 32 bb
       0.0014994115 0.00068958174 -0.08526704 -0.002726889
000280 d1 6f b6 bc 57 f6 ea bd b9 c9 8c 39 59 fb 81 ba
       -0.022270115 -0.11472767 0.00026853176 -0.0009916826
000290 98 76 4e 3b 02 2f 62 bd 9f 33 a2 bd 81 ab 1c 39
       0.0031503793 -0.05522061 -0.07920002 0.0001494121
0002a0 3c 45 d2 bb ac 76 62 3c e5 27 95 bb 65 54 38 bd
       -0.006416945 0.013822239 -0.004551875 -0.04500236
0002b0 d2 a4 02 be 5f d6 5d 3b 02 df e6 bd 1a d5 bf ba
       -0.12758186 0.00338497 -0.11273004 -0.0014635653
0002c0 16 14 bd bd 2d 4d 84 3b e7 aa 08 3b a3 b4 b0 3a
       -0.09232347 0.0040375204 0.002085382 0.0013481568
0002d0 3c eb d5 bd f5 28 13 be 0a 58 22 bb da d8 f3 bd
       -0.10445258 -0.14371093 -0.0024771714 -0.119065955
0002e0 d1 97 9e bd a3 58 06 be d3 5b 41 bd 72 75 23 be
       -0.077438004 -0.1311975 -0.04720671 -0.1596277
0002f0 30 fa 3d bd 97 1a fc bc 9d be d3 ba 05 d3 35 be
       -0.046381176 -0.030774398 -0.001615483 -0.17756279
000300 60 7a 72 ba ee d2 0a be f4 b4 18 be 28 f9 bd bc
       -0.00092498027 -0.13557026 -0.14912778 -0.023190096
000310 3c 37 9d bc 87 63 32 be 90 0c 08 be 38 e4 53 be
       -0.019191377 -0.17420779 -0.13286042 -0.20692527
000320 b5 9a 7d bb e8 4b c5 bc 7d 56 67 3b 41 57 ed bd
       -0.003869695 -0.024084046 0.0035299354 -0.11588908
000330 24 3c 61 3a d8 e1 4b 3b 0f 92 27 3a e1 98 17 be
       0.00085920305 0.0031109955 0.0006392309 -0.14804412
000340 f7 fb 22 be ae eb 88 bd 5f cb 45 bd af 73 cd bd
       -0.1591643 -0.06685577 -0.048289653 -0.100318305
000350 c6 e7 bb bd 9e 9b fa bd 01 90 29 be 32 b2 24 bc
       -0.09175067 -0.12236713 -0.1655884 -0.010052251
000360 dd b5 26 be d8 95 87 3b 26 9d 2e bd 00 25 33 bd
       -0.16280313 0.004137736 -0.042630337 -0.043736458
000370 f8 89 a2 bb 72 5e 1d be ca 5b 23 be 5d f6 0e be
       -0.004960295 -0.1536806 -0.15952983 -0.13961168
000380 ef a2 78 bc 80 4a 3e be 67 47 06 bb 51 22 db bd
       -0.015175565 -0.18583107 -0.0020489336 -0.10699905
000390 51 30 33 bd b2 bd 8e 37 d5 8e 7c 3c 53 ea c9 bd
       -0.04374725 1.7016053e-05 0.015414913 -0.09859147
0003a0 87 59 16 be 44 67 be bd 29 b6 03 be bd 7d a8 39
       -0.1468259 -0.0929704 -0.12862457 0.0003213714
0003b0 d2 05 f7 bd 84 2c b0 bd 35 68 8a 39 94 c8 1c 3b
       -0.12061657 -0.08602241 0.0002639905 0.0023923265
0003c0 a6 1e 0f be 8a 28 0e be d9 0f 11 bd 59 ba c7 bd
       -0.13976535 -0.13882652 -0.035415504 -0.0975234
0003d0 73 52 14 be 01 46 bb bd cd 7a 24 bd b3 92 f1 3b
       -0.14484577 -0.091442116 -0.040156174 0.0073722242
0003e0 b2 73 9d bd 1f 41 0c bd 8e ee 4a bd 7d 75 f1 bd
       -0.07688083 -0.03424179 -0.04954391 -0.11789987
0003f0 b1 a4 d5 bd 31 85 c7 37 ba c1 97 3a 33 85 fb 3b
       -0.10431803 2.378467e-05 0.0011578121 0.0076757907

gru.bias_hh_l0 f4 [384]
000000 27 e4 7c ba 3f be 5d ba 4c 1e b3 ba c9 bc e7 39
       -0.00096470345 -0.000845883 -0.0013665645 0.0004420041
000010 d3 4f e0 bb fa 2f d2 bb 70 8d af bb 9a b3 28 bc
       -0.0068454533 -0.0064144107 -0.005357437 -0.010296727
000020 21 bd 94 bb 0e 39 31 bc 0a 56 80 39 56 57 2c bc
       -0.0045391475 -0.010816826 0.00024478167 -0.010518869
000030 1d 5b 39 bc bb 6c 0c bc 5a 4c 85 bb 47 a5 8f bb
       -0.011313227 -0.008570845 -0.0040679397 -0.0043837163
000040 44 0e a5 bb 6c 1c 71 bb b5 57 90 bb 6d bb e0 bb
       -0.005037101 -0.0036790622 -0.0044049867 -0.0068582804
000050 e2 8c 53 bc c9 5c 28 3c 25 fa 0c bc 3f 1c 1a bc
       -0.012912007 0.010276028 -0.008604561 -0.009406148
000060 2f 03 1f bb d1 20 6f bc f7 1e 87 ba 1b 2b 97 bb
       -0.0024263372 -0.014595226 -0.0010308911 -0.004613293
000070 a9 f8 2c b9 75 51 ae b9 ac 82 72 39 d2 9f ce ba
       -0.00016495831 -0.00033248556 0.00023127598 -0.0015764183
000080 f9 e7 93 bb 1d c9 21 bc 41 c6 a7 b9 a7 aa 02 ba
       -0.0045137373 -0.009874609 -0.00032000433 -0.00049845356
000090 dc 75 56 bb e8 74 56 39 68 0c 0b 3c 30 0d f2 b9
       -0.0032724058 0.00020452181 0.008486845 -0.00046167662
0000a0 80 e4 77 bb 6d de 01 3c cd d6 82 bb dc c6 b5 bb
       -0.0037825406 0.007926566 -0.0039928914 -0.0055473875
0000b0 e6 16 d2 bb d8 23 d5 ba db 5b 82 bc 55 4f 36 bb
       -0.006411421 -0.0016261293 -0.01591294 -0.0027818282
0000c0 40 1d 31 bc 14 8c a0 3c 5d 6f be ba 96 df 95 ba
       -0.010810196 0.019598044 -0.0014529038 -0.0011434432
0000d0 16 b7 c9 bb f3 9f 0f bc cb 9b 6c bb 29 aa e2 bb
       -0.0061558587 -0.008766162 -0.0036103602 -0.0069172573
0000e0 33 48 20 bc bd ae cf 3b 3a 2c 8c bb 51 63 34 bc
       -0.009782839 0.006337969 -0.004277733 -0.011010007
0000f0 4c 15 0a bc 33 04 69 bb 63 bc 5e ba 13 dc 0a bb
       -0.008427929 -0.0035555481 -0.00084967 -0.0021188303
000100 94 c8 06 ba 25 72 41 bc 7b 92 40 ba 9e 02 b2 bb
       -0.0005141583 -0.011806999 -0.0007346046 -0.005432441
000110 41 43 b2 bb 8b 2d b5 bb 8b 85 1b ba 1e 81 69 bc
       -0.005440146 -0.005529111 -0.000593268 -0.014251975
000120 98 66 4d bb e0 cb 98 bb 8b 0e 45 bb 2d c4 75 bc
       -0.0031341668 -0.0046629757 -0.0030068483 -0.015000385
000130 6a a5 ad b9 1a c5 fd ba 37 fb 5d ba bc bf 15 3c
       -0.00033120374 -0.0019361109 -0.0008467915 0.009139951
000140 e3 ab 54 3a 58 83 f4 bb 8f 18 64 bb bb 80 23 bc
       0.00081127713 -0.0074619465 -0.0034804677 -0.009979422
000150 bc c0 23 bc 60 f3 57 3c b1 49 8a bc 30 19 a4 bb
       -0.009994682 0.013180584 -0.016880842 -0.0050078854
000160 9b 12 17 bc 1d 92 4f ba dd c9 0b bc 23 d1 3a bb
       -0.0092207445 -0.0007918196 -0.008532015 -0.0028506003
000170 0d 4f ac bb eb f1 fa bb 4a bf 66 bc 66 25 46 bb
       -0.005258447 -0.0076582334 -0.014083693 -0.0030234694
000180 50 cc 9d bb 6b 2e 86 3b 47 a1 32 bb 8e d8 b5 3a
       -0.0048156157 0.004094889 -0.0027256773 0.0013873742
000190 12 45 ef bb 87 89 6a b8 90 84 9e 3c 43 52 87 bb
       -0.007301935 -5.591803e-05 0.01935032 -0.0041296794
0001a0 c9 48 32 bc ef 53 51 bc a0 8f 40 bc 54 bd ba ba
       -0.010881611 -0.012776359 -0.011752993 -0.0014247098
0001b0 db 01 79 bc 89 cc 14 bc 05 04 00 ba e3 d3 4d 3a
       -0.015198196 -0.009081968 -0.00048834115 0.0007851703
0001c0 40 b7 6d bc dc 5a 8a ba 1b a0 e2 bb db 6e 17 bb
       -0.014509022 -0.0010555643 -0.0069160587 -0.0023106846
0001d0 b0 54 29 bc a1 22 83 ba 83 31 90 bb ef 05 cd 3a
       -0.0103351325 -0.0010004827 -0.0044004335 0.0015642027
0001e0 c1 7f 39 bc e0 3b b3 bb 86 f7 bc bb da 99 a9 bb
       -0.011321963 -0.005469784 -0.005766812 -0.0051758112
0001f0 b5 ef 24 bc 8c f6 58 bb 8d 5c 1c ba a2 6d 43 bb
       -0.010066916 -0.0033105938 -0.0005964719 -0.0029819985
000200 ae 91 2a ba 5d 46 a1 b9 2f 6d b6 3b 9b 16 4e ba
       -0.00065066933 -0.00030760738 0.005567215 -0.0007861645
000210 92 dd 89 bc 88 25 1c bd 55 f4 93 bc bd c7 5d be
       -0.016829286 -0.03812173 -0.018060843 -0.21658225
000220 cf a8 c9 bb 88 6d fe bd dc 17 38 3c c5 b9 b2 bd
       -0.0061541568 -0.12423235 0.011236157 -0.08726839
000230 1b d3 cc bd 81 db 5c bd 75 45 52 bc 80 e5 ca bc
       -0.10001203 -0.053920273 -0.012833943 -0.024767637
000240 91 7e e0 bb 3b 27 08 be 22 1d a4 bb bb 89 64 bd
       -0.0068510254 -0.13296215 -0.0050083557 -0.055795413
000250 a9 d5 e9 bd 6e b6 0e 3c f5 06 6d bd 55 44 b4 bd
       -0.114177056 0.008710487 -0.057867963 -0.08802096
000260 f2 a1 34 be 2e 1b 12 be 57 a8 49 bb 7f ab fe bb
       -0.17639902 -0.1426818 -0.0030770504 -0.007771909
000270 d1 87 c4 3a 6b c4 34 3a 66 f8 af bd 50 b7 32 bb
       0.001499409 0.00068957236 -0.085923 -0.0027269907
000280 6d 5f b6 bc 34 ee e9 bd 34 c8 8c 39 2a 06 82 ba
       -0.0222623 -0.11422387 0.00026852044 -0.000992005
000290 ff 75 4e 3b 05 19 61 bd fa 82 9f bd 14 36 1c 39
       0.0031503437 -0.0549555 -0.07788654 0.00014897465
0002a0 bb 42 d2 bb 5e ff 61 3c e2 27 95 bb 2a 20 38 bd
       -0.0064166463 0.013793794 -0.0045518735 -0.04495255
0002b0 98 c3 0a be c1 d6 5d 3b 91 ab e3 bd 38 d5 bf ba
       -0.13551176 0.0033849927 -0.11116708 -0.0014635688
0002c0 05 2b ba bd 13 4d 84 3b 5a ae 08 3b 9b b4 b0 3a
       -0.090902366 0.0040375083 0.0020855875 0.0013481559
0002d0 a1 71 d8 bd 15 4f 12 be 88 56 22 bb 23 64 f2 bd
       -0.10568548 -0.1428798 -0.0024770815 -0.11835506
0002e0 2f f1 9b bd 43 7d 01 be 47 51 41 bd 70 8b 1e be
       -0.076143615 -0.1264544 -0.047196653 -0.15482879
0002f0 9a 82 3d bd 4c 04 fe bc 25 a5 d3 ba 51 bc 36 be
       -0.04626713 -0.031007908 -0.0016147239 -0.17845275
000300 4f 9f 72 ba 1c 4e 0a be 38 c4 19 be f4 d9 bd bc
       -0.0009255306 -0.13506359 -0.15016258 -0.023175217
000310 b3 f4 9d bc ab 03 34 be 8c 1f 0d be d8 c7 50 be
       -0.01928172 -0.17579524 -0.13781565 -0.20388734
000320 76 9b 7d bb 15 59 c4 bc 38 59 67 3b 3b d9 fd bd
       -0.0038697398 -0.023968259 0.0035300981 -0.12394949
000330 25 8a 61 3a 8c dd 4b 3b 21 95 27 3a 5c ab 29 be
       0.0008603654 0.0031107394 0.00063927664 -0.16569275
000340 fc db 1c be 7a 0d 88 bd 2c bf 43 bd 68 76 cd bd
       -0.15318292 -0.066431955 -0.047789738 -0.1003235
000350 b6 bf ba bd 2e fe fb bd 53 d6 29 be 63 b2 24 bc
       -0.09118597 -0.1230434 -0.16585664 -0.010052296
000360 ba 6a 25 be af 90 87 3b 8c 12 2f bd 64 ea 33 bd
       -0.16153994 0.0041371207 -0.042742297 -0.043924704
000370 00 89 a2 bb 01 71 1f be 3a 0f 27 be 3e 91 15 be
       -0.0049601793 -0.15570451 -0.16314402 -0.14606187
000380 36 09 78 bc a0 09 41 be 24 49 06 bb f7 12 de bd
       -0.015138915 -0.18851328 -0.0020490373 -0.10843461
000390 0c 61 33 bd 2b 5a 8f 37 d3 8e 7c 3c 08 60 c9 bd
       -0.043793723 1.7088916e-05 0.015414911 -0.0983277
0003a0 ca 41 15 be e0 64 bf bd ab 43 05 be 41 7d a8 39
       -0.14575878 -0.09345412 -0.13014095 0.00032136778
0003b0 25 9f f0 bd da 55 aa bd 88 8d 8a 39 d7 d0 1c 3b
       -0.117491044 -0.08317156 0.0002642686 0.002392819
0003c0 4c b0 0d be 54 2f 0e be e8 0f 11 bd eb 4f cd bd
       -0.13836783 -0.13885242 -0.03541556 -0.10025009
0003d0 5c 9d 11 be 98 ee bc bd 56 b0 24 bd c5 90 f1 3b
       -0.14220184 -0.09225196 -0.04020723 0.007371994
0003e0 05 53 9d bd 9f 3a 0c bd 9d 0d 4c bd 5b ad e8 bd
       -0.0768185 -0.034235593 -0.04981767 -0.1136119
0003f0 ee 34 d6 bd d9 29 cb 37 23 b1 97 3a ea 8e fb 3b
       -0.10459314 2.4218973e-05 0.0011573177 0.007676949

linear2.weight f4 [2, 128]
000000 2d 0c 07 bd 7f 26 f7 3c a1 3e 89 bd f1 a3 ca bc
       -0.032970596 0.030169724 -0.06701399 -0.024736376
000010 9c 23 00 3e 2b 46 1d 3e c9 f4 09 3e b1 90 f2 be
       0.12513584 0.15358798 0.13472284 -0.47376016
000020 85 f4 d1 3d 78 bc b3 be 58 f4 4c 3d b9 4c 88 be
       0.102517165 -0.35104728 0.05003771 -0.26621035
000030 e5 75 97 be 1d c5 45 be fe 32 fc bd e9 9a 39 3e
       -0.29582134 -0.19313474 -0.123144135 0.181255
000040 0d 95 e2 bd ce 9c c6 3e 91 fd 6d 3d 11 a8 8f 3e
       -0.110635854 0.38791507 0.058103148 0.28057912
000050 35 09 a6 be 19 78 72 3b 52 9c 5d be 5e 93 95 3e
       -0.324289 0.0036997853 -0.21641663 0.29213995
000060 eb 3b d2 3e 2d e4 b7 be 25 64 40 bc 52 a1 b5 3d
       0.4106134 -0.35916272 -0.011742626 0.0886866
000070 56 62 82 bd ee 55 3d 3c 1b 5e 7a be 05 b8 12 bd
       -0.06366412 0.011556132 -0.24449961 -0.035820026
000080 fe e5 eb bd ee ab 9e be 4c 42 1e bc 1f 7c 11 3d
       -0.11518477 -0.30990547 -0.009659361 0.03551876
000090 ef 40 c0 3d 34 b7 28 3e 08 27 a5 be 45 43 d9 3b
       0.09387385 0.16476136 -0.3225634 0.0066303336
0000a0 8b 4f b5 3d 2c bc dc 3d ee 77 7e bd d4 44 68 3e
       0.08853062 0.107780784 -0.062126093 0.22682506
0000b0 f3 11 ad 3e 56 e9 23 bd 01 60 ad be 06 3e 7a 3d
       0.33802757 -0.04001745 -0.33862308 0.061094306
0000c0 58 8c 6c be 36 1c 28 bd c7 82 0d 3d 15 fa 4c 3b
       -0.23100412 -0.04104253 0.034548547 0.003127699
0000d0 61 9d bf 3e ae 63 b3 be 88 1f d5 3d db 86 b3 be
       0.37424758 -0.35036987 0.10406405 -0.35063824
0000e0 19 1a 86 3e d3 48 d0 be 55 16 40 be 61 4c ca 3e
       0.26191786 -0.4068056 -0.18758519 0.39511397
0000f0 b1 6f 44 be 32 32 1b be 54 1a 17 3d bd 9d c2 3e
       -0.19183232 -0.15155867 0.036890343 0.3801097
000100 2e ba 54 bd 74 ed a8 be 4d 15 c6 be d1 82 14 3e
       -0.051935367 -0.32993662 -0.38688126 0.14503027
000110 0e 87 0f 3e 6e e4 ad be bf 7a b9 be ed b7 e3 3e
       0.14016363 -0.3396334 -0.3622646 0.44476262
000120 2f 85 7d 3d 5a ae 36 3e 45 d3 ca bd b9 31 a8 3e
       0.061894592 0.17839947 -0.09903578 0.32850435
000130 8e 85 af b9 18 62 1d 3d ea 16 4c 3b 25 31 d6 be
       -0.00033478107 0.038423628 0.0031141588 -0.4183437
000140 f7 ba bd 3e 4d c7 76 3e 0a 54 68 3e 68 5d 7f 3e
       0.37056705 0.24099465 0.22688308 0.24937975
000150 52 d1 95 3e 13 54 cd be 30 70 d3 be 4f 8b f7 3d
       0.2926126 -0.40103206 -0.4129653 0.12087118
000160 a1 32 dd be 95 3f ad bb 70 1e 3d 3e 0c f6 5e be
       -0.4320269 -0.0052871206 0.18468642 -0.21773547
000170 68 7f 94 3d 81 ea b1 3e a3 37 cf 3e 2f 3b bd 3e
       0.07250863 0.34749225 0.40472135 0.36959216
000180 b9 59 20 be c2 3f d0 be ba 0b 6d bd 5a b8 a8 be
       -0.15659226 -0.40673643 -0.05787251 -0.3295315
000190 7e b4 4c 3e ac 1d 9a bc ac 0a 86 bd 16 7a a2 be
       0.19990727 -0.018812977 -0.06545004 -0.3173377
0001a0 73 f4 d7 be ca 80 81 be 6e 7a 9c be 91 8a dd bc
       -0.42178687 -0.2529357 -0.30562156 -0.027043613
0001b0 3c bb a0 3e bf 0d 8f 3e ab ed ec bc 3c f6 85 3d
       0.31392848 0.27940175 -0.028921923 0.06541106
0001c0 08 fc bd 3e 0b a7 be be 45 65 2b 3e 44 db 89 be
       0.37106347 -0.3723682 0.1673785 -0.269251
0001d0 18 bf a8 3e 76 dc b2 be c5 77 20 3e 46 85 76 bd
       0.32958293 -0.34933823 0.15670688 -0.060185693
0001e0 b6 f2 85 be 2e 64 3a be 44 c0 60 be 31 09 9b be
       -0.26161736 -0.18202278 -0.21948344 -0.3028045
0001f0 4c f2 88 3e 67 4c 85 bd 06 f1 4b bc d7 86 6f 3d
       0.26747358 -0.06508713 -0.012447601 0.058478203
000200 e0 87 b2 bd d7 69 08 bd e3 b4 d5 b9 18 57 44 bc
       -0.08717322 -0.03330406 -0.00040761297 -0.011983655
000210 a2 36 1d be 69 a6 60 be 40 53 e9 bd 5e da e6 3e
       -0.15352872 -0.2193848 -0.11392832 0.45088476
000220 dc 2e 8d bd 92 97 ba 3e 99 bd 0a be e0 79 9b 3e
       -0.06893703 0.36443764 -0.13548888 0.3036642
000230 42 51 b2 3e a4 9c 62 3e d1 8d c2 3d 53 bb 2f be
       0.3482762 0.22130066 0.094997056 -0.17161302
000240 07 93 c0 3d a1 d4 c2 be 69 3b ed bd 22 2c 74 be
       0.09403043 -0.38052848 -0.11583597 -0.2384496
000250 b2 0e b9 3e e6 82 de 3d 00 49 6a 3e b9 45 94 be
       0.36144024 0.10864811 0.2287941 -0.28959444
000260 5b 03 fa be 98 b9 d6 3e 12 c9 a9 3d 32 70 18 be
       -0.48830685 0.41938472 0.08290304 -0.14886549
000270 20 95 f9 ba 79 b0 33 3d 36 40 8e 3e b6 23 95 3d
       -0.0019041635 0.04386947 0.27783364 0.07282202
000280 39 3f e6 3d 08 45 c4 3e b3 c6 87 b9 f4 af ba 3c
       0.112425275 0.38333917 -0.0002589725 0.02278898
000290 f8 d2 8d bd fa 09 46 be 5c cf 90 3e 68 f2 78 bc
       -0.06925005 -0.19339743 0.28283203 -0.015194513
0002a0 31 d0 65 bd 24 42 ca bd fa c1 b8 3d 6c 58 34 be
       -0.05610675 -0.098758966 0.09021373 -0.17611855
0002b0 f3 fc b2 be a8 c1 31 3d 06 9c ae 3e c2 58 51 bd
       -0.3495861 0.043397576 0.3410341 -0.051110037
0002c0 5e 9c 8c 3e 52 70 a4 bd 19 66 e1 bc a2 ef 74 3d
       0.2746305 -0.08029236 -0.027514504 0.059798844
0002d0 2c d7 94 be 70 31 cc 3e 91 c0 96 bd 2b 46 a7 3e
       -0.29070413 0.39881468 -0.07360948 0.3267072
0002e0 f2 3b 83 be ca 36 b7 3e c1 98 26 3e 83 68 d0 be
       -0.25631672 0.35783988 0.16269208 -0.40704736
0002f0 38 23 58 3e 97 17 3d 3e 54 fb 42 3b 60 a3 e1 be
       0.21107185 0.1846603 0.0029751854 -0.44069958
000300 ab 69 5f bc 2b 0e ba 3e 46 da c7 3e 86 dc fb bd
       -0.013636033 0.36338934 0.39033717 -0.12297921
000310 1b 47 15 be 3a fb c9 3e 54 b1 c8 3e fe 61 e6 be
       -0.14577906 0.39449483 0.3919779 -0.44996637
000320 1b c3 9d bd cf 54 fe bd a1 94 59 3d 7c e0 b1 be
       -0.07703229 -0.1241852 0.05312026 -0.3474158
000330 92 96 23 bc 28 21 46 bd ee eb 11 3d f9 90 ea 3e
       -0.009984629 -0.048371464 0.03562539 0.4581373
000340 65 0c b9 be c7 5a 50 be b0 b0 7a be e1 77 9c be
       -0.3614227 -0.20347129 -0.24481463 -0.3056021
000350 f8 0e 9f be 2a 1f c8 3e 46 1b b3 3e 32 15 cd bd
       -0.31066108 0.39086276 0.34981745 -0.10013808
000360 34 f8 d6 3e 5f 6b 76 bd c8 b7 29 be 7d 08 18 3e
       0.4198624 -0.06016099 -0.16574013 0.14846988
000370 e4 60 07 be 92 d7 d1 be 0a e4 d3 be a0 dd c6 be
       -0.13220555 -0.4098478 -0.41384917 -0.3884096
000380 c9 51 f6 3d 29 e2 da 3e 1d be 8b 3d ec 7b ad 3e
       0.12027318 0.42750672 0.068233706 0.33883607
000390 9c f3 68 be 1a 5e 43 bc 69 70 b0 bd 6a e7 90 3e
       -0.2274918 -0.011924291 -0.086151905 0.28301555
0003a0 23 d7 af 3e af eb 7a 3e 76 07 92 3e 23 f6 d0 3c
       0.34343824 0.24503969 0.28521317 0.025507992
0003b0 ad 17 ab be e7 5e 77 be d1 1f ea bc 41 48 8e bb
       -0.334165 -0.24157296 -0.028579624 -0.0043421094
0003c0 80 65 c2 be ec f2 b9 3e 53 d3 28 be bd a3 7f 3e
       -0.37968063 0.36318147 -0.16486864 0.24964805
0003d0 50 46 c1 be 88 e2 99 3e f5 c8 0e be 60 57 2c bc
       -0.37748957 0.30055642 -0.13943847 -0.010518879
0003e0 f3 4c 94 3e d7 e7 36 3e 7d 00 5f 3e a1 20 a0 3e
       0.28964958 0.17861877 0.2177753 0.31274894
0003f0 7e 9c 8b be 10 76 94 3d 8c d1 71 bc 7f b7 8d bd
       -0.27267832 0.07249081 -0.0147594325 -0.06919765

linear2.bias f4 [2]
000000 95 3b 99 bd 32 6f eb 3d
       -0.074820675 0.11495818

linear1.weight f4 [20, 10]
000000 9d 4b 20 be 69 e4 81 3e 93 cc 98 3e 86 4e a1 be
       -0.15653844 0.25369576 0.29843578 -0.3150522
000010 9a a3 31 be 5c 9a 1b 3e 97 2c 76 be 02 81 69 be
       -0.17347565 0.15195602 -0.24040447 -0.22803119
000020 ac 4e 2b 3e 06 a9 80 3e a3 5d 82 3c 20 ae 82 bd
       0.1672923 0.25128955 0.01591379 -0.06380868
000030 e2 8a 82 3e 24 c9 c6 3e ca 63 c4 3d cb 30 ab 3e
       0.25496584 0.38825333 0.09589346 0.33435664
000040 1b ac c0 be c8 41 1d bb 6d 77 a3 3d 4f 73 50 3e
       -0.37631306 -0.0023995508 0.07981763 0.20356487
000050 96 79 72 3e aa 08 89 3d cd 15 e7 bd 1e 14 a0 3e
       0.23679194 0.06691106 -0.11283455 0.31265348
000060 4a 95 33 bd ae 52 9e be 72 55 d2 be 9d 3c 9c be
       -0.043843545 -0.30922455 -0.41080815 -0.30514994
000070 c5 e4 a8 bd 4f 8e 9d 3e b0 e7 e7 3d a1 0b a1 be
       -0.08246759 0.30772635 0.11323488 -0.31454185
000080 58 73 30 be 1e 6d 5e 3d 2f ca a7 3c cb 8d 1a bd
       -0.172315 0.05430328 0.02048215 -0.03773288
000090 51 60 23 be 67 38 b0 3e dc 68 9e be 0b d4 ca 3e
       -0.1595471 0.34418032 -0.30939376 0.396149
0000a0 53 23 f4 3d 75 2d 9d be 5f 7c ca 3e 4d 6a 50 3c
       0.119208 -0.30698743 0.39548013 0.012720657
0000b0 5c 12 e6 3d 2f 6c 93 be 7e 84 1f 3e a3 ac a0 3e
       0.112339705 -0.28793475 0.15577886 0.3138171
0000c0 a1 06 a6 be c2 0c d8 bd ea 90 58 bd e1 39 a7 be
       -0.32426932 -0.10549308 -0.052872576 -0.32661346
0000d0 2d 06 98 3e c5 29 a6 be 62 1e 5d be c6 24 6e 3c
       0.29692212 -0.32453743 -0.21593621 0.014535135
0000e0 bd 6a 48 be ca 60 96 3c 0e 06 e0 bd bb aa 8a be
       -0.19571967 0.0183567 -0.10938655 -0.27083382
0000f0 60 b0 68 3e 26 a0 f4 3c 20 14 db bd eb 7b f8 be
       0.22723532 0.029861521 -0.10697198 -0.48532042
000100 4d 49 05 be 87 d3 ba 3d ad 2b d5 bd 40 7f af 3e
       -0.13016243 0.09122377 -0.10408721 0.34276772
000110 0b 41 89 3e be 54 80 be 9c 7c 97 be d9 27 91 bd
       0.26807436 -0.25064653 -0.29587257 -0.070876785
000120 26 c1 11 be 76 ae 84 be 13 d3 ba 3e 10 31 9b 3e
       -0.14233837 -0.25914353 0.36489162 0.3031087
000130 8b 0b d0 3e a3 27 0b be 29 f9 92 3d 6f 4f dc bd
       0.40633807 -0.13589339 0.0717643 -0.10757338
000140 95 b6 eb 3e 62 52 6a bd de 91 73 3d 70 e7 e3 bd
       0.46037737 -0.057207473 0.05946528 -0.111281276
000150 51 6d 12 bd b5 bf 63 3d 70 ad 46 be af 34 89 3e
       -0.035748783 0.055602748 -0.19402099 0.26798007
000160 35 e7 92 3e f9 2d c4 bc 75 dc 40 3e c1 a1 46 3e
       0.28692022 -0.023947703 0.18834098 0.19397642
000170 c1 49 97 bd 76 e6 57 bd 37 c5 57 3e 6f b0 f5 3e
       -0.07387114 -0.05271002 0.21071325 0.4798617
000180 a8 89 61 be ae 5b 25 bd d7 c7 6e 3e 91 ca 62 bd
       -0.22025168 -0.040370636 0.2331842 -0.055368964
000190 de be cf 3e c8 d9 4e 3d 35 82 5c 3e d2 82 50 be
       0.40575308 0.05050066 0.21534045 -0.20362404
0001a0 24 11 a4 bd f3 28 de bb fe 6e 5c be de 3d 02 3e
       -0.08011082 -0.006779784 -0.21526715 0.12718913
0001b0 ae d2 cb 3d 65 4b 8c 3e 9e ef 03 be ec 9b 93 be
       0.09952293 0.2740127 -0.12884375 -0.28829896
0001c0 ee 0e 54 be 99 3d 9a 3e df 94 83 3e 73 96 47 3e
       -0.2070882 0.3012512 0.25699517 0.19490986
0001d0 ba a1 b6 bd 6a e7 22 3e f8 26 a6 bd 51 96 e9 be
       -0.08917566 0.1590859 -0.081129014 -0.45622495
0001e0 2a 9f 4e 3e 6e b0 a5 3d a4 d6 b6 3e a4 01 3d bd
       0.20177904 0.08090292 0.35710633 -0.046144143
0001f0 19 95 1a be 85 1f 39 3e 1c 7f 47 be 36 f0 88 be
       -0.15095939 0.1807843 -0.19482082 -0.26745766
000200 f6 37 a4 be 82 53 41 bd b9 5f ca bd b9 d6 00 3e
       -0.32073945 -0.04719878 -0.09881539 0.1258191
000210 ad 52 0c bd 5a 3b 0b be 0e e9 9a 3e 64 9c 7b 3d
       -0.034258533 -0.1359686 0.30255932 0.061428443
000220 9c 46 cc bd 62 74 80 3e 3f e6 83 3e 1e 77 34 3e
       -0.09974405 0.25088793 0.257616 0.17623565
000230 d1 93 fd 3e 27 ea 1e be d4 76 86 bd c6 8b 7c 3e
       0.49526837 -0.1551901 -0.065656334 0.24662694
000240 b5 40 9a 3d b7 38 06 3e 06 2a bd bd 2b 81 10 3e
       0.07531873 0.13107572 -0.09236531 0.14111774
000250 a0 72 a7 bb 1c c8 50 3e 24 17 ce bd 08 30 a2 bd
       -0.0051101 0.20388836 -0.100630075 -0.079193175
000260 97 83 dd be e5 1a ca bd 8f ea ca 3c b1 a6 4f 3d
       -0.43264458 -0.09868411 0.02477005 0.05069608
000270 ef 88 5c be 9b 8f 98 be 6a d4 68 be a8 1f 73 be
       -0.21536611 -0.29797062 -0.2273728 -0.23742545
000280 74 e5 59 bd 82 38 8e bc cb dc b5 be bf 47 68 be
       -0.05319734 -0.01736093 -0.35520014 -0.22683619
000290 8f 3c ba bd d6 03 76 bd 84 10 af be dd 3d 28 3d
       -0.09093582 -0.060062252 -0.34192288 0.041074622
0002a0 28 2a 87 be 51 5f 99 be cd 52 4e 3e 7d 6f 72 bd
       -0.2639935 -0.29955533 0.20148773 -0.059188355
0002b0 fa ac f1 3e b4 c8 e9 bd fb 8f 0c be ca 98 d8 be
       0.47202283 -0.11415234 -0.13726799 -0.4230407
0002c0 6e c4 ed 3d 4e f4 21 3e 65 d4 fa bd 17 23 54 3c
       0.116097316 0.15815851 -0.12247542 0.012947819
0002d0 61 01 6a 3d 9e c2 6e 3d 0d 3d 5d 3d e0 3a 16 bd
       0.05713022 0.05829107 0.0540133 -0.03667724
0002e0 cf 1b 2b be 52 09 9d 3e 5c bc dd 3e d6 e8 7f bd
       -0.16709827 0.30671173 0.4330777 -0.06247791
0002f0 71 c0 f0 bc 45 8f 15 be 0f ac ad 3e de e2 20 be
       -0.029388638 -0.14605434 0.33920333 -0.15711543
000300 83 40 a0 be f6 b5 98 be b7 20 65 3d 36 31 58 3d
       -0.3129922 -0.29826325 0.055939402 0.052781306
000310 f6 26 a7 3e 0a b8 70 be 4f e3 89 bd 8c c3 f8 3e
       0.32646912 -0.23507705 -0.06732809 0.4858669

linear1.bias f4 [20]
000000 ac 46 4a bd 03 83 fd bd 9d 4f 2f be 20 94 84 3e
       -0.049383804 -0.12378504 -0.17120214 0.2589426
000010 1a e4 c4 bd d9 99 98 be 59 80 c2 3c 92 aa 60 3d
       -0.096138194 -0.29804876 0.023742842 0.05485017
000020 79 c7 96 be 50 52 d8 be 0c 0b 91 3c e2 13 4f 3e
       -0.2944906 -0.422503 0.017705463 0.20222428
000030 94 1a ee 3e d8 28 31 3e 74 f9 eb 3c b8 98 ac be
       0.46504653 0.17300737 0.028805472 -0.33710265
000040 e6 0a 15 3e 08 fc 98 3c 6f f7 cd 3e 7b 13 0f 3d
       0.14554939 0.018674865 0.4022784 0.034930687
