model_parameter/sine_pretrained_GRU.pth (torch, 210128 bytes, 8 tensors)

gru.weight_ih_l0 f4 [384, 4]
00000000: d5cb 29be 6db3 a5bd 39e3 32be d702 2fbe
00000010: adec 33be d9ea bebd f21f 29be 9bef 52be
00000020: 9842 70be 2984 fcbd 9326 59be ba1f 89be
00000030: 1f34 193c 109b a43b 97b7 8b3c 6c19 673c
00000040: 23d3 393c 8109 023c 61d2 4a3c b420 6c3c
00000050: 8145 2cbe a9bd b5bd cbc3 21be eede 46be
00000060: ee98 3c3c 2f27 c33b 50ca 633c 0e1a 443c
00000070: 4fe5 3cbe 542c c4bd 95fa 22be f641 50be
00000080: 9df6 72be 9b55 f3bd f569 63be de5f 8dbe
00000090: 88ec 9ebd b8d8 19bd 9b82 afbd e900 a5bd
000000a0: b9a4 43be 69e3 babd 4764 28be e02d 73be
000000b0: cd3b 09be 63df 14bd 1039 b7bd 059f b4bd
000000c0: ffa4 21be 66b7 7bbd 88d8 0abe 412d 12be
000000d0: 47f0 0abc 418e 2ebb b881 38bc b743 e1bb
000000e0: fce6 2dbe e45a c3bd edf1 10be bc06 67be
000000f0: 26e9 6b3c 5b7e f63b 96a9 883c 411c 8c3c
00000100: 44e7 1bbe 9a4f a7bd d238 11be fa61 66be
00000110: 63d5 25be 4c8e d0bd baf0 3fbe 5c05 69be
00000120: 880f 22be 96a8 acbd ab15 0ebe 9413 45be
00000130: 1fce f4b9 9e4c 1eba 7e97 37ba c99e e1b9
00000140: 834c 89be db2e f7bd a828 63be a381 95be
00000150: 04af aebd 4b51 1ebd 5a56 bbbd 8bde afbd
00000160: 4f9c 26be 3bd9 b9bd 1fca 19be 4966 44be
00000170: 0bd1 ddbc 2de3 383b 6491 16bc d1ee edbc
00000180: 0a0a 193c 7148 973b 816b 2c3c d873 363c
00000190: 3c3d 4dbe 7c58 e5bd a4f7 1dbe a513 70be
000001a0: 9d55 92bd 6841 b5bc f7ab 85bd 2f0a 91bd
000001b0: c504 aabc a87b 0d3b 3375 61bd 614c 08bd
000001c0: 0096 21be b852 a7bd 712f 03be 4891 2cbe
000001d0: 0243 7ebd d121 07bd 1e48 80bd 42ea 8ebd
000001e0: 117d 3fbe 57fa b7bd 65d1 1dbe 9a92 4cbe
000001f0: ce1c 34be 3a45 c9bd d607 28be 515b 43be
00000200: fb0e 18bd dbf5 26bc 5e2d 0bbd 38e8 10bd
00000210: c165 24be e3cd a2bd c533 28be 7f98 2fbe
00000220: ab03 05bc 2fc8 98bb d0d8 0abc 3a25 19bc
00000230: 3705 f43c 4393 573c eda6 083d 9ab6 173d
00000240: 8b14 b9bd b34a 2dbd f45f c2bd 091d c0bd
00000250: cb1f 57be 67ad ddbd c380 4abe 3554 73be
00000260: db90 2abe 8872 c0bd 4cd7 30be a24a 32be
00000270: b871 9d3c 8012 383c 23cc b23c 81ae c23c
00000280: d260 4abe 81f7 d2bd 7820 24be e174 69be
00000290: 20b1 64bd cece 893b 3b89 afbd e448 d4bd
000002a0: cb47 47be 6ab9 f3bd 08ef 5ebe 51c2 88be
000002b0: ba3c 3e3c 7f95 013c 1aea 533c 5f2f 793c
000002c0: 233a 11bc 3214 6abb 554f 40bc e9fa f1bb
000002d0: a658 83bd 3505 b4bc 28a9 dfbc f2e2 4bbd
000002e0: baea f8bc c192 cebb cea1 9cbc 8381 40bd
000002f0: a20a 523c bc4d dc3b b15e 7c3c 1e18 603c
00000300: c82e 193c bd4d a13b bee8 3a3c 95d9 1b3c
00000310: 9ad1 ebbd 8d06 66bd da3b f5bd 3844 01be
00000320: 1d46 53be 6387 e9bd 1004 6dbe 512c 58be
00000330: aed5 47be 5286 d8bd 8551 29be d480 6dbe
00000340: 4eee ccbd 9d58 3cbd 1fc4 c0bd 3f18 d7bd
00000350: 6602 563c 584a 8e3b eeb1 683c 73ea 8b3c
00000360: 65be 8ebc 7dce 50bc 062a 99bc 6942 9dbc
00000370: 7b1f 45bb 969c 833b e6b7 843b 0359 08bc
00000380: ed21 b0ba 6215 933b fcc8 203c 18b8 003b
00000390: cb41 b7bb 6d25 78ba 5573 06bc 9417 4dbb
000003a0: 1cd1 03be 50d0 92bd 1e94 edbd 6431 18be
000003b0: f5eb 9fbd 0f5b 23bd 0fd0 01be 91eb 02be
000003c0: 85c6 8b3d a023 303c 325d 9f3d 7f74 6d3d
000003d0: 4f47 293c 7ab0 b63b aaab 423c 1a2c 423c
000003e0: c493 46bb 2ae1 0fbb d161 95bb a359 60bb
000003f0: fdc5 f5bd b41c 7dbd 6765 cebd a4b0 1ebe
-0.16581662 -0.080908634 -0.17469491 -0.17090927 -0.17570753 -0.093221374 -0.16516092 -0.20599215
-0.23462903 -0.12329895 -0.21206121 -0.26782018 0.009350806 0.0050233677 0.017055316 0.014105182
0.011341843 0.007936836 0.01237926 0.014412094 -0.16823389 -0.088740654 -0.15797345 -0.19420978
0.011511071 0.005955599 0.0139032155 0.011969103 -0.1844685 -0.095787674 -0.15915902 -0.20337662
-0.23726888 -0.11881562 -0.22208388 -0.27612203 -0.077599585 -0.037560195 -0.08569833 -0.08056814
-0.19105805 -0.09125406 -0.16444503 -0.23747969 -0.13401718 -0.03634585 -0.08946431 -0.08819393
-0.15785597 -0.0614542 -0.13559163 -0.14275075 -0.008480138 -0.0026635083 -0.011261396 -0.0068745273
-0.16982645 -0.095388204 -0.14154787 -0.22561163 0.014398849 0.007522387 0.016682427 0.017103316
-0.1522494 -0.0816948 -0.14181831 -0.22498313 -0.16194682 -0.10183391 -0.18744174 -0.2275595
-0.15826237 -0.08430593 -0.13875453 -0.1924575 -0.0004669288 -0.00060386385 -0.000700347 -0.00043033648
-0.26816186 -0.12069484 -0.22183478 -0.29200467 -0.08529475 -0.038651746 -0.0914733 -0.085873686
-0.16270564 -0.090746365 -0.1501851 -0.19179644 -0.027077219 0.002821158 -0.009189937 -0.02904454
0.009340772 0.00461679 0.010523678 0.011136018 -0.2004289 -0.11198518 -0.15426499 -0.23444994
-0.07145236 -0.022125915 -0.0652694 -0.070820205 -0.020754227 0.0021588597 -0.05504341 -0.033275966
-0.15779877 -0.08170074 -0.12811066 -0.16852295 -0.062075622 -0.032991234 -0.06263755 -0.06978275
-0.18700053 -0.089832954 -0.15411909 -0.19977799 -0.17589113 -0.09827657 -0.16409239 -0.19077803
-0.03712366 -0.010190452 -0.033978812 -0.03537771 -0.16054441 -0.07949426 -0.16425999 -0.17148016
-0.00811855 -0.0046625356 -0.008474544 -0.009347254 0.029787643 0.0131576685 0.033362318 0.037039377
-0.090371214 -0.042307567 -0.09490958 -0.09380538 -0.21008222 -0.108240895 -0.19775681 -0.23762591
-0.1665682 -0.09396845 -0.17269629 -0.17411283 0.019219264 0.0112348795 0.021825856 0.02376485
-0.19763497 -0.10301114 -0.16028011 -0.22798492 -0.055832982 0.0042055612 -0.085710965 -0.10365465
-0.1946098 -0.11900599 -0.2177087 -0.26710752 0.011611158 0.007909178 0.012934232 0.015209048
-0.0088639585 -0.0035717604 -0.011737664 -0.007384647 -0.06413393 -0.02197514 -0.02730234 -0.04977698
-0.030385364 -0.0063041155 -0.019120123 -0.046998512 0.012819918 0.006723134 0.015403436 0.013677625
0.009349532 0.004922597 0.011408029 0.009512325 -0.11514588 -0.05615859 -0.119743064 -0.1262368
-0.20632215 -0.11402776 -0.23146081 -0.21110655 -0.19515106 -0.105724946 -0.16535003 -0.23193675
-0.100063905 -0.045982946 -0.09412407 -0.105026715 0.013062095 0.0043423586 0.014202578 0.017079568
-0.017424772 -0.012744543 -0.018696796 -0.019196706 -0.0030078578 0.004016469 0.0040502427 -0.008322003
-0.0013437845 0.004488633 0.009813543 0.0019640978 -0.00559256 -0.0009466026 -0.008206208 -0.0031294571
-0.12872738 -0.07168639 -0.11600517 -0.14862591 -0.07808677 -0.039881762 -0.12677024 -0.12785174
0.06824974 0.010750681 0.077814475 0.057972427 0.010331943 0.005575237 0.011881748 0.011851335
-0.0030300478 -0.0021954277 -0.0045587798 -0.0034233115 -0.12000654 -0.06179495 -0.10077935 -0.1549707

gru.weight_hh_l0 f4 [384, 128]
00000000: 5485 0ebc 2293 203c dcc0 233c b6d3 df3c
00000010: 2b98 db3c 027e 32bc ca06 91bc 74b8 bc3b
00000020: 3819 e0bb 6734 9a3b 73a1 683a 0fe6 953c
00000030: 7882 b039 64ce 1abc 362f 15bc 664b b0bc
00000040: c06d 99ba 69bb 13ba 35c8 4e3b c39c 76bb
00000050: 6a82 aebb 1979 27bc 4b11 823b 17b1 cdbc
00000060: d717 ad3c db80 a13b 80cc 333c d1ba bc3c
00000070: 9796 61bb b85d 613c cff5 11bc 1b0d aa3b
00000080: d788 6cbc 981e 1a3c d822 11bb 284b 96bc
00000090: 10d1 0cbc b2f4 6fbb 524c 06bb dbd9 b9bc
000000a0: a2d3 bbbb 4fe2 a1bc d8fc fe3b d0f0 683c
000000b0: 024b 9cbc 8256 35bc f095 8c3c 6901 ae3c
000000c0: 4442 af3c 804f 273c 0bb3 74bb 2fb7 d9bb
000000d0: d1c2 473b 2363 1abc ab1f 7d3c 0008 ae3c
000000e0: d1df c03c 4788 63bc 604e e8bb 29d3 07bc
000000f0: 271a 54bc 4011 603c ebdc ad3a 61a0 26bb
00000100: 894e 0f3d 975b 9c3b 5533 d33a ced9 c3ba
00000110: 4a34 13bb 1559 a7bb 00a6 af3c 9b2a d1bc
00000120: 665d cabc 5197 213c 6b5b 1f3a 4ea3 303b
00000130: 9c18 b2bc 394a 7ebb 871f 153d dd91 14bc
00000140: 78de 09bc 9cc3 593c 05ed ebbc 1bb7 1a3b
00000150: bdbd bc3c e5cc 5d3c 20b3 243c 04b1 f7bb
00000160: a4f9 89bc d9b4 7a3c baa8 013c e0e2 3c3c
00000170: e947 e33b c16b a6bc 9a2f 1bbc 2232 89bb
00000180: 5b67 353c 61d9 053c b3b7 4d3c 6846 8e3c
00000190: f08b acbc 8c45 7fba 5c1e de3b 2b18 3f3c
000001a0: d45b c73c e3e5 bc3b 4d1d a3ba cf51 40bc
000001b0: ca58 94bc 62ec 8c3c 23f3 993c bbc6 cc3c
000001c0: 500b a13c 8e7f e83b 2661 c83c d3b1 d3bc
000001d0: a56d bbbc 17cd e1bc 514b a4bc 4062 e0bb
000001e0: f26b 733c 5297 413b 6ca7 91bb cbbf 853c
000001f0: 74cf 4a3c 0a70 563c 6d11 b83c d4b7 5fbb
00000200: 245e 19bc de49 2a3c 202f f33b 415a dc3c
00000210: 83e0 d33c 4457 46bc f3cb e8bc e74e d03b
00000220: edfa 55bb 34aa 893b 8913 f8ba 518e a93c
00000230: a2f6 a03b 29fa 7cbc a7cd 20bc 6210 d0bc
00000240: 081b e8b8 5a8d 05ba a52a 553b cbe5 9cbb
00000250: 9da9 f3bb 526d 32bc 04a3 863b 3893 d0bc
00000260: 2347 be3c 630b 943b 6300 563c c576 bc3c
00000270: 1aff 55bb 280d 4b3c aaa2 e3bb bb6d c03b
00000280: 40b9 83bc df13 cd3b e8b3 4bbb acdd b0bc
00000290: 0d39 34bc 8eae 5bbb a54d f0ba dcef b6bc
000002a0: ff45 c8bb 8b26 f4bc 48c6 053c c6f7 de3c
000002b0: 80ca acbc ad00 6abc 13de bd3c 634d f33c
000002c0: 27d3 c33c 3c1d 303c 76e8 69bb f8d2 19bc
000002d0: 5a2d 243c 0ea6 cebc fe51 453c b9ad ba3c
000002e0: 5b7d cd3c 9779 a2bc 9e4e e8bb 89da 2cbc
000002f0: 8f56 97bc f4ed cb3c 581e 113b 7d2d 9cbb
00000300: e6f7 e33c 2403 223b 5f28 d5ba 859a 0e3b
00000310: 2e42 b9bb 8236 f4bb 1c97 d63c f6af 5fbc
00000320: a812 dbbc 5881 d43c 5c71 293a a081 593b
00000330: 0b04 d6bc 617d 4fbb a44f b23c b118 31bc
00000340: 7fff 20bc 2982 953c d15e e7bc 5f0c 93ba
00000350: db95 ca3c 1ca1 b43c a4e1 7c3c 4fd1 06bc
00000360: 8a92 a0bc ac6e b03c 695c e43b a886 4a3c
00000370: 0061 323c e253 bbbc af0a 47bc 3b9a 93bb
00000380: b8ef 633c 78a2 973b 55f3 9b3c 722a a33c
00000390: 7be3 febc 53e8 943b 0304 0d3c 3f1c f43b
000003a0: 60f0 c03c 07ce cf3b 5ce1 40bb 72dc 50bc
000003b0: 6555 e9bc a47c 6d3c efcc aa3c 2472 e53c
000003c0: 5f6b e63c 06c4 cd3b 1a74 e53c 715d e9bc
000003d0: 268f c7bc db5f dcbc d3db b2bc 3ddb 26bc
000003e0: 0603 903c d240 223b fb1a 95bb cfaa de3c
000003f0: 1d51 873c 7a08 773c 8b61 ee3c f935 c8bb
-0.00869878 0.009800704 0.009994712 0.027322631 0.026805958 -0.0108943 -0.017703433 0.005759293
-0.006838944 0.004705954 0.00088741555 0.018298177 0.00033666543 -0.009448621 -0.009105494 -0.021520328
-0.0011705682 -0.0005635531 0.0031552438 -0.0037630058 -0.005325605 -0.010221743 0.0039693466 -0.025108857
0.021129532 0.004928691 0.01097405 0.0230383 -0.0034422034 0.013755254 -0.008908703 0.0051895506
-0.014436922 0.009406708 -0.0022146013 -0.018346384 -0.008594766 -0.0036614356 -0.0020492268 -0.02268689
-0.0057320157 -0.019761233 0.007781606 0.01421757 -0.019078735 -0.011067988 0.01716134 0.021240907
0.021393903 0.010211825 -0.0037338163 -0.0066441516 0.003048111 -0.00942305 0.015449445 0.02124405
0.023544224 -0.0138874715 -0.007089421 -0.008290091 -0.012945688 0.013675988 0.0013264691 -0.0025425183
0.034987006 0.0047716605 0.0016113321 -0.001494223 -0.0022461587 -0.005107055 0.02144146 -0.025533011
-0.024702739 0.009862737 0.0006078991 0.0026952806 -0.02174025 -0.0038801564 0.03640702 -0.00906798
-0.008414857 0.013291266 -0.028799543 0.0023607675 0.023039693 0.01353762 0.010052472 -0.0075589437
-0.01684267 0.0153019065 0.007913763 0.011528701 0.0069360626 -0.020315053 -0.009471798 -0.0041868845
0.011072005 0.008169503 0.012556004 0.017367557 -0.021062821 -0.00097378413 0.0067785215 0.011663477
0.02433578 0.0057647093 -0.0012444645 -0.011738255 -0.018108744 0.01720256 0.018792694 0.024997106
0.019658715 0.007095284 0.024460386 -0.02584163 -0.022879431 -0.027563615 -0.020055445 -0.00684765
0.014857279 0.0029539657 -0.004445007 0.016326806 0.012378562 0.013088236 0.022469247 -0.003413667
-0.009360824 0.010393588 0.007421389 0.026898505 0.025863891 -0.012105767 -0.028417563 0.006357062
-0.0032650784 0.004201198 -0.001892672 0.020697745 0.0049122134 -0.015440502 -0.009814656 -0.025398437
-0.00011067657 -0.00050946104 0.0032526639 -0.0047881356 -0.007435991 -0.010890322 0.0041087884 -0.025460824
0.02322728 0.004517959 0.013061616 0.023005852 -0.0032653273 0.012393273 -0.0069468813 0.005872456
-0.016079545 0.0062584723 -0.0031082574 -0.021590076 -0.01099993 -0.003352079 -0.0018333687 -0.02233117
-0.00611186 -0.029803535 0.00816495 0.027217757 -0.021092653 -0.014282388 0.023177182 0.029699987
0.023904396 0.0107491575 -0.0035691536 -0.009388678 0.010020578 -0.025225665 0.012043474 0.022787916
0.025084188 -0.01983337 -0.00708945 -0.01055015 -0.018473892 0.024893738 0.002214333 -0.004766165
0.027828168 0.002472111 -0.0016262642 0.0021759581 -0.005653641 -0.007452787 0.026195101 -0.013652792
-0.026742294 0.025940582 0.000646373 0.0033188835 -0.026124975 -0.0031660425 0.021766491 -0.01080911
-0.00982654 0.018250542 -0.028243454 -0.0011218897 0.02472966 0.02204948 0.015434656 -0.008228614
-0.019601125 0.021537147 0.006969024 0.012361206 0.010887384 -0.022867147 -0.012148543 -0.0045044697
0.013912134 0.004627522 0.019036928 0.0199177 -0.03111433 0.004544297 0.0086069135 0.0074496563
0.02355212 0.006341699 -0.00294312 -0.012747871 -0.028483102 0.014495049 0.020849673 0.028008528
0.02812737 0.0062794713 0.028009463 -0.02848694 -0.02436025 -0.026901176 -0.021833336 -0.010184106
0.017579567 0.0024757874 -0.0045503355 0.027181057 0.01651817 0.015077705 0.029099246 -0.0061099497

gru.bias_ih_l0 f4 [384]
00000000: 507e 0f3c 2684 aabc e25e f0bc d2b5 0b3d
00000010: 403f ae3c d0d4 0fbd 7a4b d93c e585 13bd
00000020: 1c95 0dbc 590b f7bc 2146 213d b603 823c
00000030: 82b1 173b 705d a1bc a1ea 84bc c120 d43c
00000040: 7aff 38bd 1731 493c a0f4 ccbc 6471 82ba
00000050: f73e 66b9 003f dd3c e321 74bc 694a 1d3d
00000060: 7981 933c bfc6 1dbc 3f73 0fbc 5716 fa3b
00000070: 1280 92bc 6864 00bd 8557 85bc d794 00bd
00000080: 66b8 953b c193 29bc 39e0 c9bb 47ba fc3a
00000090: 3a76 c9bc 4529 14bc 81e8 8dbc 4c8f 5ebb
000000a0: 3c8b 873b a7cf a03c 6a8b 9cbc e9c0 993c
000000b0: 3d9b abbc 7b44 96ba b186 5c3d b3f9 de3c
000000c0: 94b5 b23c 84ef efbc bfed 983c 2311 3fbc
000000d0: 2a51 fbbc 0ad9 573d 1260 d0bc a02d 933c
000000e0: dd1c 353d b91f 9ebc e453 3cbd 66d6 073d
000000f0: d7de e2bc fb47 ba3c 1653 f4bb 78d6 45bc
00000100: 9a55 da3c 5813 24bc 5fa5 da3b 06fa b5bc
00000110: 14a4 e23a 1b69 b63c 3514 473d 7c15 503c
00000120: 90dc 543d 6f74 da3c 6aa5 e6b9 d849 2fbc
00000130: 873a 023d 0f07 10bd bae0 313d 8619 0abd
00000140: e4ed b4bc 9177 61bc d814 213d 3362 3cbd
00000150: dad5 9937 3235 c6bc b62b 5dbc cce4 10bd
00000160: dea4 5b3c fb5a 693c 9227 18bc 71d6 13bd
00000170: e623 c5bc 5420 7c3b cdb8 0f3a ae9a 21bc
00000180: fcb1 eabc 00f8 0bbc 3147 6cbc 6dcd a7bc
00000190: f3c9 103d f0b1 3abd da4b d139 2603 85bb
000001a0: e871 c63c fc7f 9fbc 3ef8 9c3c eed5 d9bc
000001b0: 8793 fc3c 5aa2 c7bc 8778 873d c342 e43c
000001c0: b167 7a3c cdc9 74bc 4153 dc3c 11a1 e63c
000001d0: 20d7 ea3c e6f3 53bc 3075 3b3d d25a febc
000001e0: 1d4f bc3c 0836 2dbd bf77 acbc 60a2 65bb
000001f0: 062a ad3c 6c2a 3bbb 2f6f 1e3d f61e b6bc
00000200: 899a 80bd d353 98bd d7f2 bcbd 79b4 193b
00000210: 50d1 993a 3ebf a5bd 0f82 313b 9cf0 adbd
00000220: 4cfb b9bd 8fa7 5cbd 9cc5 72bd f885 ecbc
00000230: a912 57bd 2795 f0bc 1122 89bd 12b9 90ba
00000240: 91ba 6dbd 37bf bebd f243 4dbd 26ee 273a
00000250: 69f2 c4bd 0be7 38bd ff29 9ebd 15d2 273b
00000260: f0c6 cb3a a641 a3bd 90f4 2ebc bb8a 2ebb
00000270: 3506 adbd 5e35 8bbd 3ecd b8bd a85f 96bd
00000280: 7886 10bb 3ee5 89bd b23a 2f3a 7e26 87bc
00000290: 1462 72bd 8643 bebd f032 69bd 16ff b3bc
000002a0: 1a6d 72bd d025 f4ba 3f34 a4bd cbf6 b9bb
000002b0: 199e 20bd fd5c 66bc 118c a6bb 3eaf ffb9
000002c0: 2bef 293b 4c08 6fbd d49b 97bd 1b25 a9bd
000002d0: ce72 6dbd 3498 553b 6982 80bd 51ec 2d3b
000002e0: d848 133c db78 27bd 3684 a2bd ff14 2bbd
000002f0: 268a 80bd 0520 1f3b 5e96 bdba af9f 6bbd
00000300: dcc0 553a 6a01 6ebd 5653 8ebd 0613 73bd
00000310: 24c6 44bd 46d5 43bd 30e4 3d3b 50f8 7239
00000320: 6939 653b 4a4b 4a3b 96b6 c73a 2284 61bc
00000330: f5e8 fc3b 9ea0 acbd 59ec 443b 3485 69bd
00000340: fe4e 82bd 9055 54bc 823d 29bb 0001 abbd
00000350: 39c2 eb3b 74fa 3cbd 82a4 96bc a7a6 47bd
00000360: 1d48 f13a a012 a8bb 7c68 b3bd 0213 9bbd
00000370: 7028 1ebd 5f9f 9e39 d017 52bc ce19 9cbd
00000380: babc 92bd b46e 8bbd 424f 3abd 44b6 23bd
00000390: 4de6 003b c6c0 9abd 7e0c a0bd e099 83bd
000003a0: a587 253b 09ee a8bc 3e91 19bd 8631 75bd
000003b0: e9d0 7ebb 174b 21bd 069b 23bd cf31 053b
000003c0: 621c 423b 50a9 97bd 233c d73a 25e1 3d39
000003d0: 7d9b 143b 7246 0ebc 2f51 e4bc a965 94bd
000003e0: a5c4 7c3a f70c 8abd b9cb 10bd 875d ecbc
000003f0: 36c5 71bc 58ff 80bb f771 253b 2d76 b3bd
0.008758143 -0.020814966 -0.029342119 0.034108944 0.021270394 -0.035115063 0.026525248 -0.036016364
-0.0086415075 -0.030156778 0.03937352 0.01587091 0.0023146574 -0.019697875 -0.016225161 0.025894525
-0.045165516 0.01227977 -0.02501899 -0.0009952006 -0.00021957966 0.02700758 -0.014900657 0.03840104
0.018006073 -0.009629904 -0.008755504 0.0076320576 -0.017883334 -0.031345755 -0.016277084 -0.031391945
0.004569101 -0.010350169 -0.0061607626 0.0019281589 -0.024592508 -0.009043043 -0.01732278 -0.0033959923
0.004136471 0.019630266 -0.019109447 0.018768745 -0.020948047 -0.00114645 0.05383939 0.027218675
0.021815099 -0.029289015 0.018668054 -0.011661801 -0.03067835 0.05269722 -0.025436435 0.017966092
0.04421698 -0.019302236 -0.04597844 0.03316345 -0.027694149 0.022739401 -0.0074561937 -0.012075059
0.026652146 -0.010014378 0.006672546 -0.022213947 0.0017291331 0.022266915 0.048603255 0.012700435
0.051968157 0.026666848 -0.00043992262 -0.010698758 0.031794097 -0.03516298 0.043427207 -0.033715747
-0.022086091 -0.013761417 0.03932652 -0.045992088 1.8338604e-05 -0.024195287 -0.013499191 -0.035374448
0.013406007 0.014242883 -0.009286778 -0.03609318 -0.02406497 0.0038471418 0.00054825546 -0.009863539
-0.028649323 -0.0085430145 -0.01442127 -0.020483697 0.035348844 -0.04557985 0.000399201 -0.004059213
0.024224237 -0.019470207 0.01916134 -0.026591267 0.030832065 -0.024369407 0.06614786 0.027863866
0.015283511 -0.014940691 0.026895167 0.028152974 0.028667033 -0.012936568 0.045766056 -0.031049166
0.022986943 -0.042287856 -0.021053193 -0.003503941 0.021138202 -0.002855922 0.03868025 -0.02223156
-0.06279475 -0.07437863 -0.092260055 0.0023453517 0.0011735354 -0.08093117 0.0027085578 -0.08493158
-0.09081134 -0.053870734 -0.059270486 -0.028872475 -0.05250803 -0.029367996 -0.06695951 -0.0011041483
-0.05803925 -0.09313815 -0.050113626 0.00064060313 -0.096165486 -0.045142215 -0.07722854 0.0025607396
0.0015546959 -0.07971506 -0.010678425 -0.0026632983 -0.084484495 -0.06797288 -0.09023522 -0.07342464
-0.0022052806 -0.067331776 0.00066844665 -0.016497847 -0.059175566 -0.09290223 -0.056933343 -0.02197222
-0.05918608 -0.0018626992 -0.08017778 -0.005675172 -0.039213274 -0.014060256 -0.005082615 -0.00048767956
0.0025929909 -0.058357522 -0.07402769 -0.082590304 -0.057970814 0.003259194 -0.06274874 0.002653856
0.008989535 -0.04088674 -0.079353735 -0.04176807 -0.0627635 0.002428056 -0.0014464369 -0.057525333
0.00081540435 -0.058106817 -0.06949489 -0.059344314 -0.048040524 -0.047810815 0.0028975122 0.00023171422
0.0034976846 0.003086763 0.001523691 -0.013764413 0.0077182003 -0.08429073 0.00300481 -0.057011798
-0.06362723 -0.012959853 -0.0025824015 -0.083498 0.007194784 -0.04613729 -0.01838899 -0.048742916
0.0018408332 -0.0051291734 -0.08760163 -0.07571985 -0.038612783 0.0003025485 -0.01282306 -0.07622109
-0.07164903 -0.06808224 -0.045485742 -0.039968744 0.001966852 -0.075563 -0.07814883 -0.06425834
0.0025257852 -0.020621317 -0.03749203 -0.059861682 -0.0038881844 -0.039378252 -0.039942764 0.0020323878
0.0029618968 -0.07405341 0.001642112 0.00018108317 0.0022675686 -0.008683788 -0.027870743 -0.07245953
0.00096423394 -0.06740754 -0.035350535 -0.028853191 -0.014756491 -0.0039366893 0.002524493 -0.087627746

gru.bias_hh_l0 f4 [384]
00000000: 3983 3cbd a6c3 a4bc c9f8 11bd a6b6 1e3d
00000010: dc84 a93c 91a1 eabc b824 dd3c f4b4 ba3b
00000020: 9563 3cbd 4f3f debc b21c 2f3c 9d30 503c
00000030: 923d cbbb c9b1 a1bc 3b84 d6bb a4ea c53c
00000040: d42e f33c 25af 05bc e802 f6bc 8be6 7cba
00000050: b90e 723c 0309 64bd 9f47 57bb a427 013d
00000060: de68 bb3c e0f2 073c 105f b1bb 1d98 7b3b
00000070: 52de 153c 0536 06bd 1cd6 29bd 1c46 d7bc
00000080: 2501 833b ff0e c5bc cbba cdbb 0e43 4239
00000090: 1c30 f5bc db43 cf3a ca85 5abd 0546 b7bb
000000a0: b0f5 8d3b 20c6 9a3c 5f65 18bd f372 a13c
000000b0: 8442 adbc 1184 d7bc c670 253d 0018 d93c
000000c0: 08dd fb3c db6c b6bc 81dc 51bc 2ccb 583b
000000d0: 03e9 a8bc 52d7 0a3d f606 07bd 4a46 243d
000000e0: a8dc 003d 4fdb 9fbc c8cf 2bbb e371 79bc
000000f0: 4db4 33bd e541 bb3c 5717 f4bb 877f fbbb
00000100: 34fe f73c 7f3c f93c 08bb 9a3b 60b2 d63c
00000110: ed11 b13b 20b6 0bbd c758 673d bd7f 473d
00000120: 71f8 143c 01ce ea3c 0d7a e9b9 038e 30bc
00000130: 5c3d e53c cfbf 31bd 872a 713d bc8e e4bc
00000140: 8e57 07bc b4cc 00ba cd15 3d3d 394c 843b
00000150: 50bd dfbb a251 c6bc 5335 5dbc f749 11bd
00000160: 365d 5c3c 9835 6e3c 055c 7cbc 4a53 07bd
00000170: 4625 c2bc d0a0 a53c 727b 723c 8143 053c
00000180: 7269 fdbc 97c1 c2bb d171 73bc 613f a2bc
00000190: 8590 de3c e8f1 a83b 84b1 39bb d299 02bd
000001a0: 995e ff3c 54df a2bc e75c 2abd f6c0 d7bc
000001b0: 4859 fc3c 4f2a c9bc c687 40bc a7fc 093d
000001c0: d287 b03c cedf 153c a16f e03c 0389 f23c
000001d0: 8c2c 103d 54c5 033d e51b 7f3d 8c1d d93a
000001e0: cddc be3c 77c3 9dbc 7179 03bd bff5 303a
000001f0: 1c42 84ba 8220 3abb f4cb 0f3d 7bce d1bb
00000200: f149 8fbd 0417 97bd a952 abbd 63de 193b
00000210: 8e3a 9a3a 5eaa 99bd 23b7 2a3b 3bdc 97bd
00000220: f319 89bd ca80 4bbd 84bb a3bd 317c dcbc
00000230: e6d9 66bd edd8 f1bc 8a71 b2bd 6e14 8dba
00000240: 2d1d 88bd f8c4 a6bd 2a1a 56bd a1e6 283a
00000250: 0681 86bd 0e7f 1fbd a22e a0bd 68d2 263b
00000260: 41d4 dd3a b676 a0bd a5e0 2ebc 6d77 3dbb
00000270: fed8 9bbd 1aed 8dbd 7f79 c2bd b108 9bbd
00000280: f418 13bb f990 6dbd 1bb3 673a e367 92bc
00000290: 67f4 70bd c5aa 8bbd ebb9 aebd d074 babc
000002a0: 2e12 abbd 5f09 76ba 4b92 aebd 8bd4 bbbb
000002b0: 88f4 59bd b7dd 52bc c95b b3bb 7f6d 03ba
000002c0: 88f0 253b 2c07 77bd 6666 98bd f3f2 96bd
000002d0: 7763 99bd 73c3 553b ccdc 57bd f26a 2e3b
000002e0: 9ed1 003c 9159 12bd bdd5 a3bd 6f28 25bd
000002f0: 6159 7bbd d534 2a3b 0d5f c0ba 9872 61bd
00000300: 0d04 373a e640 98bd d5d4 6abd 34ed 3fbd
00000310: 4da6 c1bd bc72 38bd 2425 443b 84c4 a539
00000320: b7f0 683b 4ab5 483b a7a1 c63a 6959 63bc
00000330: 08cc fd3b 722c b4bd 8f6c 433b 3f29 69bd
00000340: e9f0 a1bd b663 68bc 5837 70bb 326b 9abd
00000350: 197b f33b 4735 4fbd 0b6b 97bc 98db 45bd
00000360: 1b57 f53a d38e a7bb 2222 89bd 0193 8cbd
00000370: dc87 2abd 8433 a339 7f6e 5ebc ef71 9bbd
00000380: f571 8cbd 370c 86bd 1347 3abd 5a37 13bd
00000390: 9c89 013b 2a3b c0bd 2112 b5bd db45 80bd
000003a0: 8ee1 2d3b 8fea a2bc a131 38bd 2eea 6bbd
000003b0: 1f14 0abb 0609 33bd 17fa 0cbd 4326 033b
000003c0: eb05 403b 671c 9fbd f64b f63a 8f56 3d39
000003d0: af65 173b 1368 dcbb 4ca1 d0bc b798 98bd
000003e0: 3cc5 813a 69d6 77bd 0c8d 00bd 636a f3bc
000003f0: 8d5b 80bc cc18 81bb 8d8d 253b b335 99bd
-0.04602358 -0.020112824 -0.03563765 0.038748406 0.020693235 -0.028641494 0.026995048 0.005697841
-0.045993406 -0.027129797 0.010687994 0.012706903 -0.006202408 -0.019738095 -0.006546525 0.024159737
0.029685415 -0.0081594335 -0.030030683 -0.00096473907 0.014774018 -0.055672657 -0.0032849086 0.031531945
0.022877153 0.008297652 -0.0054129437 0.0038390227 0.009147244 -0.03276636 -0.041463956 -0.026278548
0.003997939 -0.024055002 -0.006278371 0.00018526262 -0.029930167 0.0015813069 -0.053350247 -0.005593064
0.0043322667 0.018893301 -0.03720605 0.019708132 -0.021149881 -0.026308091 0.040390752 0.026500702
0.030745044 -0.022268703 -0.01280892 0.0033080084 -0.020618921 0.03389675 -0.032965623 0.040106095
0.031460434 -0.019513754 -0.0026216377 -0.015224907 -0.04387312 0.02285857 -0.0074490714 -0.0076751146
0.03027258 0.030424355 0.004722003 0.026208103 0.0054037482 -0.034109235 0.05648115 0.048705805
0.009092436 0.028662683 -0.00044532158 -0.010776046 0.02798336 -0.043395814 0.058878448 -0.027900092
-0.008260621 -0.00049133156 0.04616337 0.0040374068 -0.0068279877 -0.024208847 -0.013501483 -0.03547093
0.013449958 0.014539145 -0.015402799 -0.033038415 -0.023699414 0.020218283 0.0147999395 0.00813377
-0.03093407 -0.005943488 -0.014858679 -0.019805612 0.027168522 0.0051557906 -0.0028334567 -0.031884976
0.031173037 -0.019881882 -0.041592505 -0.026337128 0.030804291 -0.024556307 -0.011751121 0.033688214
0.02154914 0.0091475975 0.027396979 0.029606348 0.035198733 0.03217061 0.06228246 0.0016564592
0.023298645 -0.019258244 -0.032098237 0.0006750486 -0.0010090503 -0.0028400724 0.035106614 -0.006402788
-0.06996525 -0.07377437 -0.083653755 0.00234785 0.0011766718 -0.07503198 0.00260491 -0.074150525
-0.066944025 -0.04968337 -0.0799475 -0.026914688 -0.056360148 -0.029522384 -0.08713062 -0.0010763535
-0.0664619 -0.081430376 -0.052271046 0.0006443058 -0.06567578 -0.03893953 -0.078213945 0.0025455002
0.0016924219 -0.07835142 -0.010673677 -0.0028910295 -0.07609747 -0.06929989 -0.0949583 -0.07570017
-0.0022445293 -0.057999585 0.00088386395 -0.017871803 -0.05882683 -0.06819681 -0.08531555 -0.022760779
-0.08353077 -0.00093855517 -0.08523997 -0.005732124 -0.05321172 -0.012870244 -0.005473588 -0.00050135696
0.002532037 -0.060309574 -0.07441406 -0.07370558 -0.074896745 0.0032617718 -0.052700803 0.0026614037
0.007862477 -0.03572995 -0.07999752 -0.040321764 -0.061364535 0.0025971432 -0.0014676765 -0.055040926
0.00069814996 -0.074342534 -0.05733188 -0.046857074 -0.094555475 -0.045031294 0.0029929364 0.00031617668
0.0035543868 0.0030625635 0.0015154377 -0.0138762975 0.0077452697 -0.0879754 0.0029819345 -0.0569241
-0.07907278 -0.014183929 -0.0036654081 -0.07539977 0.007430446 -0.05058792 -0.01848366 -0.048305124
0.0018717976 -0.0051134615 -0.066959634 -0.06863976 -0.04163347 0.00031128165 -0.013576149 -0.075900905
-0.06857673 -0.065452985 -0.045477938 -0.03594146 0.001976586 -0.09386285 -0.088413484 -0.06263324
0.0026532146 -0.019887237 -0.044969205 -0.057596378 -0.0021069122 -0.043709777 -0.03441819 0.002001182
0.0029300402 -0.07769089 0.0018790949 0.0001805669 0.002310138 -0.006726274 -0.025467537 -0.07451003
0.0009900699 -0.06050721 -0.031384513 -0.029713815 -0.015668655 -0.0039397236 0.0025261373 -0.074809454

linear2.weight f4 [2, 128]
00000000: 7851 7d3e 802d c5be c254 b0be 9e17 a43d
00000010: 6a18 f3bd dd02 8a3e de9f efbc fdeb abbe
00000020: b2f0 983e 0e64 41be 7232 743e 5c82 033e
00000030: 67cc 33be b9ca 853d febb 8b3e 9e7f 07bd
00000040: 1722 8ebe 20ef af3e dce3 80be 1f61 debb
00000050: 1467 913e caea 13be b04d c5be 4318 9abc
00000060: 4736 d23c 6fbc b6be edf1 203e 07e3 1f3e
00000070: f7a9 8f3e c29d 27be 53b0 873e b199 bcbe
00000080: 1230 11bd 523b 9fbe 2d51 40bd 1f30 bb3d
00000090: f199 453e 9d38 9e3e d18a 8d3e a4ad fb3c
000000a0: 17a6 b43e 4367 eabd bd98 d3be 7af1 fdbd
000000b0: a8fb 283e a1b4 e6bd f9ee cb3d ae5a a2bc
000000c0: 84aa dcbc e8e4 35be 4aad bc3e ec7a 9e3e
000000d0: ebf9 45be 219c f2bc 4014 2fbe 515e c13a
000000e0: 2a2c 403d aa6b 283d a463 a53e 6328 14be
000000f0: 0812 6c3e 84a1 4cbb 8dba bd3d d78b 263e
00000100: d1c8 cbbd 45a8 79be 90dc 97be c609 703e
00000110: 0c09 9c3e 7649 d0bd 1255 fdbc 5153 e7bc
00000120: 7005 87bc 69a0 38bd 36da acbc 423c dbbd
00000130: 833a e1bc 0ffa 9e3e ac6b fcbb df43 673e
00000140: 6c87 823e cfdc 1c3d 23a2 dabd 2efd 94be
00000150: 2fec 0e3d d52b 47be d0ae 3ebd 2e42 223e
00000160: aa06 c23d 345d 6ebd 8352 9cbe bd20 76be
00000170: 5c25 0dbe ec02 83bd 05fa dcbd 58d8 983e
00000180: 0a26 42be 99d5 92be cd38 a4bd 70de c8bd
00000190: 59e7 40bd d495 86be cbc7 9cbe 483b 56be
000001a0: 8333 40bd 87a0 03be 8ca5 2ebe 11d8 1f3e
000001b0: 1549 693d 3ee4 20be 0be3 0c3e 5f03 4bbd
000001c0: c78a 3ebd 1746 91be 0334 cf3c 3291 a93d
000001d0: 962a 5c3d b979 b3bd 5b8b 27be 4120 483e
000001e0: d82b a3bd e8e4 93be 9a6e 2d3e 08fb bbbd
000001f0: 30d0 263e 7e46 9ebd 90bc febc d75f 9b3e
00000200: 9de7 73be a96c 7b3e b888 bd3e 79b2 943d
00000210: 7315 24bd c7a9 b0be b853 45bd eeff 893e
00000220: 6962 acbe 34b7 353e eab8 80be af7f f9bd
00000230: c74b 463e f0e2 18be d7f9 c1be 61f3 01be
00000240: e7b8 4c3e 2004 86be cb58 873e 4f45 bc3c
00000250: 030b 85be 58d6 233e 9c9f 913e 7044 d83d
00000260: 392f 773c 8e6c ba3e 747a c8bc b4e0 d3bc
00000270: f85c 8dbe 2e81 593e 87cc b2be f99f 8a3e
00000280: 4105 b53d a3ea 533e 92ae 1ebd 2835 9cbd
00000290: 6418 4ebe 876f 9fbe 6c1f a0be bc85 0dbe
000002a0: 5483 9dbe 1636 d23d 5e07 983e 6455 85bc
000002b0: 1a2f afbd 0467 a83d 1bdc 79bd ac0c 893d
000002c0: 0f49 50bd 8871 823e c467 99be 1c5a abbe
000002d0: ee13 593e 340c b03c bf3d 3b3e b0a9 b1bd
000002e0: c19d 4abd a62a 39be 87d0 abbe 8918 f63d
000002f0: e5de d6bd db14 c03b 2bb8 2cbd aa19 a0be
00000300: f970 98bc 1d68 863e fc79 4a3e 4c6e 14be
00000310: c86a 8bbe 6621 563e 81ea 4ebd cc85 0b3e
00000320: 3aae 4c3d 9096 6bbd 8368 50bd c35e 903d
00000330: f80d 293d f2e1 92be 205d 75bc 562e 23be
00000340: 443c b3be 8836 15be 0fa1 313d d93e c73e
00000350: 4bc6 6dbd d55a 873d a856 f63d b166 7bbe
00000360: a25c da3c 19ca 823d 0684 b43e 446a 5c3e
00000370: 1277 013e 08f8 253c 598f c33d 27b4 88be
00000380: ed11 673e bdcc 933e dfe8 033e baed f33d
00000390: 49b5 b6bd ed23 b33e 4919 9c3e 949d 4f3e
000003a0: a294 04bd bfbe cb3d e5bb 3c3e e109 03be
000003b0: b208 15bd 6585 eb3d 2efa 03be 59b8 d6ba
000003c0: 0363 0bbd 31a3 b43e 3d46 ab3d 8dc4 dbbb
000003d0: 1d2b 543d 8f97 a03d cce0 813d 5de3 9cbe
000003e0: a624 d93c 45b5 9a3e e906 32be 2620 a43d
000003f0: b333 47bd 878f e53c 9345 8fbd 48ac 66be
0.24738109 -0.38511276 -0.34439665 0.08012317 -0.11869891 0.2695531 -0.029251035 -0.33578482
0.29871136 -0.18885824 0.23847368 0.12842697 -0.17558442 0.06532807 0.27291864 -0.03308069
-0.27760383 0.34362125 -0.25173843 -0.00678648 0.28398955 -0.14445034 -0.38535833 -0.018810397
0.025660647 -0.35690638 0.15717287 0.15613948 0.2805936 -0.16368774 0.26501712 -0.36836007
-0.035446234 -0.31099945 -0.046952415 0.09140038 0.19297005 0.30902568 0.2764497 0.030722447
0.35282966 -0.11445477 -0.41327468 -0.123995736 0.16502249 -0.11264921 0.0995769 -0.01981863
-0.026936777 -0.17763102 0.3685096 0.30953157 -0.19333617 -0.029615464 -0.17097569 0.001475284
0.046917118 0.0411183 0.32302582 -0.14468531 0.23053753 -0.00312242 0.09264097 0.16264282
-0.09950412 -0.24380596 -0.29660463 0.23441228 0.30475652 -0.101702616 -0.030924354 -0.02823797
-0.016482085 -0.045074854 -0.021100145 -0.10704853 -0.02749372 0.31050155 -0.007703265 0.22584485
0.25493944 0.038296517 -0.106754564 -0.2909941 0.03489321 -0.19450314 -0.046553433 0.15845558
0.09473927 -0.058194354 -0.305317 -0.24035926 -0.13783783 -0.06397042 -0.10789875 0.29852557
-0.18959823 -0.28678587 -0.080186464 -0.098080516 -0.04709563 -0.26286185 -0.3062118 -0.20921052
-0.046924125 -0.12854205 -0.17055339 0.15609767 0.056954462 -0.15712067 0.13758485 -0.04956376
-0.046519067 -0.28373787 0.025293356 0.08279647 0.05375155 -0.08763451 -0.16361754 0.19543554
-0.07967347 -0.2888558 0.16936722 -0.0917874 0.16290355 -0.07728289 -0.031095773 0.30346557
-0.23818822 0.2455317 0.3701837 0.072606035 -0.040059518 -0.3450453 -0.048175544 0.2695307
-0.3366883 0.17745668 -0.25141078 -0.12182557 0.19364844 -0.1493032 -0.37885925 -0.12690498
0.1999241 -0.26175022 0.2643493 0.022982268 -0.25984964 0.15999734 0.28442085 0.105599284
0.015086942 0.36410946 -0.024472453 -0.025863983 -0.27609992 0.21240684 -0.34921667 0.27075174
0.08838893 0.20694976 -0.038740702 -0.07627326 -0.20126492 -0.31139776 -0.31273973 -0.13820547
-0.30764258 0.10264222 0.2969312 -0.016276069 -0.08553906 0.08222774 -0.061000925 0.0669187
-0.050850924 0.25477242 -0.2996198 -0.33467185 0.21199009 0.021490194 0.18285273 -0.086749434
-0.049466852 -0.18082675 -0.3355753 0.120163985 -0.104917325 0.005861861 -0.042167824 -0.3126958
-0.018608557 0.26251307 0.19773096 -0.144952 -0.27229905 0.20911178 -0.05051661 0.13625258
0.049970843 -0.057516634 -0.05088092 0.07049324 0.041273087 -0.28688008 -0.014975816 -0.15935645
-0.35006917 -0.14571583 0.043366488 0.38915136 -0.058050435 0.06609122 0.12028247 -0.24550892
0.026655499 0.06386203 0.35256976 0.21524912 0.12643078 0.010129936 0.09548826 -0.26699945
0.22565432 0.2886714 0.12881802 0.11910577 -0.08921296 0.34988347 0.3048804 0.20274955
-0.03236831 0.09948491 0.18431051 -0.12796737 -0.036385246 0.11500052 -0.12888405 -0.0016381844
-0.03402997 0.35280755 0.08363006 -0.0067067803 0.05179893 0.078414075 0.06341705 -0.30642214
0.026506733 0.30216423 -0.17385449 0.08013944 -0.04863329 0.02802254 -0.06995692 -0.22526658

linear2.bias f4 [2]
00000000: 56d6 343c 6a3b c13c
0.01103743 0.023587901

linear1.weight f4 [4, 2]
00000000: c692 043f c0e5 babe 776c 113e dd64 06bf
00000010: 8da6 023f 6f78 b0be e050 1d3f 4bc0 0dbf
0.5178646 -0.3650341 0.14201532 -0.52497655 0.51035386 -0.34466884 0.6145153 -0.5537154

linear1.bias f4 [4]
00000000: 8567 fe3e d62e 2bbd 436b 273f c399 cb3e
0.49688354 -0.041792713 0.65398043 0.39765748
