model_parameter/waveform_pretrained_GRU.pth (torch, 272768 bytes, 8 tensors)

gru.weight_ih_l0 f4 [384, 42]
00000000: 903b 2abd 875b 37bd 2094 02bd c50b 06bd
00000010: 33cd 1ebd 93ef 57bd fc87 7bbc 1652 5cbc
00000020: 45ec 53ba b382 65bc 47c6 94bc e49b 0ebc
00000030: 07b3 973b 63e5 0bbd 9530 85bb 6ae5 62bc
00000040: 0a3d 9fbc 28f4 69bc c6bb 0bbc 1e27 1abc
00000050: 910c c4bb 8ef7 cdbc 95ae b7bb 27f0 babb
00000060: 7e1d 8fbb a9cd bcbc 8052 1fbc 2aef 2fbd
00000070: 6216 6cbd f294 b5bb a524 29bd 6269 86bc
00000080: 0614 36bd b953 3cbc 26ca b1bb 5d3f 1dbc
00000090: 6e4f 11bd 27da 52bc 15f5 26bd 1025 82bc
000000a0: 1932 d5bc f823 90bc 1229 01bd 5e6a dfbc
000000b0: e211 d3bc 03d0 9fbc 9336 f4bc 4cdf 18bd
000000c0: b25e 1ebc e6f5 5ebc 0591 88bb 9bc7 86bc
000000d0: cadc a9bc 2eb1 33bc 0f1a c23a 803f cebc
000000e0: aa48 5cbb 6c8c 4fbc daa4 8dbc c524 86bc
000000f0: 8047 04bc 549f 0fbc 4b2d 9cbb 2de6 a9bc
00000100: f654 bbbb e82e 01bb 992f d6bb eb82 c8bc
00000110: d688 65bc 55be f7bc b794 15bd 1739 3ebc
00000120: ac59 febc a66c 44bc a21d 12bd 61b5 34bc
00000130: 7049 ddbb 9300 06bc e402 e3bc 7665 8ebc
00000140: 3dee b3bc d919 4cbc acf3 c1bc ebcb 96bc
00000150: 865b 1b3c bb9e 66bc 6fda 63bc bdcc 183b
00000160: 7d2e f3bc b060 dbbc 11b8 29bc 9d5c 95bc
00000170: 41e9 2fbd a7ba 10bd 296a 49bd 86d0 f8bc
00000180: e117 babc a7d0 f1bc 5407 89bc 6dd8 36bc
00000190: b484 09bd ee4c a1bc dcfd 08bd f76c 16bd
000001a0: 3b9e a6bc 4810 d5bc 9ffe 2abd 63e7 cbbb
000001b0: 8994 b5bc 0572 2bbd dbf2 4ebd b054 063c
000001c0: 7b73 34bc e720 04bd b903 38bc be18 50bc
000001d0: e0dd 113c 696e c9bc 886f 11bd 7960 9dbc
000001e0: 7692 f1bb e43c 0abd 3874 ecbc a621 61bc
000001f0: 0de9 a2bc d0d3 d3bc ac3f 02bd 6583 23bd
00000200: 92ef 843d 272e 9abd d3d2 27ba 53f2 0cbd
00000210: 6760 21bd e736 b2bc b245 1d3d 3291 08bd
00000220: 149c 7fbc c386 49bd 9c2e 213d f47d 05bd
00000230: 5b47 03bd 062a 823b 439d 36bd a721 9abc
00000240: bd6d a53a 92d2 05bd fb18 923c 576f 55bd
00000250: b4b4 643a aa6b e9bc dffc 6b3c 7bce 913c
00000260: 3592 9c3d c369 89bd cce6 d3bc f9f5 9e3d
00000270: bd9d a33c dd12 06bd 54e7 efbc e10e c93c
00000280: 81f3 90bc 87f3 b8bc 6673 31bc 97f3 773b
00000290: fe19 8cbd e7d8 e1bb b40d 2b3d cec9 bb3c
000002a0: bcbc 123c b6cb 133b 4c9e 003c 6691 253a
000002b0: e231 773b cb6d 193c 95c3 683b 6c3c 6fba
000002c0: cbdc 1138 f895 9c3a 93e2 c33a bb1d 763a
000002d0: 9f4e f43a 2a66 683b d731 743b 9bd0 863b
000002e0: 6beb 56ba 741b d139 7a5c 1f3b c5ba 293b
000002f0: 8379 473b ad99 803b 3ff9 713b 5beb c13a
00000300: f2aa 6339 153d 473b cab6 893a a826 033c
00000310: a2f7 a53b ce25 a03a f010 af3b 7b28 543b
00000320: 181b af3b 73c4 6c3b 8430 973b 8d98 d2ba
00000330: c8c2 183c 5e76 d63a 3a79 cdba c0c9 bd3a
00000340: 4875 c83b 313a 353a f5a7 b0bc f878 afbc
00000350: 6ba1 80bc ca09 c2bc 81b3 52bc fa9e bfbc
00000360: 032f ffbb 22d8 dabb 4806 46bc af40 6bbb
00000370: 0455 24bc b7b9 f5bb 193d 5abb 4bc7 48bc
00000380: 2b15 3bbc 6159 fabb 812e 29bc 664d 26bc
00000390: 50af bbbb eb97 86bc d2f7 17bc a2cd abbc
000003a0: 6062 17bc cacb 3538 f174 103b c73b b0bb
000003b0: 03bd 20bc 9b0c d3bc 3f31 bfbc f845 3bbb
000003c0: 2915 bebc e796 21bc 7587 d0bc ff9f 3e3a
000003d0: 488f 7fbc 6097 6abb ef7c 94bc a3f3 83bb
000003e0: 91ce 9fbc e673 b8bb ad08 93bc d7ee 3bbb
000003f0: 1fd1 12bc dcba 903b d065 c43c 1217 863c
-0.04156071 -0.04476502 -0.031879544 -0.032726068 -0.038769912 -0.05271871 -0.015352245 -0.013447305
-0.0008084218 -0.014008212 -0.018160952 -0.008704159 0.004629496 -0.034154307 -0.0040646293 -0.013848642
-0.019438285 -0.014279403 -0.008528655 -0.00940874 -0.0059829433 -0.025142457 -0.0056055286 -0.005704898
-0.0043675294 -0.023047285 -0.009724259 -0.042952694 -0.057638533 -0.0055414373 -0.041294713 -0.016407672
-0.04445269 -0.01149457 -0.0054257093 -0.0095976265 -0.03547614 -0.012869394 -0.040761072 -0.015886813
-0.026024865 -0.017595276 -0.03153331 -0.0272724 -0.025765363 -0.019508367 -0.02981118 -0.037322327
-0.009666132 -0.013608431 -0.0041676783 -0.016452601 -0.020735163 -0.010967536 0.0014808791 -0.025176764
-0.0033612647 -0.0126677565 -0.017290521 -0.016374955 -0.008073688 -0.008766014 -0.0047661415 -0.02073964
-0.0057169152 -0.0019711796 -0.006536436 -0.024476489 -0.014009675 -0.030242125 -0.03651878 -0.011610291
-0.031048618 -0.011988794 -0.03567279 -0.011029572 -0.006753139 -0.008178848 -0.02771134 -0.017382365
-0.021964187 -0.012457334 -0.023675762 -0.018407783 0.00948227 -0.01407593 -0.013907059 0.0023315393
-0.029685253 -0.026779503 -0.010358826 -0.018232638 -0.042947058 -0.035334256 -0.049173508 -0.03037287
-0.022716464 -0.029518439 -0.016727127 -0.011159998 -0.03357382 -0.019690003 -0.033445224 -0.03672501
-0.020339122 -0.02600874 -0.04174673 -0.006222652 -0.022165554 -0.041856784 -0.050524574 0.008198902
-0.011013861 -0.03225794 -0.011231356 -0.0127012115 0.008902997 -0.02458878 -0.035506755 -0.01921104
-0.007372196 -0.033749476 -0.028864011 -0.013740933 -0.019886518 -0.025857836 -0.031799003 -0.03992023
0.06491007 -0.07528334 -0.00064019597 -0.034410786 -0.039398577 -0.021754695 0.038396545 -0.033341594
-0.015601177 -0.049200784 0.03935109 -0.03259082 -0.03205047 0.0039722947 -0.04458357 -0.018814875
0.0012621206 -0.03267152 0.017834177 -0.052108135 0.00087244366 -0.028493721 0.014403551 0.017798653
0.07645074 -0.067096256 -0.025866888 0.07761759 0.019972676 -0.032732833 -0.02928511 0.024543228
-0.017694237 -0.02257706 -0.010830736 0.00378344 -0.06840895 -0.006892312 0.041761115 0.022923376
0.008956131 0.002255184 0.007850241 0.00063159165 0.0037718941 0.009364556 0.0035516967 -0.000912613
3.4776323e-05 0.001194655 0.0014944844 0.00093885855 0.0018639154 0.0035461285 0.0037261152 0.004114223
-0.0008198532 0.0003988404 0.0024316595 0.0025898677 0.0030437417 0.0039245696 0.0036922244 0.0014794873
0.00021712089 0.0030401398 0.0010506746 0.008004822 0.0050649205 0.0012218298 0.0053425953 0.003237276
0.005343806 0.0036127835 0.004613938 -0.0016067192 0.009323783 0.001636218 -0.0015676387 0.0014479682
0.0061174966 0.0006913273 -0.021564463 -0.021419987 -0.01570197 -0.023686308 -0.01286018 -0.023391236
-0.0077875867 -0.006678597 -0.0120864585 -0.0035896709 -0.010030035 -0.0074989456 -0.0033300577 -0.012254546
-0.011418621 -0.0076400493 -0.010326029 -0.010150289 -0.005727686 -0.016429862 -0.009275394 -0.020972077
-0.009239763 4.3343556e-05 0.0022042359 -0.0053782198 -0.009810689 -0.025762847 -0.023338912 -0.002857564
-0.02320345 -0.009862638 -0.025455216 0.0007271766 -0.015598126 -0.0035795793 -0.01812598 -0.0040268465
-0.019507678 -0.0056290505 -0.017948473 -0.0028676295 -0.008960991 0.0044168066 0.02397433 0.016368423

gru.weight_hh_l0 f4 [384, 128]
00000000: 9de7 27bb 62bd 223c 20a0 2f3c ff53 04bb
00000010: a825 f93c 4af6 933b 3c09 273c bbcf 02bd
00000020: eaf6 efb9 69ab 853c 0f43 3b3c 2db0 03bd
00000030: 12bc 513c 7c71 51bc b88d 893c 5a5d 6f3b
00000040: 16fe cabc bcda 82bc a337 c539 56a6 f8bc
00000050: efb5 bebc fa2e ee3c cb51 b5bb 2572 cfbb
00000060: 3517 0cbc b2df 1a3b 8498 043c f7d7 fabc
00000070: 9c18 2fbc 74e9 df3b fad2 95bc 257b 68bb
00000080: 8ff7 df39 6126 543b a402 85ba 5862 b33b
00000090: 8cc1 f73c 2df4 b73b 1aea d8bc d7e5 333c
000000a0: c55c 963b fec4 febb 8e3c 9ebc f66e 76bc
000000b0: b6bf 18b9 6073 ae3b ad1d e23c 7723 1abb
000000c0: ce98 ee3c cd89 033d 8822 eb38 9c33 533c
000000d0: e396 513c c547 e23c a0d9 81bc 105d 853b
000000e0: b433 03bd 6ede fb3c ab9c 19bb 794f 4d3c
000000f0: 6891 983b 0234 a73c 1262 78b9 a1e6 6dbc
00000100: 72c2 0bbc 9f35 2dbc dd90 fa3c f59d 06bd
00000110: 8f37 2a3a 0833 a1bb 533a 643b 6c94 cbbc
00000120: f54b 4739 2a97 d03b 18ba 013b e39a 283c
00000130: 8e20 053c 0065 983c 7f7a b6bc a199 a83c
00000140: 296f 6ebc b909 4c3b f127 bd3c 6c0b 5e3a
00000150: c583 a53c 2658 823c 7eb0 923c 8494 5639
00000160: db1b e6bc a499 86bc e3b7 cdb9 d9e9 95bb
00000170: 5d0f de3b 41f9 87b8 83f1 76bc 85b6 23bc
00000180: d2ab 923c 8e0f 233c c792 19bc 3c35 c23b
00000190: 5b3c e53c a559 3b3b 59e5 133b 6688 683b
000001a0: d890 38bc 9353 143c d288 813c d06f de3c
000001b0: 8e15 e33b 2965 e53c e30a 813b 335e 7a3c
000001c0: 8334 773c a657 84bc 166a eb3a 9455 603a
000001d0: 8e11 a2bb 6bb3 d83b 1397 fd3b 98a2 90bb
000001e0: 3fc9 03bd 0360 dd3b 2767 29ba 46c3 3839
000001f0: 530f 9dba ddb6 14bc 98a4 dd39 6aa4 00bd
00000200: 2c98 a7bb 8391 6e3b 32e6 313c 8dac 26bc
00000210: 5a55 de3c 4e2b 283b 7426 1a3c f7b4 e4bc
00000220: 432a 37bb 5b41 2c3c 350a c13b 8b80 e7bc
00000230: cf00 2d3c 4725 04bc b324 6d3c 7511 a2b8
00000240: c8cf a6bc cc8c 4bbc b359 2e3a f764 d5bc
00000250: 7859 9ebc f971 c93c 5fb6 b2bb eaae 82bb
00000260: 4ebd 0bbc c4e6 783b 84bc ee3b b4b8 e4bc
00000270: cc3f b3bb 7c3d 833b 9375 98bc b9b6 b0ba
00000280: 5e75 313a 0150 f63a 56d0 9f3a 56a9 733b
00000290: 295b dc3c 3ad5 e7ba b5c5 b6bc 8a0e d33b
000002a0: e35b e23a 9988 01bc e0f5 7abc 4d16 1fbc
000002b0: 9fa4 9aba e1ff 523b 7444 bf3c 3628 b03b
000002c0: 440a d93c e651 e73c 90ea a4b8 2aa1 4f3c
000002d0: 92e8 2b3c 84b2 dd3c 8f68 40bc 9593 2bbb
000002e0: 1e7e e9bc 6fcc da3c 9a12 903b 8b52 e53b
000002f0: 5631 a0ba 23ee 813c f479 cfba 8ddb 2cbc
00000300: cfef 0cbc d5de 86bb 6095 d73c 2b15 ebbc
00000310: 887b 113b 762f 2ebb db21 b6b8 6050 b5bc
00000320: f4e1 b83a 8bc1 e83b 9176 e239 8d70 ca3b
00000330: 24a2 3a3b a83b b03c 088c 93bc 40ee 883c
00000340: c6bf 6fbc 6ad4 2abb 5804 aa3c 1d40 093b
00000350: 0584 983c 14f9 483c 9219 5a3c 77a8 163a
00000360: 0cf5 c1bc 8411 afbc 0019 2337 610e 00bb
00000370: 2130 3d3b 3b5a e7ba c99a 3fbc e18d d2bb
00000380: 84bb 8f3c 66dc 203c 78d9 1fbb 7091 223b
00000390: 8624 c53c 6c64 12bb faa0 d83a 708c 98bb
000003a0: cb58 d8bb fc92 073b 9506 633c 7da3 c13c
000003b0: 4c06 933b 7d2d bf3c 21e4 6238 3e20 373c
000003c0: 686d 263c 5f8f abbc 4ffa 90ba f696 cc39
000003d0: dba9 22bb da0f fd3b a036 083c 4715 0fbb
000003e0: 8f82 e5bc 7a95 593a 54fa 76bb a3bf 84ba
000003f0: 3d45 db3a 45cd 0ebc 1841 5d3a 187a e3bc
-0.002562023 0.009932848 0.010719329 -0.0020191667 0.030413464 0.004515444 0.010195073 -0.03193639
-0.00045769598 0.016317086 0.011429562 -0.032150436 0.012801187 -0.012783404 0.01679121 0.0036524148
-0.02477936 -0.015973441 0.0003761622 -0.030352753 -0.023280112 0.029075135 -0.005533432 -0.0063307458
-0.008550455 0.0023631868 0.008093003 -0.030620558 -0.01068702 0.0068332497 -0.018289078 -0.003547379
0.0004271832 0.0032371508 -0.0010147882 0.00547437 0.030243658 0.005613825 -0.026478816 0.010980091
0.0045886957 -0.007774948 -0.019315984 -0.015041104 -0.00014567267 0.0053238124 0.027602041 -0.0023519674
0.029125597 0.03211384 0.00011212105 0.012890723 0.012792322 0.027622113 -0.015850842 0.004069932
-0.03203173 0.030745711 -0.0023439329 0.012531155 0.0046560057 0.020410541 -0.00023687657 -0.014520318
-0.008530246 -0.010571866 0.030586654 -0.032865483 0.0006493264 -0.0049194135 0.0034824803 -0.024851047
0.00019006415 0.0063656764 0.0019794758 0.010290834 0.008125437 0.018602848 -0.022275208 0.020581068
-0.01455287 0.0031133725 0.023090335 0.000847033 0.020204434 0.015911173 0.017906424 0.00020463957
-0.028089454 -0.016430683 -0.00039237653 -0.004574996 0.006776734 -6.483729e-05 -0.015072229 -0.0099922465
0.017904196 0.009952439 -0.009373373 0.005926756 0.027982881 0.0028587368 0.0022567122 0.003548169
-0.011265002 0.009053129 0.015812311 0.027152926 0.0069300598 0.028002338 0.0039380654 0.015281248
0.015088203 -0.016155075 0.0017960693 0.0008557674 -0.0049459403 0.006613185 0.0077389567 -0.004413914
-0.032174345 0.0067558303 -0.0006462209 0.00017620352 -0.0011982716 -0.009076801 0.00042275037 -0.031406797
-0.005114576 0.003640265 0.0108581055 -0.010172975 0.027140308 0.0025660577 0.009408582 -0.027918322
-0.0027948774 0.010513629 0.0058911094 -0.028259536 0.010559275 -0.008065528 0.014474082 -7.7280136e-05
-0.02036275 -0.012423705 0.00066509395 -0.02604912 -0.019329771 0.02459048 -0.0054538692 -0.0039881365
-0.0085290205 0.0037979344 0.0072856564 -0.027920105 -0.0054702517 0.0040051322 -0.018610751 -0.001348219
0.0006769503 0.0018792154 0.0012192826 0.003717979 0.026898937 -0.0017687448 -0.022311071 0.006440942
0.0017269816 -0.007906103 -0.01531741 -0.009709907 -0.0011798328 0.0032195973 0.02334807 0.0053758873
0.026494153 0.028237294 -7.86382e-05 0.012672702 0.010492461 0.027062662 -0.011743679 -0.0026180495
-0.02850252 0.02670881 0.0043967487 0.0069983653 -0.0012221735 0.015860623 -0.0015829192 -0.010550392
-0.008602097 -0.004115919 0.026316345 -0.028696617 0.0022198875 -0.0026578582 -8.684742e-05 -0.022133052
0.0014105425 0.0071031502 0.00043194418 0.006177968 0.002847799 0.021512821 -0.018011108 0.016715169
-0.014633125 -0.002606655 0.020754024 0.0020942756 0.01861764 0.012266416 0.0133117605 0.0005747149
-0.023676418 -0.021370657 9.721378e-06 -0.001953982 0.0028867798 -0.0017650792 -0.0116946185 -0.0064256047
0.01754547 0.009818172 -0.0024391096 0.0024805926 0.024065267 -0.0022337688 0.0016527467 -0.0046554133
-0.006602382 0.0020686975 0.01385655 0.023637528 0.0044868346 0.02333712 5.409506e-05 0.011177121
0.01015792 -0.020942388 -0.0011060926 0.00039022387 -0.002482048 0.007722837 0.008313805 -0.002183275
-0.028016357 0.0008300167 -0.0037685828 -0.0010127913 0.0016729009 -0.008715932 0.00084401807 -0.02776818

gru.bias_ih_l0 f4 [384]
00000000: 30ac 20bd 686a 08bd db4e 2cbd 19be 183c
00000010: 1de8 9b3b 9858 adbc 272c bcbc edd1 de3b
00000020: 4230 16bc 9229 3639 aba2 ebbc fa5f 023c
00000030: 84e2 cabc b4ea 93bc 2bb8 06bd fdeb 2abd
00000040: 8a69 a7ba cdd0 44bc 4afe 10ba 4e97 8abb
00000050: 3adc 36bb 07ed 1d3b cb6f e1bc a4ef 7dbb
00000060: 6dd5 d2bc 8bc2 86bc ef16 c1bc c66e 233c
00000070: 3ea8 cebc 41cb 2dbd 041a 75ba 2c0f 16bd
00000080: 2a02 7ab9 eb25 1bbd 8d0d c0bb ede4 c4bb
00000090: b7b1 a0ba 9abb 12bd 67b8 a0b9 939b ebbc
000000a0: 7aa1 25bd 8738 1cbd b826 45bc d513 c2bc
000000b0: 0b3e 2fbb 70a0 34bc 0b28 94ba 75f8 d3bc
000000c0: b556 acba 0a7e fa3b 71b9 27ba e9c8 b5bc
000000d0: 1229 b6bc d81b 4d3c b402 00bc 0eef 24bd
000000e0: b7ea 0b3c 3e99 a83b fa96 33bd 5edd d8bc
000000f0: 4a52 b03b 13bc 54bc c617 73ba 1f90 bdbc
00000100: 5244 d8bc e22a d6bc 966c 9c3b d320 a43b
00000110: 75ef 11bc 8eeb ebbc 9196 1ebd 79fe bb3c
00000120: 3475 eabc e213 14bd aee9 fdbc 7001 dfbc
00000130: 227b d0bc fc64 b6bc 6d75 30bb c0ee b63c
00000140: 08dc 30bc b5cc 35bd 803f 8c3c 08cf 66bb
00000150: d7da 28bc 074b 0fbb f18b 46bc a422 94b9
00000160: a059 c73a d212 e83c 8e68 21bb 0eea 37bd
00000170: 9f5b f0bc e8a2 e6bb cded 30bc f777 f8bc
00000180: 1cd8 c9bc 5cc0 09bd b503 92bc 3ce0 3fbd
00000190: 041a 74bb 31ff 05bd 20ff bbba cf55 e5bb
000001a0: 3a36 debc e623 c6bc 407e c9bc 00ba 2e3c
000001b0: 24e2 31bd 2024 ba3a ea9c 87bb 5348 40ba
000001c0: 0004 c9bc 192c f2bc 392e 49bc b080 51ba
000001d0: e717 20bd 55fb 29bd 308b 12bd 1e6f 16bd
000001e0: c0f9 9a3b 0509 0fbd 86d8 42bc 7cce 3dbc
000001f0: f007 e4bc c13f e1bc f8ef bfba 7809 e23b
00000200: 2e8f 81bd 38a4 61bd c8a8 92bd 5ffd 55bd
00000210: 7308 963b b508 c8bc df77 a7bd 851b c73b
00000220: ded1 063a 0a3b f4bc 4500 44bd 8413 833b
00000230: f89b 8cbd adf8 fdbc e31e fcbc 2a19 9dbd
00000240: b0de 95ba 48c3 59bc 80b9 3239 e4ce 053c
00000250: 3058 a2b8 cd91 7b3b c2c0 4dbc ba85 453b
00000260: 6015 b8bd f586 543b 716c 26bd 8bde 2fb9
00000270: 548a 25bd 10d5 ccbd 0dac 69bd b1c2 a7bd
00000280: a39f 0639 cb91 abbd 1694 ae3b bdef ba3b
00000290: 0ba3 8cbb b738 9abd 44cc 8e3b 6f9c 05bd
000002a0: 73b4 aebd 8cfb acbd 9593 6abc 72e9 34bd
000002b0: fd3d 283a dc2b 44bc e277 7d3b 22ec b4bd
000002c0: e0f4 3ebc 346e a23b d2ae 8039 48ed 8ebd
000002d0: 3bed 0bbd e35e dcbb 4959 8abc c131 88bd
000002e0: 601b 493b 35c2 be3b 6be2 a0bd ee33 4cbd
000002f0: e221 d2bc f420 b2bc b382 e1b8 1804 e2bc
00000300: 776d b1bd 571b 90bd fc0a f63a b929 c23b
00000310: 6c0d 98bb 7ad0 06bd cc94 92bd 5844 abbc
00000320: f281 9dbd 7711 b5bd 31a2 a9bd 30ea 11bd
00000330: 4b19 58bd 3353 6fbd f5ca 42b8 68ec d0bc
00000340: 459c 15bc a3c6 97bd cca8 7abc f849 cd39
00000350: 8747 27bd 8a89 acba 645f e2bc 0bc9 be39
00000360: a0bd 653b bbf4 2ebd 5917 423b cceb abbd
00000370: d4f4 c0bd 1f4d b13b 3b2f 28bc d8c6 a0bd
00000380: a74f 49bd 4f04 99bd 6d16 88bd 1b71 b4bd
00000390: f47b e13b d34f 2bbb 4b7a fd3b abe8 97bd
000003a0: d988 a7bd 2546 a4bd cd3d c7bc 3f3b 1cbc
000003b0: f6ba c4bd 6ddb fd39 70f0 bcbd a194 bdbc
000003c0: f461 1dbd 0ba0 91bd 2fdf 12bc fc85 5339
000003d0: 9ce5 b9bd c974 c1bd abe5 a6bd ab00 adbd
000003e0: 4da6 123c 7fbe 80bd 8bb7 2db9 9dac 8e39
000003f0: b310 9bbd 59e9 bbbd afe5 273b 4a12 90b8
-0.03922671 -0.033304602 -0.04206739 0.009322667 0.0047578947 -0.021160409 -0.022970272 0.0067999274
-0.009166779 0.00017372359 -0.02876409 0.007957453 -0.024766214 -0.018056251 -0.03289048 -0.041728962
-0.0012772542 -0.012012673 -0.0005531056 -0.0042294627 -0.0027902261 0.0024097578 -0.027519127 -0.0038747573
-0.025736535 -0.016450187 -0.023570506 0.009975141 -0.025226709 -0.042430166 -0.0009349885 -0.036635563
-0.00023842664 -0.03787796 -0.0058609904 -0.0060087354 -0.0012259994 -0.035823442 -0.0003065497 -0.028760707
-0.0404372 -0.038139846 -0.012033157 -0.023691097 -0.0026739861 -0.011024579 -0.0011303438 -0.02587531
-0.0013148399 0.0076444196 -0.00063981774 -0.022190528 -0.02223638 0.0125188455 -0.0078131445 -0.040267043
0.008539847 0.005145221 -0.043845154 -0.026472744 0.0053809034 -0.0129842935 -0.0009273257 -0.023140011
-0.026399765 -0.026143495 0.0047736866 0.0050087958 -0.008907189 -0.028798845 -0.03871781 0.02294849
-0.02862034 -0.036151774 -0.030995216 -0.027222365 -0.02544934 -0.02226495 -0.002692546 0.022330642
-0.010794647 -0.044384677 0.017120123 -0.0035218615 -0.010306082 -0.0021864788 -0.012118326 -0.0002825457
0.0015209205 0.028329287 -0.002462897 -0.044900946 -0.029340563 -0.007038463 -0.010798884 -0.030330641
-0.024639182 -0.033630714 -0.017824033 -0.046844706 -0.0037246952 -0.032714073 -0.0014343001 -0.0069987546
-0.027125467 -0.02418704 -0.024596334 0.010664463 -0.043428555 0.001420144 -0.0041385787 -0.0007334996
-0.02453804 -0.029562043 -0.012279087 -0.0007991893 -0.039085295 -0.041499455 -0.03577727 -0.036727063
0.0047294796 -0.03492071 -0.0118924435 -0.011584874 -0.027835816 -0.02749622 -0.001464366 0.0068981014
-0.063261375 -0.05508825 -0.07161099 -0.052243587 0.004578644 -0.024418214 -0.081771605 0.0060762786
0.0005142967 -0.029813308 -0.04785182 0.004000129 -0.06865686 -0.031002367 -0.030776447 -0.07670815
-0.0011434164 -0.013291188 0.00017044507 0.008167002 -7.741188e-05 0.0038386465 -0.012558164 0.0030139522
-0.08988452 0.0032429073 -0.04063076 -0.00016772204 -0.040415123 -0.10001576 -0.057048846 -0.08191431
0.00012838705 -0.08377417 0.005327712 0.0057048486 -0.004291897 -0.07530349 0.0043578465 -0.03261989
-0.08530512 -0.08446416 -0.014317413 -0.044167943 0.00064179284 -0.0119733475 0.0038676192 -0.08834101
-0.011655062 0.004956985 0.00024544314 -0.069788516 -0.034161787 -0.0067251786 -0.016888278 -0.06650115
0.0030686483 0.005821491 -0.07855686 -0.04985421 -0.025650922 -0.021744229 -0.00010753181 -0.027589843
-0.08663457 -0.07036465 0.0018771584 0.005925384 -0.004640272 -0.032913662 -0.07157287 -0.020906612
-0.07690801 -0.08841222 -0.08282889 -0.03562373 -0.052758496 -0.058428954 -4.6442223e-05 -0.025503352
-0.009131496 -0.07410934 -0.015299033 0.00039155758 -0.0408397 -0.0013163548 -0.027633376 0.00036389413
0.0035055652 -0.042713862 0.0029615967 -0.08394584 -0.09421697 0.005410805 -0.010265167 -0.078504264
-0.049148228 -0.07471525 -0.066449024 -0.08810636 0.0068812314 -0.0026140108 0.0077355257 -0.07417425
-0.081803985 -0.080211915 -0.024321461 -0.00953561 -0.096059725 0.00048419405 -0.09225547 -0.02314216
-0.038423494 -0.07110604 -0.008964344 0.00020172441 -0.09076998 -0.09446103 -0.081492744 -0.08447393
0.008950782 -0.06286334 -0.00016566941 0.00027212958 -0.075715445 -0.09175367 0.002561908 -6.869862e-05

gru.bias_hh_l0 f4 [384]
00000000: ade3 1abd 666a 08bd ab44 2cbd 2974 813c
00000010: 3ee8 9b3b 9158 adbc d090 c2bc bace de3b
00000020: 7232 16bc e103 1e39 eea2 ebbc 0560 023c
00000030: 431f adbc ffea 93bc a4c1 06bd a716 2abd
00000040: ea69 a7ba 91cf 44bc 66fb 10ba 4797 8abb
00000050: 3cdb 36bb 22ea 1d3b 3bdc e0bc a5ef 7dbb
00000060: d304 d6bc b1a6 86bc 8d0f c1bc 23ed 243c
00000070: cdbf cebc 0260 2ebd 5b8f 07ba 5078 15bd
00000080: d9eb 79b9 4058 1bbd f20d c0bb d100 c3bb
00000090: 0c90 a0ba 86ce 12bd 58b7 a0b9 db9a ebbc
000000a0: ac9b 25bd 7635 1cbd e924 45bc bd13 c2bc
000000b0: e33d 2fbb 67a0 34bc 233f 94ba a594 c9bc
000000c0: ba57 acba be7d fa3b 00a6 27ba 4113 b7bc
000000d0: 1929 b6bc 3809 603c 1703 00bc 0430 25bd
000000e0: e1c9 0b3c f198 a83b 02f7 2fbd 59d5 d8bc
000000f0: ff08 b33b afbb 54bc 9112 73ba d78e bdbc
00000100: 2c8e d8bc c1ce d6bc 606c 9c3b 132a a43b
00000110: fb78 12bc d8eb ebbc 7c8d 1ebd 4838 bc3c
00000120: 1e75 eabc d326 14bd a455 fdbc 9201 dfbc
00000130: 0378 d0bc 3e50 b6bc 7a75 30bb acf0 b63c
00000140: 2bdc 30bc e7cb 35bd 7c3f 8c3c abcb 66bb
00000150: 22c7 28bc 964a 0fbb f08b 46bc 6523 94b9
00000160: ba5d c73a 0fa2 e53c e868 21bb a6e8 37bd
00000170: 0659 07bd d598 e6bb 8eed 30bc 052a fabc
00000180: 1fda c9bc 19c0 09bd d278 93bc c9e3 3fbd
00000190: 1adc 73bb 06fc 05bd edf2 bbba 31c8 4eba
000001a0: 827d dfbc 250f c9bc 8878 c9bc 66ba 2e3c
000001b0: 4427 33bd 932d ba3a 9e4b 80bc 6579 40ba
000001c0: 7504 c9bc c803 02bd 5f28 49bc 4184 51ba
000001d0: 9451 1dbd 8baa 28bd 9966 12bd 1b71 16bd
000001e0: b450 9b3b 2d05 0fbd 24be 42bc eeda 3dbc
000001f0: 0b8c e9bc 33d4 bbbc 243f c0ba c409 e23b
00000200: 7166 82bd 36cd 60bd fe5e 94bd 1de1 43bd
00000210: 02f9 953b b782 d5bc bc8f aabd 9b15 c73b
00000220: 91a7 063a 5b75 eebc c143 4abd 3208 833b
00000230: a31c 91bd a854 01bd 7256 f9bc b55b 9ebd
00000240: dff4 95ba a122 59bc 4d8b 3239 97ce 053c
00000250: 5558 a2b8 cfb9 7b3b 3d9e 56bc c3d3 463b
00000260: b25f b7bd 1083 543b 6d30 28bd ff69 08b9
00000270: 0a47 33bd 6d15 cebd 730e 6dbd 7e66 a6bd
00000280: 20a2 0639 9a6d a6bd d28d aa3b a5da bb3b
00000290: c7ad 8cbb f776 9cbd 80cb 8e3b b386 07bd
000002a0: cea9 afbd c23c acbd b54e 6bbc 9016 35bd
000002b0: 3c44 283a 93d2 44bc d077 7d3b 3ac7 bbbd
000002c0: 8e6d 3fbc a06d a23b 3cb9 8039 c62e 8ebd
000002d0: 4279 0bbd d44e d4bb 3251 87bc 552e 8cbd
000002e0: e021 493b 71c5 be3b 259e a0bd fda8 4dbd
000002f0: 2430 f1bc 96e3 b1bc ef77 e1b8 a134 e5bc
00000300: 1df9 b2bd 12e7 93bd 820b f63a 572d c23b
00000310: f799 a1bb cf1e 06bd bdf7 92bd 2934 abbc
00000320: 5ca7 9cbd b1ef b7bd c81f aebd b193 07bd
00000330: 689c 56bd e63f 71bd 0ed7 3eb8 f8dd d0bc
00000340: efbe 17bc 6f87 94bd 41af 7abc 3963 cd39
00000350: 29d9 27bd 3e41 acba 6baa e7bc ee45 be39
00000360: 648b 663b 987c 2bbd f73f 3f3b 2199 a8bd
00000370: 4815 c0bd 045d ae3b d912 28bc 809f a4bd
00000380: f297 4cbd 31f1 95bd 885d 88bd e25e b9bd
00000390: 177b e13b fdd9 e2b9 54cb 003c 4e1c 9cbd
000003a0: a24a a7bd c42a a4bd 5284 c2bc bf3c 1cbc
000003b0: 90fd c2bd 38d4 fd39 d10f bdbd 4ed8 c4bc
000003c0: 0a7b 15bd c843 94bd c66e fcbb 01b2 5339
000003d0: 30e0 babd 9662 c1bd 1017 aabd 21b8 a3bd
000003e0: e3ac 123c 0a69 88bd f79d 2db9 ba89 8e39
000003f0: d08f 97bd da2f bbbd 5f90 273b 5c94 91b8
-0.037814785 -0.033304594 -0.042057674 0.01580246 0.00475791 -0.021160396 -0.023750693 0.006799546
-0.009167301 0.00015069499 -0.028764214 0.007957463 -0.02113307 -0.01805639 -0.032899514 -0.04152551
-0.0012772654 -0.012012378 -0.00055306253 -0.0042294594 -0.002790167 0.0024095853 -0.027448764 -0.0038747576
-0.026125347 -0.016436907 -0.023566986 0.010066303 -0.025237942 -0.04257203 -0.0005171203 -0.036491692
-0.0002383435 -0.03792596 -0.0058610374 -0.005951025 -0.001224996 -0.035841487 -0.0003065418 -0.028760364
-0.040431663 -0.03813692 -0.012032726 -0.023691053 -0.0026739768 -0.011024571 -0.001131032 -0.024607012
-0.0013148703 0.007644384 -0.00063952804 -0.022348048 -0.022236394 0.013674073 -0.007813237 -0.040328994
0.008532018 0.005145185 -0.042960174 -0.02646892 0.005463719 -0.0129842 -0.0009272481 -0.0231394
-0.02643498 -0.026221635 0.0047736615 0.0050098985 -0.008939977 -0.028798983 -0.03870915 0.022976056
-0.028620299 -0.03616984 -0.030924626 -0.027222428 -0.025447851 -0.02225506 -0.002692549 0.022331558
-0.01079468 -0.04438391 0.017120115 -0.003521661 -0.010301383 -0.0021864525 -0.012118325 -0.0002825513
0.0015210428 0.028031377 -0.002462918 -0.044899605 -0.033043884 -0.007037262 -0.010798825 -0.030537615
-0.024640141 -0.033630464 -0.018001948 -0.046848092 -0.0037210048 -0.03271105 -0.0014339365 -0.0007888107
-0.027281526 -0.024543354 -0.024593607 0.010664558 -0.04373862 0.0014204256 -0.015661057 -0.0007342308
-0.024538258 -0.031741887 -0.012277692 -0.00079924247 -0.038407877 -0.041178267 -0.035742376 -0.03672896
0.004739845 -0.034917045 -0.011886153 -0.011587841 -0.02850916 -0.022928333 -0.0014667255 0.006898137
-0.063671954 -0.054883204 -0.07244681 -0.047822107 0.004576803 -0.026063306 -0.083281964 0.0060755736
0.00051366637 -0.029108694 -0.04938102 0.0039987797 -0.0708554 -0.031574875 -0.030436728 -0.077323355
-0.0011440775 -0.013252885 0.00017027296 0.008166931 -7.741215e-05 0.003841031 -0.01309925 0.0030338622
-0.08953799 0.0032426752 -0.041061807 -0.00013009457 -0.04376892 -0.100626804 -0.057875108 -0.081250176
0.00012839632 -0.081263736 0.0052048946 0.0057328516 -0.004293177 -0.07639878 0.004357755 -0.033087444
-0.085773095 -0.08410026 -0.014362027 -0.04421097 0.0006418859 -0.012013095 0.003867615 -0.09168859
-0.011683835 0.004956916 0.00024552073 -0.06942515 -0.034051187 -0.0064791236 -0.01651821 -0.06844775
0.0030690357 0.0058218767 -0.07842664 -0.050209988 -0.0294419 -0.021714967 -0.000107511754 -0.027979197
-0.08738921 -0.072218075 0.001877174 0.005925815 -0.004931684 -0.032744225 -0.071761586 -0.020898895
-0.07649109 -0.089812644 -0.085021555 -0.033099834 -0.052395254 -0.05889883 -4.5499815e-05 -0.025496468
-0.009261831 -0.072523944 -0.015300573 0.00039174574 -0.040978584 -0.0013142002 -0.028279504 0.00036291726
0.0035178298 -0.04186687 0.0029182413 -0.08232332 -0.09379059 0.005321147 -0.0102584 -0.08038235
-0.049949594 -0.07321394 -0.06658465 -0.090513006 0.0068811285 -0.00043268493 0.007860977 -0.07622586
-0.08168532 -0.080159694 -0.023744736 -0.009535967 -0.095210195 0.00048414036 -0.09231532 -0.024028923
-0.036494292 -0.07239491 -0.007703635 0.0002018884 -0.091247916 -0.09442632 -0.0830518 -0.07994104
0.008952352 -0.066606596 -0.00016557412 0.00027186965 -0.07400477 -0.09139986 0.002556823 -6.941773e-05

linear2.weight f4 [3, 128]
00000000: 6816 943d 7d03 9f3d 00f6 56be 15e3 51bd
00000010: f7a5 e3bd ef41 943d 6b51 39be 7d6a 78bc
00000020: 73ef 92bb c94d b83d fe80 bb3d e734 133b
00000030: f284 bfbd d69f 63bb 60c3 0dbe 5c7c 273b
00000040: e6c1 613b e27e 46bd 21dc c53a a3fb 233d
00000050: d7b8 2a3d 99f9 a239 7838 853d 1980 4bbd
00000060: b9a3 3f3e 2497 d03c a8e0 6d3d 43c5 903d
00000070: 92bf 7cbc 434d 07be e262 1f3e e2f2 923d
00000080: a8da 003d 20a5 eabd c430 e33b 6472 13bd
00000090: fd15 debd 538f d53d 3b55 763b c9f0 a83d
000000a0: 2f93 cdbd 6802 6d3e 4ba7 2f3c a49b a8bd
000000b0: 5109 0a3d 53b3 833d 8b18 05bd 2bb4 45be
000000c0: 8227 00be df85 293d 1562 3bbc bd52 09be
000000d0: a6e5 213d 29ef dbbd 1aff f9bc 574f a53d
000000e0: 2570 a83d 0346 323d 57a3 87bd 8f70 683d
000000f0: 6347 70bb 5446 1a3b 608e ef3c 9e80 e1bc
00000100: 8201 6c3e 73c3 34be 8481 1b3c cebc 893d
00000110: 073e 2ebc 0f64 75bd 9d17 03bd 4fab 97bd
00000120: 09f2 eb3d 1cce 8ebe 1905 f6bd 14bc b43d
00000130: 9ce5 433d bd01 3abe 07ee c23b cf32 953d
00000140: cb95 bc3d 5b80 953d 7e77 833d 56ca 553d
00000150: c87c d53d c045 8a3c 92d2 813d 10fc 153c
00000160: d368 8038 8134 15bd f10a 373d 22aa c73d
00000170: 5f2d 8abd 9098 023d 47b9 0abd a576 50be
00000180: 89ef f3bd 46a1 ffbd 04d2 2fbe 5259 a1bd
00000190: c736 39bb 4cfa 603d 9fc5 9a3c dc0c 323e
000001a0: c198 7fbe bfa5 453e f26e eebd 49df 66bb
000001b0: 9f0c 0cbe 42bb d2bb 2514 45be c2a2 953d
000001c0: 3c7c 2f3d 8011 303e 12da 963d 9fcb 0ebc
000001d0: cc1e 013e b8ae 92be 54bb 61be 5574 a73d
000001e0: 5869 763d 7161 bc3c e2c6 0bbb ab9d 38bd
000001f0: 5c59 bc3d bbe5 7c3e c594 38bd 5544 fbbc
00000200: cc0c 043e a666 a93d 8b5c fd3d a3c8 413e
00000210: a530 5cbd 9741 82bd c128 2a3e be2a 5dbc
00000220: 06eb 173c d746 6a3d 64a2 c13d 6599 7b3d
00000230: a00a 3a3e 5db3 d23c 1a3c 2b3e a9b7 6e3e
00000240: 2efb 913c 5139 35bd a796 f239 bd21 04bd
00000250: dbaf 1d3d 5089 9cbb 02be ddbd 1fe2 34bd
00000260: d51b 38be 8963 4c3c 24f3 08be 6706 90bc
00000270: 949b d5bd 9946 963e f4cd 94bd 10e3 76be
00000280: feae f93c 8ee4 5a3e 6924 733d 4681 59bb
00000290: cde5 97bc 1d03 0d3e e837 95bc 260b bc3d
000002a0: 8fdb 613e d1ce 08be 5d27 e73d 006e 8bbd
000002b0: 48d2 1d3d 6178 583d 91c0 a03a 6589 16be
000002c0: 2294 afbc 8256 263c 8ed6 98bc 5c0a fb3d
000002d0: 234d 12be 6c31 aebd 04c1 4dbc 75b8 af3d
000002e0: f907 f5bb 9107 0e3d bf3c 0abe 653e 5e3d
000002f0: 2fa5 0a3e b6a3 babb 072d 203d 1824 02bd
00000300: ecfd efbd 78b4 2fbd 2956 f1bc c06a 9bbc
00000310: 4b63 97bc ee98 ff3d e172 393e c3cb 3b3d
00000320: 44dc 19be 5bfa c33d 4270 473e a859 af3d
00000330: 9eca a9bc 1a96 72bb a172 a33c f360 383d
00000340: ce4e 303b d2be 3e3e 4b77 6abc cd13 353d
00000350: 9f76 acbd 622f 2b3c 14ae 303d c625 003c
00000360: 3745 a83b b9ab d93d 5afb 143d 5bee 62be
00000370: 66fe 993e 0ee9 70bc f015 e5bc 6593 b83d
00000380: 0b30 d23d f79b 173e e988 94bd a419 803e
00000390: fcb4 5a3d b35b e0bd 15ee 1e3b d93c c83d
000003a0: 2151 f23c 1357 8f3c cac1 db3d ddc5 75bd
000003b0: 48fd 843e 4078 5dbc 5e1c 553e e18c 0d3d
000003c0: d86a 853d cb30 793d 0a06 42bd a9bd f6bb
000003d0: b752 7abe 5fbb 203e a046 d13d 3ef0 60be
000003e0: fb8b 54bd cbb5 1f3e 4b45 8c3c d838 10bd
000003f0: 9d5b 33be a4c9 0ebe e33e febc 9373 413d
0.07230836 0.07764337 -0.20992279 -0.051241953 -0.1111564 0.07239138 -0.18097465 -0.015162108
-0.004484111 0.08999211 0.09155463 0.0022461952 -0.09351529 -0.003473272 -0.13844061 0.0025556302
0.0034447848 -0.04846085 0.0015095511 0.0400349 0.041680183 0.00031085013 0.06504911 -0.04968271
0.18714799 0.025462694 0.058075577 0.07068875 -0.015426533 -0.13213067 0.15565065 0.071752325
0.031458527 -0.11457276 0.0069333035 -0.035997763 -0.10844038 0.104277276 0.0037587422 0.08249051
-0.10037839 0.23145449 0.010721038 -0.08232811 0.03370029 0.06430688 -0.03249411 -0.1930701
-0.12515071 0.041387435 -0.011436959 -0.13410468 0.03952565 -0.107389756 -0.03051715 0.080717735
0.08224515 0.0435238 -0.066229515 0.05674797 -0.0036663644 0.0023540454 0.029242694 -0.02752715
0.2304745 -0.17652683 0.009491328 0.06725465 -0.010634906 -0.059909876 -0.03200494 -0.074057214
0.11520774 -0.27891624 -0.12012691 0.088249356 0.047826394 -0.18164726 0.005948785 0.072850816
0.09208258 0.072998725 0.06419276 0.052194916 0.10424191 0.016878963 0.06338991 0.009154335
6.123041e-05 -0.036427025 0.04468817 0.09749247 -0.06746935 0.031883776 -0.0338681 -0.2035776
-0.11910922 -0.12481932 -0.17169958 -0.078783646 -0.002826141 0.0549262 0.018893061 0.17387718
-0.24960615 0.19301508 -0.11642255 -0.0035228303 -0.1367669 -0.0064310143 -0.19245966 0.07306434
0.04284309 0.17194176 0.07365812 -0.008715539 0.12609404 -0.28648925 -0.22044116 0.081764854
0.060159057 0.022995682 -0.002132826 -0.04507224 0.091967314 0.2469701 -0.045063753 -0.030672232
0.12895507 0.08271532 0.12371167 0.18924193 -0.05375733 -0.063601665 0.16617109 -0.01349896
0.009272343 0.057196464 0.09454802 0.061425585 0.18168116 0.025720293 0.16722146 0.23312248
0.017819967 -0.044244114 0.00046270082 -0.032258738 0.038497787 -0.004777111 -0.10827257 -0.04416096
-0.17979367 0.012474903 -0.13374001 -0.017581178 -0.10430065 0.29350737 -0.07265845 -0.24110055
0.03047895 0.21376249 0.059360895 -0.0033188625 -0.018542195 0.13770719 -0.018215135 0.09181814
0.22056411 -0.13360144 0.11286805 -0.0680809 0.038530618 0.052849177 0.001226442 -0.1470085
-0.02143294 0.010152461 -0.018656995 0.12257835 -0.14287238 -0.0850552 -0.012558226 0.08580104
-0.007477757 0.034675185 -0.13499735 0.054258723 0.13539575 -0.0056957854 0.03910544 -0.031772703
-0.11718354 -0.042896718 -0.02946003 -0.0189718 -0.018479964 0.12480341 0.18110229 0.04584862
-0.15025431 0.09569236 0.19476417 0.085620224 -0.020726498 -0.0037015737 0.01995212 0.045014333
0.002690244 0.1862748 -0.014310668 0.044208337 -0.08421063 0.010448309 0.043134764 0.007821506
0.005135204 0.106284566 0.03637252 -0.22161238 0.30076903 -0.014704002 -0.027964562 0.09012488
0.1026307 0.1480559 -0.07252676 0.25019562 0.053395256 -0.1095499 0.0024250795 0.09777231
0.0295797 0.017497575 0.10730322 -0.06000315 0.25974488 -0.013517439 0.20811602 0.03455818
0.065145195 0.06083755 -0.04736904 -0.0075299335 -0.24445616 0.15696476 0.10218549 -0.21966645
-0.05189131 0.15596692 0.017122885 -0.03521046 -0.17515416 -0.13944107 -0.031035846 0.04722936

linear2.bias f4 [3]
00000000: dc8c f7bb a0fa 833d 63a7 b0bd
-0.0075546335 0.06444287 -0.086256765

linear1.weight f4 [42, 21]
00000000: 3c9e ee3d 2701 ee3c d205 0dbe 3fae 62be
00000010: f6cd a6bd d340 99bd ddea b0bd 2233 20be
00000020: 8a91 4a3e 00b2 673e f013 9b3e 7ba5 113e
00000030: 62e7 d5bd 3e9d 173e 524f 28be 2935 66be
00000040: a915 083b 5e62 e4bd 7181 c7ba 5e46 7abc
00000050: 9a57 5abe d5a7 1b3d fdde 7dbd a96f afbc
00000060: 7b33 08be 76e9 97bd 517f 95be 6fd7 80be
00000070: 55f1 c3bd 6e4d 05be 511f 123e 2178 813e
00000080: ecdf 8e3e e069 b33d 0033 163e acf6 87bc
00000090: a77e 1e3e 87c7 8abd 7c9d 35be 0658 943d
000000a0: 1333 5c3d 4736 833c 914c a4bb e663 023e
000000b0: d280 7f3d 25c4 943d e5d2 69be ad9f 5a3d
000000c0: d65b b1bd f568 163d fb3d 243e 31c1 813e
000000d0: 570a 353b cf1e 773e 76e2 203e 7507 1bbd
000000e0: ae31 b3be c694 86be 0288 23be 5329 a03c
000000f0: dca5 e4bc b6d8 1d3e 219c 03bd 4567 abbd
00000100: f7cc 6abe d50d 7d3d ad67 8d3d faa4 183e
00000110: fdf5 b43c 268f 36be 009d 82bd 2293 b4bd
00000120: af1b 393e 7d04 0ebc 72d8 d23e 2433 2e3e
00000130: 3a2c 463d 0e23 8ebd 785a 2e3e 9059 4bbc
00000140: 28ce 72be c0c7 53bd 5862 95bb 8e80 02be
00000150: 7fce 33be 374b f3bd 8832 e7bc cb05 53be
00000160: 9d5c b2bd ae99 7cbe 1e34 bbbe 5e6b 85be
00000170: 65ab 983c 94d7 f8bd a155 6d3e cdf3 693b
00000180: e4da 5b3e b4ee dbbc 6e2b f83d 9ead 393c
00000190: 9802 a23b e3c3 253e a9ea 063e ea88 243c
000001a0: a66c 1b3e 53c6 8ebc d77e 47be 9962 2dbe
000001b0: 1814 06be 06c9 8ebe 66dd 72be 10ae 5fbe
000001c0: 7064 c5bd dca9 503d ca38 23bd 8975 633e
000001d0: 37a4 543e 1fc0 8f3e fa7e f23d b044 073e
000001e0: 383c fabd 25b1 0f3e 7834 b43d a266 9e3c
000001f0: 4054 17be 8463 7fbd 06c6 4f3d fc87 18be
00000200: 4346 28bd 0d85 f3bd 1715 c3bd 5e19 dc3b
00000210: e688 26be 652e f0bd 03ef d33d 90b7 c6bd
00000220: 2a7c 763d bb9e de3b 3816 dcbd 734b ce3d
00000230: 5a1c c63c 90a3 463d 93e2 8bbd 2bdb 803d
00000240: 0e41 85bd 0127 e9bd 3349 f1bc 7e08 503e
00000250: 7733 973d 6dd3 5ebd 162d 2cbc 8179 88be
00000260: 6a95 98bc eda9 68be 2e01 133d de15 79bc
00000270: 02ef b63d 425b 5bbd cfc5 063d d92f dd3d
00000280: a582 843e 3f9d 763c 758f ac3d f021 4a3e
00000290: c7df 8c3c af8c 0b3e de56 a5bd 1cbd e7bd
000002a0: 63b1 44bc b78f 1c3e 4879 0c3e 1f4e 0d3e
000002b0: 2cec b63d 73ea 053e 36a6 543e 967b 513d
000002c0: 0d88 5f3e f30a ac3c 05b5 4ebd 8e49 fbbd
000002d0: 714b ecbd e219 a93c a2fe 80be c757 b1bd
000002e0: 09b3 1ebd ed9a 6cbe 380a 8dbe 8aca 9abc
000002f0: c6e1 c3bd eb82 cabc daa7 2ebe e6b7 b1bc
00000300: 2560 18be 4d89 783d 0152 913c 48db 3d3e
00000310: b85f dabd 32b5 58be c78e ebbe eebe 1bbe
00000320: 1e30 82be 4a98 c7bd fd51 983d c046 b23e
00000330: f729 40bd 9a97 eb3d 2917 36bb 738a 163e
00000340: 188f b73d fadb adbc dc7f 093e daa3 723b
00000350: 15fe 523e f172 b03c 1f49 11be a21b 863d
00000360: d0e9 03be 2b26 1ebe 6ff6 a9be c279 babe
00000370: 30fd d3be 74a7 15be 1710 d8bd 80a3 253c
00000380: 82b0 7a3e 9ecc 4c3e c5f9 2e3e 780b 9c3c
00000390: 6784 543e 95e7 db3d db2b d83d b137 31bd
000003a0: a501 9f3d b1ee 04be c4f2 393e f100 0b3e
000003b0: b711 773e a8c8 76bb 32fb 933d 35d7 23be
000003c0: 8c51 2ebe 59c6 18be c795 d3bb 956d f8bd
000003d0: f76b 483d 079b 50bd 4202 d83c a5b1 783e
000003e0: 2ac4 0b3c af9f 153e a913 813d 5abd 773d
000003f0: 5849 a23c e758 693e 560c ba3d da00 133d
0.116512746 0.029053284 -0.13771752 -0.22136782 -0.08144753 -0.07483067 -0.086385466 -0.15644506
0.19782081 0.22626495 0.3028865 0.14223282 -0.104445234 0.14806077 -0.16436508 -0.22481216
0.0020764864 -0.111515746 -0.0015221072 -0.015275566 -0.2132248 0.038001854 -0.061980236 -0.021415548
-0.13300888 -0.07417576 -0.29198697 -0.25164363 -0.09567515 -0.13017818 0.14269759 0.25286964
0.27905214 0.087604284 0.14667892 -0.016597115 0.15478002 -0.06776338 -0.17735857 0.07243352
0.053759646 0.016017092 -0.0050140102 0.1273342 0.062378712 0.07263974 -0.22834356 0.053374935
-0.086600944 0.03672119 0.16039269 0.25342706 0.0027624571 0.24132846 0.15711388 -0.03784891
-0.3499884 -0.2628538 -0.15969852 0.019550955 -0.02791112 0.154147 -0.032131318 -0.083693065
-0.2292975 0.06178077 0.0690454 0.14906684 0.022089953 -0.17828044 -0.063776016 -0.08817126
0.18076967 -0.008668062 0.4118076 0.17011696 0.04838202 -0.0694028 0.17026699 -0.01241149
-0.23711455 -0.05170417 -0.0045588426 -0.12744352 -0.17559241 -0.118795805 -0.028222337 -0.20607679
-0.08709071 -0.24667999 -0.365632 -0.26058477 0.018636415 -0.12150493 0.23177196 0.0035698295
0.21470219 -0.026847221 0.121176586 0.0113328975 0.004944157 0.16188006 0.13175453 0.0100424085
0.15178165 -0.017428553 -0.1948198 -0.16932143 -0.13093603 -0.27887744 -0.2371727 -0.21843743
-0.096382976 0.05094324 -0.03984908 0.22212805 0.20765768 0.28076264 0.11840625 0.13209796
-0.12218517 0.14032419 0.0879907 0.019336049 -0.14778233 -0.062350765 0.05072596 -0.14895624
-0.04108263 -0.11890612 -0.09525507 0.006716891 -0.1626316 -0.11727599 0.10348322 -0.097029805
0.060177006 0.0067938245 -0.107464254 0.100729845 0.024183441 0.04849583 -0.06830325 0.06291803
-0.06506549 -0.113843925 -0.02945385 0.2031574 0.07382863 -0.05440085 -0.010508796 -0.266552
-0.018625934 -0.22721072 0.035889797 -0.015202967 0.08932306 -0.053553827 0.03290349 0.10800142
0.25880924 0.015052139 0.084258 0.19739509 0.01719655 0.13627885 -0.08073209 -0.113153666
-0.012005183 0.15289198 0.1371814 0.13799332 0.08931765 0.13077717 0.2076653 0.05114325
0.21829243 0.021001315 -0.050465602 -0.12269889 -0.11537827 0.020642225 -0.2519427 -0.0865932
-0.03874496 -0.23105974 -0.2754686 -0.018895406 -0.09564547 -0.02472063 -0.17056218 -0.021694135
-0.14880426 0.060677815 0.017739298 0.1854068 -0.10662788 -0.2116287 -0.46007368 -0.15209553
-0.25427336 -0.09745844 0.07437513 0.34819603 -0.04691502 0.11503525 -0.00277848 0.14701252
0.0896284 -0.021223057 0.1342768 0.0037023933 0.20604737 0.021539183 -0.1418805 0.06548239
-0.12882161 -0.15444247 -0.33195826 -0.3642102 -0.41404104 -0.1461466 -0.10549944 0.010109782
0.24481395 0.1999993 0.17087467 0.019048437 0.20753632 0.1073753 0.1055524 -0.043266002
0.077639855 -0.12981679 0.18159014 0.13574578 0.24127851 -0.0037656222 0.07225646 -0.16000064
-0.17023295 -0.14919414 -0.006457064 -0.12130276 0.04893109 -0.050929096 0.026368264 0.24286516
0.008530656 0.14611696 0.06302578 0.060483314 0.019810364 0.2278782 0.09084384 0.035889484

linear1.bias f4 [42]
00000000: 02cb 843e f157 a4bc 96ee 2b3e 85b2 08bc
00000010: db14 123e 4165 6a3e 2004 16bd 8cfb 57bd
00000020: 973b 88bd 2917 3d3d 77b4 c03e c32d 183e
00000030: e049 cfbc af90 593e 0dfd ffbc 6f50 8abd
00000040: 3609 7b3e 9812 a43e 2141 163e 39e8 6b3e
00000050: 8035 483e 3745 1fbd 05cf 943e 4a33 3f3d
00000060: f01d bfbd 0f65 833e 30d2 703e 673e d53d
00000070: e76a 813e fee9 d8bc 1b24 2e3e 3667 9cbd
00000080: 1aa0 823e 35a2 4ebd e33a d53e 0248 85bd
00000090: c445 7dbc 2448 6a3e 7ae6 5a3d 49e2 f3bd
000000a0: adfe 5d3d 2d5d 333d
0.25936133 -0.020061465 0.16790232 -0.008343344 0.14265768 0.22890188 -0.036625028 -0.05273013
-0.06651991 0.046164665 0.37637684 0.14861207 -0.025303781 0.21246599 -0.031248594 -0.06753623
0.24515232 0.32045436 0.14673282 0.23037805 0.19551659 -0.038884368 0.29064193 0.046679772
-0.09331882 0.2566304 0.2351768 0.10412293 0.25276873 -0.026478764 0.1700596 -0.076368734
0.25512773 -0.05044766 0.4164649 -0.06507875 -0.015458528 0.22879082 0.053442456 -0.11908395
0.054197956 0.04379003
