model_parameter/weather_pretrained_GRU.pth (torch, 218036 bytes, 8 tensors)

gru.weight_ih_l0 f4 [384, 8]
-0.017664721 0.0066459575 0.010019559 -0.11117782 0.06295564 -0.10435618 0.012786077 0.0116088055
0.028300729 -0.07132965 -0.014695026 -0.093196705 0.040503316 -0.010743931 -0.03473024 -0.025925916
0.09815688 0.10212735 0.060372666 0.04786099 0.041080415 -0.032575544 0.021027455 0.016649388
-0.024204908 0.032724038 -0.014360001 -0.01647125 0.06846158 -0.045565993 -0.0061295955 0.061067764
0.09092246 0.06276877 -0.03072745 -0.15964311 0.12837419 -0.0023463983 -0.08786997 0.05515851
0.07723998 0.019019552 0.018986082 -0.014173578 0.012630345 0.011801121 0.021878256 0.011519524
0.029535135 -0.03837828 0.012681998 -0.11690882 0.04060458 0.016731868 -0.06426794 -0.009990501
-0.06170783 -0.06867834 -0.095390245 -0.013907684 -0.06027308 -0.021790737 0.02325391 -0.023215463
0.010235278 0.0880945 0.08281895 -0.028153084 0.06816048 0.0055931886 0.013554646 0.028356146
-0.057454355 0.0076720496 -0.08451047 -0.028516412 -0.04487982 0.0051153568 0.015057481 -0.02092535
0.04937537 0.032773044 -0.08697281 -0.17201914 0.044531304 0.0010254799 -0.07952167 0.026790993
-0.008501444 0.030865138 -0.0034254338 -0.12089944 0.040778983 0.0480506 -0.0092032 0.05700316
-0.019185837 -0.020691428 0.017579447 0.06468335 -0.02587273 0.07330034 0.07654559 0.0033154988
0.004634988 0.012798998 -0.012485017 -0.015584331 0.014423965 0.0359639 0.026577085 0.0016854965
0.046099786 0.07829458 -0.012320382 -0.08901766 0.039724596 -0.029948955 -0.05686652 0.035842355
0.033400297 0.058598284 0.1170965 -0.0814504 0.05781992 -0.00047562216 -0.057392705 0.026818475
0.06397471 -0.009129701 0.07042898 0.04631011 0.018253779 0.01873751 0.046601098 -0.01251124
-0.058817428 0.03946096 -0.03500077 0.072460726 -0.049037136 0.012734057 0.072000824 -0.029240785
0.04851112 0.012214195 -0.0953049 -0.10759424 0.0077411304 -0.01854822 -0.063357726 0.005646332
-0.07952921 -0.046244036 -0.047586497 0.02812651 -0.050789922 -0.03943224 0.05189345 0.0016241812
0.006872451 -0.075847134 0.0073442655 0.008837825 0.054295514 -0.04488229 0.01664644 -0.021900304
0.0021165658 -0.07793495 0.05076925 -0.095195405 0.023299374 0.03329503 -0.01511477 0.009738273
-0.007903906 0.04332083 0.10621245 -0.01684723 0.057406988 -0.07228897 0.022978527 0.045909483
0.020305468 -0.03073965 0.032063026 -0.036996704 0.016463043 -0.014716359 -0.019774865 -0.002511144
0.0302444 0.054385394 -0.08689477 -0.015517046 0.028625254 0.02091726 0.04479321 -0.051496163
-0.01784089 -0.09155853 -0.038210995 -0.10589942 0.0770044 -0.07799142 0.013658523 -0.079160556
-0.016024949 0.01025127 0.015925623 -0.009551726 -0.018405216 -0.0047205286 -0.0065100365 -0.02697938
0.04266566 0.02289538 0.026678974 -0.005497215 0.07657758 0.039638463 0.01423619 0.029813318
-0.004873962 -0.06918075 -0.065227576 -0.009791221 -0.004591247 0.0103304945 -0.022305127 -0.010292776
0.0307326 0.046716888 -0.020089395 -0.07082742 0.089886695 0.08831739 -0.06292375 0.031001778
-0.05683903 0.008567315 -0.01322374 0.09452646 -0.036805168 -0.0046816785 0.0663203 -0.039638206
-0.08045871 -0.031024827 -0.008893085 0.059194714 -0.057032093 0.022401687 0.0021570628 -0.017253138
00000000: 9bb5 90bc 55c6 d93b 1429 243c 32b1 e3bd
00000010: e3ee 803d b1b8 d5bd b27c 513c dc32 3e3c
00000020: eed6 e73c 4815 92bd 68c3 70bc eadd bebd
00000030: cee6 253d 5007 30bc 4c41 0ebd 9662 d4bc
00000040: 7906 c93d 2528 d13d 5449 773d e309 443d
00000050: f043 283d ef6d 05bd c541 ac3c 4c64 883c
00000060: 5f49 c6bc a409 063d 3646 6bbc b7ee 86bc
00000070: 9635 8c3d 68a3 3abd c6da c8bb 3122 7a3d
00000080: 8e35 ba3d ea8c 803d 22b8 fbbc 7c79 23be
00000090: 8674 033e 08c6 19bb 2cf5 b3bd e4ed 613d
000000a0: ff2f 9e3d e4ce 9b3c b388 9b3c 4b38 68bc
000000b0: 82ef 4e3c 7d59 413c 073a b33c 63bc 3c3c
000000c0: abf3 f13c 8b32 1dbd 28c8 4f3c e46d efbd
000000d0: fd50 263d 4511 893c e99e 83bd 33af 23bc
000000e0: 59c1 7cbd 3ba7 8cbd f65b c3bd 0edd 63bc
000000f0: e8e0 76bd 7d82 b2bc fc7e be3c 5b2e bebc
00000100: deb1 273c e46a b43d fb9c a93d 4ca1 e6bc
00000110: b997 8b3d 1147 b73b 4e14 5e3c 264b e83c
00000120: 4255 6bbd d165 fb3b d313 adbd 409b e9bc
00000130: e7d3 37bd b99e a73b a7b3 763c a46b abbc
00000140: d43d 4a3d 073d 063d cd1e b2bd c925 30be
00000150: 7566 363d 6569 863a 42dc a2bd c978 db3c
00000160: a449 0bbc e3d8 fc3c 3e7d 60bb 209a f7bd
00000170: dd07 273d b5d0 443d 05c9 16bc 257c 693d
00000180: 9e2b 9dbc 1281 a9bc c602 903c b478 843d
00000190: 0cf3 d3bc 7d1e 963d efc3 9c3d d748 593b
000001a0: 19e1 973b e3b2 513c f58d 4cbc 6c55 7fbc
000001b0: 7e52 6c3c e24e 133d 30b8 d93c e1eb dc3a
000001c0: 21d3 3c3d e958 a03d 6ddb 49bc e44e b6bd
000001d0: 42b6 223d 8357 f5bc deec 68bd 6fcf 123d
000001e0: c0ce 083d c104 703d 4ad0 ef3d 78cf a6bd
000001f0: 95d4 6c3d ed5c f9b9 9d14 6bbd 6bb2 db3c
00000200: 2c05 833d be94 15bc 123d 903d abaf 3d3d
00000210: f388 953c 687f 993c cbe0 3e3d f2fb 4cbc
00000220: 8bea 70bd d1a1 213d f85c 0fbd 4a66 943d
00000230: 2adb 48bd 82a2 503c 2b75 933d 5f8a efbc
00000240: 99b3 463d 0c1e 483c 372f c3bd 5e5a dcbd
00000250: 4fa9 fd3b 70f2 97bc b2c1 81bd de04 b93b
00000260: 36e0 a2bd 636a 3dbd 0fea 42bd 9169 e63c
00000270: 1809 50bd b383 21bd 3a8e 543d 7ae2 d43a
00000280: 4c32 e13b be55 9bbd 2aa8 f03b 86cc 103c
00000290: f964 5e3d 7ed6 37bd 1d5e 883c 4468 b3bc
000002a0: 15b6 0a3b 5c9c 9fbd 6bf3 4f3d cff5 c2bd
000002b0: 54de be3c 5f60 083d f1a3 77bc 478d 1f3c
000002c0: 627f 01bc 2f71 313d ea85 d93d 3403 8abc
000002d0: 9723 6b3d 3d0c 94bd 773d bc3c 950b 3c3d
000002e0: a757 a63c b8d1 fbbc 8554 033d db89 17bd
000002f0: 81dd 863c e21c 71bc e6fe a1bc 0192 24bb
00000300: 1bc3 f73c 38c3 5e3d e3f5 b1bd 353b 7ebc
00000310: 827f ea3c ac5a ab3c 1679 373d a4ed 52bd
00000320: 0f27 92bc 0a83 bbbd 2283 1cbd cce1 d8bd
00000330: 7cb4 9d3d f7b9 9fbd ffc7 5f3c ee1e a2bd
00000340: c146 83bc f1f4 273c 7476 823c d87e 1cbc
00000350: 89c6 96bc aaae 9abb 2552 d5bb dc03 ddbc
00000360: 30c2 2e3d 188f bb3c dd8d da3c fb21 b4bb
00000370: b5d4 9c3d f15b 223d e93e 693c 0f3b f43c
00000380: c2b5 9fbb a3ae 8dbd 0996 85bd 5b6b 20bc
00000390: 2c72 96bb 3c41 293c 3eb9 b6bc 08a3 28bc
000003a0: efc2 fb3c 355a 3f3d 8492 a4bc f70d 91bd
000003b0: 8416 b83d bfdf b43d 2bde 80bd 71f7 fd3c
000003c0: 0bd0 68bd ec5d 0c3c 63a8 58bc 1797 c13d
000003d0: 04c1 16bd c468 99bb f0d2 873d ac5b 22bd
000003e0: 89c7 a4bd c727 febc 4db4 11bc 2876 723d
000003f0: 7c9a 69bd be83 b73c 825d 0d3b 7456 8dbc

gru.weight_hh_l0 f4 [384, 128]
-0.0024769185 -0.034041032 -0.032019805 -0.002939005 -0.021415569 0.035464544 0.026502026 -0.005480127
-0.006619396 -0.039571337 0.015939318 -0.012219889 0.016802294 -0.018675197 0.0072833966 0.02462059
0.0034928573 -0.021038378 0.03029225 -0.012236732 -0.024511116 -0.047306858 0.023493802 0.033057865
-0.006538697 -0.019864285 -0.028933562 -0.012944629 -0.043902036 -0.009669873 0.005562381 0.0033174842
-0.005867127 -0.024099322 0.00052056776 0.025043411 -0.008200588 -0.05746735 -0.006783002 -0.009798151
-0.007488372 -0.015102201 0.0008023932 -0.004458978 -0.0192945 0.0061157434 -0.026863853 -0.023314169
0.043099027 0.009756734 0.011342263 0.0110589955 -0.047528848 -0.024259493 -0.037804857 -0.02484562
0.006905009 0.017940134 -0.027729876 -0.028966641 0.037838347 0.014733279 -0.02622795 0.043866295
-0.006676 0.008187626 0.02874518 -0.03279832 0.0020269374 0.035548665 -0.013481857 0.02137477
0.032328255 -0.0029652594 -0.016749406 0.018842168 0.003155035 0.04469144 0.025205417 -0.0050877933
-0.02080215 -0.022419924 0.032428473 0.02048855 -0.05317625 0.016213471 -0.0024977676 0.022854686
-0.01200433 0.0060194987 -0.0018675465 0.001504024 0.00083870156 -0.032667115 0.01005008 0.019028489
0.030570852 0.0204798 0.0074584004 -0.006598337 -0.044520445 -0.024961365 -0.027581798 0.001339784
-0.012354612 0.02658808 0.027734749 0.03243322 -0.011348026 0.013264957 0.042847324 -0.04188001
0.0018942358 0.0424403 -0.0075559667 0.007193094 -0.039593667 0.015210281 -0.028621783 -0.030540451
-0.057670355 -0.003122679 0.027096456 0.0023398844 -0.021126132 -0.03209097 0.023731183 0.00078596664
0.00079430075 -0.018648349 0.010207491 0.010469165 0.0006071569 0.02092741 -0.056231797 -0.011869944
-0.010481429 0.009360621 0.005731403 9.0700974e-05 0.030164704 0.011862569 -0.0031704276 0.028890222
0.0012718178 0.03786199 0.009359989 0.0029037036 -0.0011212763 -0.011073198 0.028939167 -0.0077153603
0.004004483 -0.015890827 -0.009687219 -0.028735727 0.022706712 -0.01562236 -0.015049615 0.0065376526
0.0017347988 -0.0002127452 0.0057462477 -0.047204286 0.022846969 0.034220386 -0.017734665 -0.0013695601
-0.027526341 0.0055158907 0.018188259 -0.003591433 -0.03403395 0.02149205 0.010378645 -0.0045401044
-0.004829781 0.016630698 -0.0010650087 0.020704526 0.009066174 -0.006498853 -0.014934341 0.020526072
0.008065543 0.011530839 0.0032221922 0.0006511611 0.0038921097 0.0034955414 -0.048592974 0.00042856517
-0.010573622 -0.02434834 -0.012819679 -0.016134659 -0.033787798 0.0327505 -0.0073163942 -0.010026898
-0.009309252 0.031077975 0.0110816695 -0.028896376 0.004266034 -0.01721451 0.0069441185 -0.021715699
-0.009082487 0.02714658 0.02472352 0.012285123 0.009682407 -0.004564881 0.006766425 0.005526083
-0.006977873 -0.012725201 0.003284081 0.0014800065 -0.022275694 0.008360316 -0.021124266 0.0532689
-0.008091655 0.0034930664 -0.024399923 -0.015419126 0.011782416 0.01982057 -0.0015982953 -0.024386652
0.03016199 0.008293381 0.0026923942 -0.00066255603 -0.007537352 -0.011657924 -0.0236022 -0.0051196218
0.006204152 -0.055135317 0.0058294698 0.0017057334 -0.016207857 -0.020824159 -0.016045474 -0.022199145
0.02098621 0.0051380796 -0.012889891 0.058166333 -0.0024270178 -0.010554981 0.008634927 -0.0019213012
00000000: cc53 22bb 9c6e 0bbd 3327 03bd 529c 40bb
00000010: b46f afbc 4543 113d c71a d93c a392 b3bb
00000020: 85e7 d8bb 8e15 22bd 2c93 823c ee35 48bc
00000030: f7a4 893c bafc 98bc 8fa9 ee3b 1fb1 c93c
00000040: 6ce8 643b ad58 acbc 7427 f83c 937c 48bc
00000050: 89cb c8bc d6c4 41bd 1376 c03c af67 073d
00000060: 9142 d6bb 6dba a2bc 1406 edbc b615 54bc
00000070: 9fd2 33bd 636e 1ebc a244 b63b 266a 593b
00000080: 0741 c0bb f16b c5bc b676 083a d727 cd3c
00000090: c25b 06bc e262 6bbd f243 debb 6d88 20bc
000000a0: 0461 f5bb 396f 77bc b257 523a 9e1c 92bb
000000b0: 800f 9ebc 9366 c83b 9511 dcbc 5bfd bebc
000000c0: 9b88 303d b5da 1f3c e6d4 393c ca30 353c
000000d0: 9cad 42bd d8bb c6bc 44d9 1abd 0b89 cbbc
000000e0: 6a43 e23b 30f7 923c c429 e3bc 734b edbc
000000f0: 62fc 1a3d da63 713c ffdb d6bc 25ad 333d
00000100: 59c2 dabb 6425 063c 037b eb3c 8857 06bd
00000110: 5ed6 043b 7a9b 113d 02e3 5cbc 241a af3c
00000120: a26a 043d cc54 42bb 0d36 89bc e45a 9a3c
00000130: b4c4 4e3b 5f0e 373d 977b ce3c 81b7 a6bb
00000140: 4569 aabc fda9 b7bc b8d3 043d 9bd7 a73c
00000150: 57cf 59bd 1dd2 843c 96b1 23bb c039 bb3c
00000160: cfad 44bc 373f c53b 76c8 f4ba ac22 c53a
00000170: 4fdc 5b3a f4cd 05bd 17a9 243c a2e1 9b3c
00000180: b96f fa3c 41c5 a73c 9965 f43b dd36 d8bb
00000190: 125b 36bd c77b ccbc 39f3 e1bc b19b af3a
000001a0: 006b 4abc 3fcf d93c fc33 e33c b2d8 043d
000001b0: 12ed 39bc 4355 593c ad80 2f3d 608a 2bbd
000001c0: 0248 f83a e1d5 2d3d 0b98 f7bb 0cb4 eb3b
000001d0: f82c 22bd 8b34 793c 3b78 eabc f82f fabc
000001e0: c037 6cbd dca5 4cbb 63f9 dd3c bf58 193b
000001f0: b610 adbc d271 03bd e667 c23c 5409 4e3a
00000200: 9f38 503a 6cc4 98bc 523d 273c dc86 2b3c
00000210: 9c29 1f3a f66f ab3c 5053 66bd 277a 42bc
00000220: 4dba 2bbc 4a5d 193c 7ece bb3b b736 be38
00000230: f81b f73c 385b 423c f3c6 4fbb 30ab ec3c
00000240: 20b3 a63a 2d15 1b3d a45a 193c 104c 3e3b
00000250: caf7 92ba 5c6c 35bc d511 ed3c 22d1 fcbb
00000260: 0a38 833b 7b2d 82bc 24b7 1ebc 3067 ebbc
00000270: 6d03 ba3c edf4 7fbc a992 76bc ce39 d63b
00000280: 3062 e33a 5b14 5fb9 054b bc3b 4859 41bd
00000290: 9129 bb3c ad2a 0c3d 4a48 91bc d082 b3ba
000002a0: ec7e e1bc a5be b43b 8bff 943c 3f5e 6bbb
000002b0: 2f67 0bbd 1810 b03c 310b 2a3c 28c5 94bb
000002c0: 2443 9ebb 1a3d 883c c397 8bba 8a9c a93c
000002d0: 4a8a 143c 55f4 d4bb 2baf 74bc 4b26 a83c
000002e0: 5725 043c d8eb 3c3c 6a2b 533b afb2 2a3a
000002f0: c412 7f3b 7415 653b 6d09 47bd 0bb1 e039
00000300: fc3c 2dbc 2c76 c7bc a209 52bc d52c 84bc
00000310: 1365 0abd 6325 063d 5dbe efbb dc47 24bc
00000320: d585 18bc 3d97 fe3c e48f 353c 18b8 ecbc
00000330: 16ca 8b3b 7205 8dbc 7d8b e33b 1fe5 b1bc
00000340: b6ce 14bc 8162 de3c fb88 ca3c 8a47 493c
00000350: f5a2 1e3c ff94 95bb e3b8 dd3b 2514 b53b
00000360: a4a6 e4bb 5d7d 50bc bc39 573b c7fc c13a
00000370: 847b b6bc b5f9 083c cc0c adbc 7d30 5a3d
00000380: dc92 04bc eeeb 643b 59e2 c7bc 80a0 7cbc
00000390: 090b 413c bf5e a23c e47d d1ba 84c6 c7bc
000003a0: 4716 f73c f6e0 073c e172 303b 62af 2dba
000003b0: e4fb f6bb e100 3fbc 6759 c1bc 80c2 a7bb
000003c0: 334c cb3b 92d5 61bd 2305 bf3b ea92 df3a
000003d0: 57c6 84bc 6d97 aabc cc71 83bc fbda b5bc
000003e0: 46eb ab3c 565d a83b 1f30 53bc d23f 6e3d
000003f0: 9a0e 1fbb cdee 2cbc 8279 0d3c 2cd4 fbba

gru.bias_ih_l0 f4 [384]
0.056607157 -0.02350542 0.09828205 0.045346644 0.060733575 -0.036392927 0.011940398 -0.02397528
0.08253721 -0.004968848 -0.04186732 -0.058598496 0.05788951 0.031394344 -0.052658197 0.042019024
0.00065311673 -0.0049543437 -0.043765984 -0.024363885 0.010362082 -0.004775956 0.035202798 -0.013176921
0.027089365 -0.025530487 -0.0022461556 0.049379848 0.008059702 0.015962757 0.017511703 0.022710815
0.018154863 -0.0026109684 0.058254704 0.025675025 0.024500161 0.052589934 -0.005449022 0.068330325
0.05484539 -0.029082758 -0.054081645 -0.05813824 0.06441731 0.05811377 -0.00028640582 0.032359425
-0.059231546 -0.0044167573 0.023686523 0.029793236 0.03315387 0.06636081 0.0063949698 0.028565863
-0.032789335 -0.0062124343 -0.012089253 -0.009108241 0.017473025 0.039161704 -0.0018106145 -0.006859445
-0.01173472 0.059248168 -0.012913218 0.033590972 -0.02263219 0.07256608 0.00014523632 0.016506258
-0.06003249 0.03274583 -0.02314836 0.037257746 -0.027979562 0.047154907 0.025008101 0.013128302
-0.0073566227 -0.03687819 -0.038180444 -0.060397644 0.06184345 -0.032038677 0.045404516 0.04067292
0.013498845 0.0040224814 0.041504387 -0.01592918 -0.0076060514 -0.051423736 -0.0122408485 -0.02041583
-0.02547744 -0.07304429 0.063284986 0.040961817 0.06444549 -0.058205143 0.0065687806 -0.007348422
0.0063088518 -0.012523387 -0.027921634 0.013395286 0.07235347 0.01030238 0.010438432 -0.011297195
0.05993464 0.06496203 0.04953271 0.03384057 0.049658526 0.016073411 0.042960152 -0.025458863
-0.0029060969 0.023116622 -0.0097914785 0.0018307928 0.025348533 -0.027230298 0.0844143 0.020550516
-0.022755027 -0.066990584 0.014865491 0.014936841 -0.07560688 -0.05442135 -0.04971181 -0.08768529
-0.019906072 -0.03568895 -0.08425165 -0.08392221 -0.03917054 -0.060728498 -0.02250025 -0.09104251
0.009855867 -0.057874244 -0.0127201015 -0.0509178 -0.024823908 -0.045483716 -0.026420768 -0.059245236
-0.0067198714 -0.017763354 -0.047154363 -0.030091286 -0.112254605 -0.05354497 -0.03924915 -0.035451367
-0.07441377 -0.07394562 -0.024290878 -0.067343056 -0.05243944 -0.07922167 -0.035818793 -0.019288067
-0.046675455 -0.041432478 -0.0396295 -0.075120896 -0.00986325 0.019350547 -0.015731225 -0.098680474
-0.053179886 0.040717103 -0.031000303 -0.04974114 -0.07045577 -0.005492692 0.035588227 0.015203174
-0.026399398 -0.03726282 -0.057303872 -0.07092629 -0.038749207 -0.10535851 -0.07569894 -0.08484713
0.034402363 -0.034064468 0.071366556 -0.06568498 -0.049846455 0.064064644 0.02007932 -0.008729778
-0.05980049 -0.05747745 -0.095658995 0.0076216916 -0.03474796 0.068390876 0.06511577 -0.07082636
-0.025931466 -0.028214807 -0.061320115 -0.027594388 -0.087766044 -0.060410995 -0.0979846 -0.06550054
-0.07507278 -0.0941209 -0.09331312 0.022426382 0.014326292 -0.06786799 -0.0754058 0.011176957
-0.0518248 -0.09593866 -0.025797533 -0.044755537 -0.000106621475 -0.054963265 -0.015888717 0.02782788
-0.07685583 -0.014047 -0.0015387547 -0.057891484 0.01317878 -0.07833337 -0.046456266 0.0009851042
0.0021137283 -0.049760435 -0.077559106 -0.029861454 -0.06315179 -0.10367589 -0.06471079 -0.07524719
-0.03476577 -0.017310055 -0.06305966 -0.11526166 -0.020681856 -0.017747078 -0.011069808 -0.015298711
00000000: e8dc 673d 708e c0bc 1948 c93d 67bd 393d
00000010: c5c3 783d c010 15bd a9a1 433c ce67 c4bc
00000020: 4509 a93d b8d1 a2bb 117d 2bbd fa04 70bd
00000030: 8d1d 6d3d 5b97 003d 1fb0 57bd 241c 2c3d
00000040: ec35 2b3a 0c58 a2bb f643 33bd c596 c7bc
00000050: b9c5 293c 9f7f 9cbb cf30 103d 03e4 57bc
00000060: 84ea dd3c 5025 d1bc 3d34 13bb 8642 4a3d
00000070: d70c 043c 54c4 823c b474 8f3c 080c ba3c
00000080: 82b9 943c c81c 2bbb 7c9c 6e3d 6e54 d23c
00000090: 90b4 c83c 8b68 573d b68d b2bb c5f0 8b3d
000000a0: 8fa5 603d f73e eebc b784 5dbd 5d22 6ebd
000000b0: 39ed 833d b408 6e3d bd28 96b9 518b 043d
000000c0: c79c 72bd 72ba 90bb 3d0a c23c f210 f43c
000000d0: 5acc 073d 2de8 873d e58c d13b f502 ea3c
000000e0: 1c4e 06bd ad91 cbbb 0112 46bc bb3a 15bc
000000f0: 9723 8f3c 0668 203d 2452 edba 32c5 e0bb
00000100: fc42 40bc 35ae 723d f691 53bc b096 093d
00000110: 2467 b9bc 869d 943d 944a 1839 2238 873c
00000120: a1e4 75bd 7e20 063d a1a1 bdbc 949b 183d
00000130: 6535 e5bc 8125 413d cadd cc3c 1718 573c
00000140: d30f f1bb 960d 17bd 1963 1cbd 8563 77bd
00000150: 8f4f 7d3d fd3a 03bd 16fa 393d a698 263d
00000160: 422a 5d3c 05cf 833b 8100 2a3d e97d 82bc
00000170: 2f3c f9bb b2a1 52bd d78d 48bc 193f a7bc
00000180: 10b6 d0bc 3f98 95bd 8f9b 813d 94c7 273d
00000190: fffb 833d 8468 6ebd ed3e d73b 08cb f0bb
000001a0: 7cba ce3b e42e 4dbc e9bb e4bc e777 5b3c
000001b0: 0e2e 943d 50cb 283c f505 2b3c df17 39bc
000001c0: 067e 753d d00a 853d d0e2 4a3d 699c 0a3d
000001d0: bd66 4b3d 63ac 833c fcf6 2f3d 1b8f d0bc
000001e0: 3774 3ebb 125f bd3c 706c 20bc 36f7 ef3a
000001f0: baa7 cf3c 1312 dfbc 68e1 ac3d 8e59 a83c
00000200: c068 babc 5c32 89bd 638e 733c a7b9 743c
00000210: c8d7 9abd ece8 5ebd 9c9e 4bbd 5894 b3bd
00000220: 0f12 a3bc 942e 12bd 218c acbd 68df abbd
00000230: 4a71 20bd 72be 78bd 7252 b8bc 7f74 babd
00000240: 817a 213c 8b0d 6dbd f967 50bc 2f8f 50bd
00000250: 825b cbbc 224d 3abd 5e70 d8bc 22ab 72bd
00000260: 5e32 dcbb 7484 91bc ef24 41bd 0082 f6bc
00000270: bee5 e5bd f851 5bbd b7c3 20bd 7435 11bd
00000280: 3f66 98bd cd70 97bd aafd c6bc 28eb 89bd
00000290: bdca 56bd f93e a2bd bab6 12bd 0202 9ebc
000002a0: c32e 3fbd 1ab5 29bd 8b52 22bd fcd8 99bd
000002b0: 7899 21bc 0a85 9e3c c5de 80bc fd18 cabd
000002c0: 27d3 59bd fac6 263d 59f4 fdbc 5ebd 4bbd
000002d0: 1d4b 90bd 0afc b3bb f6c4 113d bc16 793c
000002e0: 8d43 d8bc e6a0 18bd 77b7 6abd cd41 91bd
000002f0: 7db7 1ebd 34c6 d7bd 0c08 9bbd 55c4 adbd
00000300: 7ee9 0c3d 2f87 0bbd a128 923d d985 86bd
00000310: cc2b 4cbd 5334 833d 637d a43c 5807 0fbc
00000320: 5cf1 74bd 7a6d 6bbd dde8 c3bd 62bf f93b
00000330: e053 0ebd 8410 8c3d 6b5b 853d 690d 91bd
00000340: 3a6e d4bc bd22 e7bc cd2a 7bbd a00d e2bc
00000350: afbe b3bd 8571 77bd 26ac c8bd 2625 86bd
00000360: c2bf 99bd 75c2 c0bd f31a bfbd 88b7 b73c
00000370: d3b8 6a3c 5ffe 8abd 5b6e 9abd 8e1f 373c
00000380: 3e46 54bd 7d7b c4bd 5955 d3bc 9551 37bd
00000390: f899 dfb8 2921 61bd 0e29 82bc 4bf7 e33c
000003a0: 9766 9dbd 6325 66bc 0ab0 c9ba 9f1f 6dbd
000003b0: cfeb 573c 3f6d a0bd ed48 3ebd 9d1e 813a
000003c0: 7a86 0a3b 99d1 4bbd 4fd7 9ebd 02a0 f4bc
000003d0: ba55 81bd 0654 d4bd 1787 84bd 331b 9abd
000003e0: 8d66 0ebd d1cd 8dbc 6c25 81bd 4e0e ecbd
000003f0: ff6c a9bc 5262 91bc 245e 35bc 72a7 7abc

gru.bias_hh_l0 f4 [384]
-0.00014705621 -0.04063365 0.0077585797 0.054992583 -0.0059507824 -0.03300161 0.02724906 -0.01929142
0.0046570357 -0.013471722 0.049256697 -0.05081608 0.028053638 0.003623822 0.047859468 0.046043277
0.05215967 0.012661788 0.008329658 -0.012645606 0.06403662 0.03279443 0.03785409 -0.04458193
-0.030210376 0.058364507 -0.013018433 -0.032330267 0.0059813685 0.023779454 0.05436351 0.0030846666
-0.02856407 -0.035141796 -0.027409626 -0.008651304 -0.020745236 0.06276479 0.07176582 0.068977684
-0.046492394 0.029668495 -0.04694969 0.024094213 0.05700343 0.05933784 0.0029155568 -0.012869279
0.042037886 0.015141246 0.030412184 0.03444443 0.024571279 0.029071065 0.025143355 0.031980883
-0.051960975 -0.029289963 -0.021831978 0.07518463 0.0053258142 -0.03645698 0.0033670934 0.058739904
0.00036578978 -0.014387074 -0.021256918 -0.021482047 0.044051018 -0.011638229 0.011448257 -0.03290908
0.014082081 0.010987375 -0.05907892 -0.020461848 -0.039590057 0.05651805 0.04879302 0.034022253
0.010589404 0.022663087 -0.0006999529 0.0753684 0.03590614 -0.03148301 0.011056775 -0.045288227
0.009206905 0.076720774 -0.016010528 0.033218015 0.06480856 -0.0069034006 -0.00990996 -0.04668338
-0.03809535 0.009615278 0.01696315 -0.023344932 -0.011313675 -0.035317525 0.047967665 -0.03695332
0.0071576987 -0.008869757 -0.016205879 -0.046615787 0.058410473 0.0054955273 0.025257012 -0.043829877
0.010274982 -0.036614507 -0.0084023895 0.040447935 -0.0017024184 -2.7413193e-05 0.029675245 -0.00035767932
0.03512543 0.039558355 0.01634266 -0.022381134 0.03437466 0.04570602 0.047864836 0.052220687
-0.061319154 -0.06592581 0.010238146 -0.009420108 -0.06843596 -0.07778776 -0.035241637 -0.06205893
-0.0073313555 -0.03456129 -0.062770754 -0.08679671 -0.02367294 -0.054786284 -0.021211876 -0.055684518
0.0009018592 -0.055171393 -0.07160416 -0.084266454 0.0065597203 -0.078822784 -0.040560145 -0.098074
0.00018349684 -0.06748537 -0.04682834 -0.008807729 -0.11626348 -0.09977942 -0.041219246 -0.008867153
-0.06912951 -0.05722281 -0.061145116 -0.06326065 -0.061193112 -0.07687014 -0.034426805 0.03025131
-0.013901245 -0.09631717 -0.086130604 -0.07654626 -0.063774936 0.00047183142 -0.021812318 -0.062829494
-0.038457915 0.016108232 -0.08734132 -0.05002937 -0.019041408 0.040570896 0.04399941 0.016551852
-0.045365613 -0.03835216 -0.051202275 -0.047131997 -0.03505952 -0.11043201 -0.099446036 -0.06490817
0.010526255 -0.0032005243 -0.029380182 -0.07288719 -0.057357393 0.0061004497 0.018549483 -0.031788565
-0.07434493 -0.057981953 -0.07448481 -0.0014387015 -0.02519417 0.06115415 0.0012932847 -0.05215089
-0.023091873 -0.015479259 -0.107652344 -0.0295597 -0.07481397 -0.08488338 -0.034063447 -0.0403274
-0.08593293 -0.0664805 -0.08077664 -0.035238992 -0.006494175 -0.04167792 -0.060801346 0.027051158
-0.04640592 -0.048268773 -0.007810453 -0.013683539 -0.0011446795 -0.04367986 -0.03740459 0.009770496
-0.09623382 0.022629054 -0.021881998 -0.053750023 0.0079202475 -0.07217231 -0.07956643 -0.06968978
-0.035179082 -0.06344683 -0.054302696 -0.08294883 -0.07475525 -0.07994451 -0.10497035 -0.059069324
-0.08109499 0.0030586636 -0.05035553 -0.11193806 0.035323523 -0.01732688 0.032684844 -0.017575365
00000000: 1a33 1ab9 786f 26bd af3b fe3b e73f 613d
00000010: c8fe c2bb b22c 07bd 6c39 df3c 0a09 9ebc
00000020: 0c9a 983b 7fb8 5cbc 64c1 493d 8624 50bd
00000030: bed0 e53c a57d 6d3b 4a08 443d e097 3c3d
00000040: 61a5 553d 6373 4f3c 1e79 083c 842f 4fbc
00000050: a225 833d 7453 063d e40c 1b3d 8b9b 36bd
00000060: c07b f7bc 9f0f 6f3d 444b 55bc be6c 04bd
00000070: 5bff c33b 21cd c23c 46ac 5e3d 1e28 4a3b
00000080: 32ff e9bc d8f0 0fbd 278a e0bc 33be 0dbc
00000090: eaf1 a9bc d48a 803d f5f9 923d 2c44 8d3d
000000a0: cf6e 3ebd 580b f33c 514e 40bd 3a61 c53c
000000b0: 6e7c 693d 3c0c 733d ed12 3f3b abd9 52bc
000000c0: eb2f 2c3d fd12 783c f922 f93c 9a15 0d3d
000000d0: b549 c93c 7126 ee3c 70f9 cd3c 63fe 023d
000000e0: 08d5 54bd 81f1 efbc fad8 b2bc 66fa 993d
000000f0: 2b84 ae3b ea53 15bd 74aa 5c3b 4199 703d
00000100: 79c7 bf39 c3b7 6bbc fd22 aebc 1efb afbc
00000110: d76e 343d 45ae 3ebc 7891 3b3c accb 06bd
00000120: 87b8 663c 6404 343c bdfc 71bd 9b9f a7bc
00000130: 2f29 22bd 797f 673d 31db 473d eb5a 0b3d
00000140: 2e7f 2d3c f0a7 b93c 0b7d 37ba bf5a 9a3d
00000150: 5112 133d 54f4 00bd 7a27 353c 2680 39bd
00000160: 8fd8 163c c81f 9d3d 8328 83bc 9d0f 083d
00000170: 5aba 843d ec35 e2bb 635d 22bc 1237 3fbd
00000180: df09 1cbd 6689 1d3c 4ef6 8a3c df3d bfbc
00000190: fe5c 39bc 1ca9 10bd be79 443d 5d5c 17bd
000001a0: 218b ea3b 7552 11bc 31c2 84bc 32f0 3ebd
000001b0: d23f 6f3d d313 b43b cbe7 ce3c f586 33bd
000001c0: 6658 283c 18f9 15bd 2daa 09bc bcac 253d
000001d0: af23 dfba 62f5 e5b7 8019 f33c e886 bbb9
000001e0: afdf 0f3d f107 223d 0be1 853c a458 b7bc
000001f0: 72cc 0c3d 3c36 3b3d eb0d 443d 5ce5 553d
00000200: cb29 7bbd 1c04 87bd e6bd 273c cc56 1abc
00000210: 2728 8cbd 304f 9fbd 8959 10bd 8131 7ebd
00000220: de3b f0bb 2490 0dbd f48d 80bd 79c2 b1bd
00000230: c1ed c1bc 9567 60bd 87c4 adbc 7315 64bd
00000240: bf6a 6c3a 66fb 61bd 34a5 92bd e493 acbd
00000250: ecf2 d63b d76d a1bd 6522 26bd 05db c8bd
00000260: 0f69 4039 c535 8abd 13cf 3fbd 4b4e 10bc
00000270: 8c1b eebd 2759 ccbd 83d5 28bd 8947 11bc
00000280: c693 8dbd 7762 6abd 4d73 7abd cd8e 81bd
00000290: a1a5 7abd 186e 9dbd 1f03 0dbd 98d1 f73c
000002a0: 0cc2 63bc f041 c5bd 3e65 b0bd 49c4 9cbd
000002b0: 6f9c 82bd 2460 f739 bfaf b2bc c0ac 80bd
000002c0: 0c86 1dbd 69f5 833c 02e0 b2bd 99eb 4cbd
000002d0: bafc 9bbc ab2d 263d ba38 343d c097 873c
000002e0: 4bd1 39bd 2817 1dbd 7ab9 51bd 7b0d 41bd
000002f0: 929a 0fbd 2d2a e2bd 5daa cbbd 93ee 84bd
00000300: 5076 2c3c e3bf 51bb b5ae f0bc e145 95bd
00000310: 96ef 6abd 48e6 c73b 16f5 973c ba34 02bd
00000320: 2842 98bd 7c7e 6dbd 7e8b 98bd d092 bcba
00000330: 0164 cebc c67c 7a3d 6f83 a93a 2c9c 55bd
00000340: 2b2b bdbc b89c 7dbc d578 dcbd 2f27 f2bc
00000350: 1138 99bd 56d7 adbd 1d86 0bbd 582e 25bd
00000360: 9bfd afbd ee26 88bd 396e a5bd c356 10bd
00000370: 17cd d4bb 77b6 2abd d50a 79bd 649a dd3c
00000380: 2214 3ebd 7ab5 45bd d4ee ffbb ec30 60bc
00000390: 1209 96ba a7e9 32bd 8e35 19bd 6e14 203c
000003a0: 3d16 c5bd 9160 b93c e041 b3bc fc28 5cbd
000003b0: edc3 013c 13cf 93bd b9f3 a2bd 84b9 8ebd
000003c0: f117 10bd 69f0 81bd 816c 5ebd 14e1 a9bd
000003d0: 4819 99bd f2b9 a3bd b2fa d6bd adf2 71bd
000003e0: 2115 a6bd dc73 483b 9a41 4ebd c83f e5bd
000003f0: 66af 103d 1af1 8dbc 8be0 053d 36fa 8fbc

linear2.weight f4 [5, 128]
0.028357781 0.022642165 -0.014379341 -0.09824998 0.004028324 -0.10196789 -0.00649544 -0.02788014
0.103801 -0.085222736 -0.07640766 0.047458824 0.0034581106 0.048133735 -0.08300138 0.065609194
-0.033323873 -0.030223686 0.08887506 -0.040904194 0.08586938 -0.06588493 0.041736424 -0.010229591
-0.068132825 0.05621045 0.016258776 -0.082867324 0.058707375 -0.042401016 -0.052385222 0.04919659
0.056998637 0.09277188 -0.0758853 -0.09900704 -0.026513137 0.06976819 0.05242071 -0.030734742
0.046443153 0.13357265 -0.029265627 -0.14032677 0.03803064 -0.096498735 -0.023767788 0.038856287
0.014707526 0.08410162 -0.053130295 -0.047073953 0.03763598 -0.062723264 -0.053005807 -0.0021442322
-0.09633418 0.019187253 -0.005196176 0.090396106 0.077882476 0.073096305 -0.06381329 -0.036471583
-0.0046507544 0.01829009 0.035354476 -0.06752798 0.044390168 -0.018309897 -0.030916268 0.07771836
-0.0139435 0.07025092 0.12728484 0.036416564 0.007999699 -0.007568901 -0.04244606 -0.09971462
0.0044909054 -0.017429246 0.04153725 0.013055707 0.11967568 0.067490935 0.11902983 -0.08141203
0.045853212 0.028956227 0.030110076 -0.07443301 -0.0047297324 -0.006062621 -0.022977863 0.04590162
0.023630707 -0.10864907 -0.098614894 -0.00837935 -0.0024078425 -0.081104055 0.08176523 0.04656246
0.026211 -0.0618785 0.019568464 0.070675716 0.0053722085 0.09989624 0.06579743 0.07191104
0.055449978 -0.0639141 -0.066671416 0.06112561 0.029087933 0.06669068 0.07716971 0.004637411
0.047989387 -0.021122614 0.06038556 0.085955836 -0.14619535 0.06604749 0.08448591 -0.0037552142
0.0902029 -0.0767353 0.023403583 -0.08133859 -0.12954839 0.06759351 0.09697975 -0.0449064
0.110706046 -0.041728705 0.19239539 -0.11892239 -0.0026329434 -0.06284822 0.08713744 -0.101634726
0.034390323 0.01770401 0.10235305 0.041283548 0.087074935 -0.07728091 0.04223925 0.08077495
-0.05606498 0.087484814 -0.08563624 0.09765606 -0.019518279 0.11974852 0.042952053 -0.0005794452
-0.12915494 -0.013356584 -0.10134686 0.09865245 -0.080730125 0.083131865 0.084297836 0.05428546
0.109133124 -0.092267066 0.08118311 0.099299654 -0.12403138 -0.060820173 0.046942428 -0.12196099
-0.037283473 0.027191471 0.07701758 -0.012288554 -0.08639032 -0.06781664 -0.010369729 -0.03782301
-0.01717468 0.008891919 -0.07233091 0.17444526 -0.09477153 0.18134096 -0.03158842 0.087417334
0.0378662 -0.100576214 0.1267759 -0.08624313 -0.05072541 0.10472607 0.11313336 0.1017105
0.087168485 -0.027026106 -0.12349258 0.054298535 0.124424316 0.10927299 0.047686346 -0.045970466
-0.054689515 -0.09863857 0.036126625 0.01787125 -0.054150384 0.058401246 -0.105539285 0.050834935
-0.11254966 0.07575491 0.1529986 0.07962029 0.021843832 -0.015563308 0.088059485 -0.010523612
0.108107686 0.16460451 -0.035815675 0.048060674 -0.021912888 0.00074359565 0.06609946 0.021560948
0.018303571 0.024369843 0.041605666 0.09102589 0.07817524 -0.07699001 0.03676455 -0.14183839
-0.0091743115 0.089303784 -0.10403198 -0.05312107 -0.0029963483 0.15004082 -0.08409934 -0.0814533
-0.050500296 0.050429057 0.092674196 -0.07102296 0.013337817 0.08567057 -0.020860417 -0.0036589643
00000000: 944e e83c 107c b93c 5497 6bbc 4937 c9bd
00000010: 0800 843b 8bd4 d0bd b3d7 d4bb e464 e4bc
00000020: 9e95 d43d 4289 aebd 9f7b 9cbd 2f64 423d
00000030: 78a1 623b e127 453d a1fc a9bd 1d5e 863d
00000040: 9d7e 08bd aa97 f7bc 2104 b63d 288b 27bd
00000050: 49dc af3d aeee 86bd d0f3 2a3d 049a 27bc
00000060: 3989 8bbd ee3c 663d 2031 853c 58b6 a9bd
00000070: 2577 703d b0ac 2dbd e391 56bd 5d82 493d
00000080: 6777 693d 2fff bd3d c169 9bbd 34c4 cabd
00000090: 1432 d9bc a0e2 8e3d 19b7 563d 6dc7 fbbc
000000a0: 2d3b 3e3d 45c7 083e 78be efbc d2b1 0fbe
000000b0: 04c6 1b3d 21a1 c5bd aab4 c2bc c527 1f3d
000000c0: d6f7 703c 783d ac3d 279f 59bd 9ed0 40bd
000000d0: 2f28 1a3d 0e75 80bd 9e1c 59bd 3f86 0cbb
000000e0: db4a c5bd 962e 9d3c af44 aabb 9821 b93d
000000f0: d980 9f3d 84b3 953d 8bb0 82bd 3a63 15bd
00000100: 5b65 98bb 19d5 953c dbcf 103d 1c4c 8abd
00000110: 77d2 353d a3fe 95bc 1d44 fdbc ce2a 9f3d
00000120: 4773 64bc b7df 8f3d f556 023e 8929 153d
00000130: 2b11 033c 8b04 f8bb ebdb 2dbd 2e37 ccbd
00000140: 7228 933b c7c7 8ebc f722 2a3d 9be7 553c
00000150: 8618 f53d b038 8a3d e9c5 f33d 5abb a6bd
00000160: 94d0 3b3d 9c35 ed3c 68a9 f63c 5570 98bd
00000170: dffb 9abb f3a8 c6bb 123c bcbc 5603 3c3d
00000180: 2f95 c13c 6783 debd 9bf6 c9bd 8b49 09bc
00000190: e5cc 1dbb e219 a6bd 8774 a73d 47b8 3e3d
000001a0: 73b8 d63c 4f74 7dbd 0b4e a03c 6ebe 903d
000001b0: 5a09 b03b 6696 cc3d cec0 863d 1846 933d
000001c0: 841f 633d 65e5 82bd 068b 88bd d95e 7a3d
000001d0: d149 ee3c 2095 883d 270b 9e3d 6cf5 973b
000001e0: 8590 443d 5509 adbc d956 773d 9d09 b03d
000001f0: 3cb4 15be e843 873d f306 ad3d 0a1a 76bb
00000200: 4cbc b83d 6627 9dbd dfb8 bf3c d994 a6bd
00000210: 55a8 04be 776e 8a3d 529d c63d c6ef 37bd
00000220: dab9 e23d b8eb 2abd 4c03 453e 958d f3bd
00000230: 768d 2cbb 91b6 80bd 1d75 b23d de25 d0bd
00000240: dedc 0c3d 0008 913c 7a9e d13d f018 293d
00000250: 5854 b23d 7445 9ebd 1003 2d3d 566d a53d
00000260: 64a4 65bd 3d2b b33d 0e62 afbd e6ff c73d
00000270: cce4 9fbc b63e f53d 7eee 2f3d e9e5 17ba
00000280: 3141 04be 93d5 5abc f18e cfbd 4c0a ca3d
00000290: d655 a5bd 0a41 aa3d 58a4 ac3d 6e5a 5e3d
000002a0: 3081 df3d 84f6 bcbd 5543 a63d 9e5d cb3d
000002b0: 2a04 febd 931e 79bd b446 403d afc6 f9bd
000002c0: 8eb6 18bd a6c0 de3c 65bb 9d3d ee55 49bc
000002d0: 68ed b0bd 73e3 8abd cce5 29bc 4dec 1abd
000002e0: eab1 8cbc 69af 113c 3a22 94bd c7a1 323e
000002f0: 9317 c2bd 72b1 393e dc62 01bd dc07 b33d
00000300: 9719 1b3d e7fa cdbd 8bd1 013e 3da0 b0bd
00000310: 73c5 4fbd 9f7a d63d 77b2 e73d 984d d03d
00000320: 6485 b23d da65 ddbc aee9 fcbd 2468 5e3d
00000330: 2dd2 fe3d 84ca df3d c252 433d 874b 3cbd
00000340: 1d02 60bd 0503 cabd 83f9 133d ba66 923c
00000350: cbcc 5dbd 2536 6f3d fb24 d8bd 4b38 503d
00000360: 7080 e6bd 6425 9b3d aaab 1c3e f60f a33d
00000370: d6f1 b23c 3ffd 7ebc 8858 b43d 3a6b 2cbc
00000380: 9067 dd3d 168e 283e 75b3 12bd 45db 443d
00000390: a882 b3bc dced 423a 275f 873d 96a0 b03c
000003a0: 5ff1 953c 44a3 c73c b46a 2a3d c86b ba3d
000003b0: 571a a03d f0ac 9dbd 6d96 163d 153e 11be
000003c0: da4f 16bc e7e4 b63d b80e d5bd 7b95 59bd
000003d0: 625e 44bb 4da4 193e 463c acbd fdd0 a6bd
000003e0: 66d9 4ebd b38e 4e3d f8cb bd3d 7c74 91bd
000003f0: dc86 5a3c 0d74 af3d 77e3 aabc 3ccb 6fbb

linear2.bias f4 [5]
0.03994026 -0.01415109 0.08072749 -0.054781146 -0.101176806
00000000: 6698 233d f9d9 67bc 7454 a53d 3262 60bd
00000010: c935 cfbd

linear1.weight f4 [8, 4]
0.19164999 -0.24947874 0.3294527 0.56913507 0.3993165 0.17179798 -0.35105073 0.15865147
-0.47230506 0.35472557 0.50720745 -0.3200581 -0.35406667 0.18372063 -0.2848855 0.19233078
0.08237588 -0.0939994 0.27835983 0.14995112 0.4891645 -0.18626742 -0.4539029 0.3378892
-0.15163866 0.16013642 -0.51947725 -0.11700559 0.6073389 -0.1825464 -0.055273555 -0.3621742
00000000: e53f 443e 5b77 7fbe 06ae a83e d6b2 113f
00000010: 3673 cc3e cfeb 2f3e ecbc b3be 8875 223e
00000020: f8d1 f1be 979e b53e 59d8 013f a8de a3be
00000030: 3a48 b5be 4321 3c3e 83dc 91be 5cf2 443e
00000040: afb4 a83d c282 c0bd 2e85 8e3e c98c 193e
00000050: c573 fa3e e3bc 3ebe f665 e8be d0ff ac3e
00000060: 2a47 1bbe cdfa 233e 76fc 04bf a0a0 efbd
00000070: 907a 1b3f 72ed 3abe 8666 62bd e66e b9be

linear1.bias f4 [8]
0.43657792 0.43399194 -0.14754647 0.21738526 0.116728105 0.029312475 0.4565154 -0.19101465
00000000: 2487 df3e 3134 de3e 6c16 17be 3e9a 5e3e
00000010: 250f ef3d b720 f03c 63bc e93e 5899 43be
